PG/Policy_Based/REINFORCE/model_save/Discrete_REINFORCE_CartPole-v0_Score_171.6.pt (torch, 2644 bytes, 4 tensors)

fc1.weight f4 [32, 4]
000000 e6 3c 91 bc 12 4a e7 be 65 b2 53 bf 63 0b a9 be
       -0.017729234 -0.451737 -0.82694083 -0.330165
000010 97 64 d9 be 18 0c 83 be 8c d4 10 bf 1c 85 3b bf
       -0.42459556 -0.25595164 -0.5657432 -0.73249984
000020 42 64 bf 3d d2 c0 d6 be 81 d1 1f bf 6d 69 2e bf
       0.093452945 -0.41943985 -0.6242905 -0.68129617
000030 5f 85 17 bd 1d 46 8a 3e be 97 2a be 02 05 38 bf
       -0.036992427 0.27006617 -0.16659448 -0.7188264
000040 40 c2 94 3d db 93 2c bd 88 25 d4 3e f4 29 6b be
       0.07263613 -0.042133193 0.41434884 -0.22965223
000050 ee 42 29 be e3 0b 44 be bf 9c d1 3e e8 07 ef bd
       -0.16529438 -0.1914516 0.409399 -0.1167143
000060 ac f5 80 3e cd d0 06 3e 5e bc 36 bf a0 80 f1 be
       0.25187433 0.13165589 -0.71381176 -0.47168446
000070 b6 05 d4 be 73 d9 08 bf b5 5f 6c 3e 7b af 1e 3f
       -0.41410607 -0.534568 0.23083384 0.6198651
000080 13 7a 1f be ff 9f d1 3e 71 be 59 3e 71 c2 80 3d
       -0.15573911 0.4094238 0.21264054 0.06287087
000090 70 75 1c 3e 73 3c 6a bd 65 70 13 be 9d 09 06 3e
       0.15279174 -0.057186555 -0.14398344 0.13089605
0000a0 96 08 4d 3e 15 13 87 be 0d 0e 99 be 88 90 f8 be
       0.20022807 -0.26381746 -0.29893532 -0.4854777
0000b0 73 7a eb bd a3 d0 79 be ac 1d 41 3f 8f 3c 5b 3f
       -0.11497965 -0.24395995 0.754359 0.8563928
0000c0 a6 9b cb 3d 96 f3 fd 3e 52 30 a2 be 93 0b 06 bd
       0.09941797 0.49599904 -0.3167749 -0.03272588
0000d0 ab df 2f 3e ce 2a ce 3d ce 01 5a 3f c3 ea 0a 3f
       0.17175166 0.10066758 0.85159004 0.5426447
0000e0 41 fb a2 3e 78 96 71 be 88 1d a5 3e 08 d8 1f 3f
       0.31832317 -0.23592556 0.32249093 0.6243901
0000f0 b7 93 3e 3e 2b f1 aa 3d ce 88 81 be bf 42 47 3e
       0.18611036 0.083467804 -0.25299686 0.19459055
000100 18 24 70 3d b3 64 4a be 55 32 48 bf d8 1c e6 be
       0.05862817 -0.19764976 -0.782018 -0.4494388
000110 94 c2 a0 bd 1c c6 72 be f3 f0 89 bd 01 c0 06 bd
       -0.07849613 -0.23708385 -0.067354105 -0.032897953
000120 81 59 a3 be cc 08 66 be a6 a6 9a bd 1a 32 b6 be
       -0.31904224 -0.22464293 -0.07551317 -0.355851
000130 6d 13 3d bc 88 58 17 be d9 45 62 bf df d8 7c be
       -0.011540276 -0.14779866 -0.8838783 -0.24692105
000140 b4 0f 0a 3f 77 77 6b 3f 9f 05 73 3f 16 8d fd 3e
       0.5393021 0.91979164 0.9493045 0.49521703
000150 75 50 3b bf 04 15 e9 3d 85 e2 53 bf e2 82 0a bf
       -0.7316964 0.113809615 -0.82767516 -0.5410596
000160 4a b4 51 3e dd f4 48 3d 70 f0 0d 3f 51 5c 19 3f
       0.20478931 0.049061645 0.55445004 0.5990649
000170 eb ec d5 3e 48 8f cc be 24 23 72 3f aa 7b 64 3f
       0.41782317 -0.39953065 0.9458487 0.89251196
000180 35 46 ad 3c f3 ea 55 bd 1c 9a 63 3f c3 e5 1c 3f
       0.021151641 -0.05222602 0.8890703 0.6128809
000190 bb f3 98 be 9c cd c5 3d 0e e8 3f bf 42 ac 2e bf
       -0.29873452 0.096583575 -0.7496346 -0.68231595
0001a0 7b a5 03 3f ce f3 fc 3d fa 4e d2 3e e4 52 18 3f
       0.5142438 0.123511896 0.4107588 0.5950148
0001b0 fb 02 b2 3d 02 45 b1 bd a5 8c fb be e2 34 06 bf
       0.08691975 -0.0865574 -0.4913074 -0.5242444
0001c0 5e f0 49 3e 62 68 62 3e 42 47 65 3f 0a 53 e9 3e
       0.19720599 0.22110131 0.89561856 0.45571166
0001d0 8e be d2 3e e6 6d bf be 85 9f d0 3e 7c 7e 0b 3f
       0.41161007 -0.37388533 0.40746704 0.54489875
0001e0 04 cd 1d 3e 71 c4 89 3d a2 43 3f bf 80 1f d7 be
       0.15410239 0.06726921 -0.74712574 -0.4201622
0001f0 eb 4e 35 3e bb 65 18 3f a7 5a eb 3d 64 56 e7 3e
       0.17705886 0.5953023 0.114919 0.45183098

fc1.bias f4 [32]
000000 91 0f 7e 3d ff f4 e2 3e a9 3e af 3e d1 be aa 3d
       0.062026564 0.44327542 0.34227493 0.083371766
000010 fa 2d 1a 3e 06 65 34 be 8a 01 84 be 8b a1 50 bd
       0.15056601 -0.17616662 -0.25782424 -0.05093531
000020 d2 5b 08 bc 7a 7b dd be 01 23 d6 3d c6 75 06 3d
       -0.008322673 -0.43258268 0.10455895 0.03282716
000030 87 e3 b5 be fc 26 7a 3e 3f dd a2 3e 0c bf f9 bd
       -0.35525152 0.24428934 0.31809422 -0.121946424
000040 6b 79 c6 3e a7 2a b8 be 06 7f 0d bf 1c 56 b1 3d
       0.3876451 -0.3597004 -0.5527195 0.08659002
000050 bd 6f 8c 3c 76 c8 d2 3e 69 e0 8a 3e cd 51 b3 bd
       0.017143125 0.41168565 0.27124336 -0.08755837
000060 6d 9c cd 3d 4f fa 93 3e 1c bd 7c 3e d9 29 f0 3d
       0.100396015 0.28901908 0.24681515 0.11726732
000070 9a a7 94 3e b0 e0 54 bd 90 16 18 be 5f 91 ad 3d
       0.2903412 -0.05197209 -0.14852357 0.08474993

fc2.weight f4 [2, 32]
000000 47 e5 c4 3e 66 ba 65 3e 9c a9 b2 3e 92 35 e0 3d
       0.38456175 0.22434387 0.34895027 0.10947718
000010 c2 f7 8c 3d 40 95 e2 3c 93 ea a3 3d 87 fe 5d be
       0.068831936 0.027659059 0.08003726 -0.21679126
000020 8e 17 12 3c 44 47 b5 3d cf 4d 84 3e f5 aa a8 be
       0.008916749 0.088514835 0.25840613 -0.3294293
000030 ef 40 74 3e 33 64 d8 be 70 af 8b be e8 2c 5f bb
       0.23852895 -0.42263946 -0.27282286 -0.0034053866
000040 8b 4d 11 3e 22 9b 46 be d4 54 2d bc 1c 95 9b 3e
       0.14189737 -0.19395116 -0.010579307 0.303872
000050 3e bb ff be 74 48 38 3e 98 f5 46 be f8 81 10 bf
       -0.49947542 0.17996389 -0.19429624 -0.56448317
000060 4a ff 70 be 58 8e 8d 3e 90 35 cf be 50 a4 14 3e
       -0.23534885 0.27647662 -0.40470552 0.14515805
000070 21 b5 14 be 7b 00 c0 be bd e3 45 3e 20 5c ba be
       -0.1452222 -0.37500367 0.19325157 -0.3639841
000080 ea 26 c6 be 77 77 d9 be a6 57 d3 be 93 92 90 be
       -0.38701564 -0.42473957 -0.41277808 -0.28236827
000090 6e 12 49 3d 2f 52 17 3e c0 07 b4 bd de 6a c6 3e
       0.04908984 0.14777444 -0.08790541 0.38753408
0000a0 cf a3 85 3e 2a 99 79 3d 73 59 15 be fd 4c cd 3e
       0.2610154 0.060937084 -0.14584903 0.400978
0000b0 23 50 14 bc e2 77 64 3e 56 d8 c7 3d 9e a4 9a 3d
       -0.009052309 0.22311357 0.0975806 0.075509295
0000c0 e1 39 19 be 6f 82 70 3e 39 e1 15 3c 0a 42 41 be
       -0.14963485 0.23487256 0.009147936 -0.18872848
0000d0 8d 3e 0e 3f 3d 6c 1a be 61 99 83 3e e6 40 9c 3e
       0.55564195 -0.15080352 0.25702956 0.30518264
0000e0 44 39 ff 3e ca 39 98 be e7 9b d4 3e 3b b7 ad be
       0.49848378 -0.2973159 0.41525194 -0.33928856
0000f0 71 ed 23 3e 19 f7 ee 3e 39 f0 c4 be 5f c1 51 3e
       0.16008545 0.46672896 -0.38464525 0.20483921

fc2.bias f4 [2]
000000 b3 3a b8 bd 0e e7 36 be
       -0.08995571 -0.17861578
