PG/Policy_Based/REINFORCE/model_save/Discrete_REINFORCE_CartPole-v0_Score_74.4.pt (torch, 2643 bytes, 4 tensors)

fc1.weight f4 [32, 4]
00000000: 3111 26bf 0fab a0be bf78 4c3f b6d1 f33e
00000010: 5655 90bd 658f b7be 2c68 b3bd 1f20 c33e
00000020: b2ca ed3d 9282 053e 3f3e b13e 12ad 033f
00000030: 6e86 c0be 56b6 27be 1ed5 423e 42ac fa3e
00000040: cee4 b0be 0975 6ebe c193 263e c538 2b3f
00000050: fa5e d2bd 8d3a 173f 8013 ac3d f98e d63e
00000060: 8c33 42bc 02f3 c7be f2c1 633e 9432 e03e
00000070: 746d bdbd 2e6c 973d 6ab3 b7bd b497 acbe
00000080: 68d2 df3d a652 82be 5638 363e 6b17 a43e
00000090: b6b8 efbe 370f b9be 8443 303e dc06 76be
000000a0: 5b27 cbbe 3a64 94bb 5300 b5be 7199 3dbd
000000b0: e2a6 283e 01e7 bfbe 4a1d 81bd 2242 ae3e
000000c0: 4a17 61be 0c2b fabe f820 073f b36e 303f
000000d0: 75d2 2b3e 4451 963e d097 253f a22e ff3e
000000e0: 4754 1d3e 46c0 f2be d670 fb3d 9920 d53e
000000f0: 4660 d23d 86cf fdbd 5fde dcbe 4732 d5be
00000100: 06ea 853e 16b1 33be 1d04 873e ff41 2abf
00000110: 6349 1e3f 5b94 903c 60dd 1bbf 2026 29bf
00000120: b622 b0be 131b 76be 1eba 9fbe 76a4 99be
00000130: d93c f43e eabb ec3e 245f 9abe c292 2ebf
00000140: 2646 58be 9b79 fabe 46d7 ae3e f061 6f3e
00000150: 6e7a e63e 0d6a efbe e1b8 1c3f aa3c 1d3f
00000160: 350e 183c d8aa a23e 010d 813e adf2 51be
00000170: 4a92 b5be 8b6e 923e 9f37 d6be aa9e 7e3d
00000180: cb3b 2e3b 54a8 efbd d821 a8bb 43a1 153f
00000190: f3ff 23bf bc61 0ebf b5d3 d53d 6e11 2a3e
000001a0: 463a f7bd 342e a83e e570 02bf cff9 a2be
000001b0: 2b0d d03e 252b c93d 89ed 393f 081c 2a3f
000001c0: cc6f 9ebc 7748 a03d 0d0b cabe 4432 c23d
000001d0: 7013 f93d 3531 22be 566e 293e 35db 7dbd
000001e0: 81fb 44be 1eb6 c53e 8450 de3e bac0 4a3f
000001f0: 804b df3b 8076 1c3d 683c a4bd ec0e 183e
-0.6486998 -0.31380507 0.79871744 0.47620934 -0.070475265 -0.3585159 -0.087601036 0.38110444
0.11610927 0.1303809 0.34617803 0.5143596 -0.37602562 -0.1637815 0.1902661 0.48959547
-0.34549564 -0.23286833 0.16267301 0.668835 -0.102720216 0.59073716 0.08402157 0.41905954
-0.01185311 -0.39052588 0.22241953 0.43788588 -0.09249392 0.073936805 -0.089697674 -0.3370949
0.10928804 -0.2545368 0.17794928 0.32049116 -0.4682061 -0.3614442 0.17213255 -0.24026054
-0.39678463 -0.0045285495 -0.3535181 -0.04628891 0.1646991 -0.3748093 -0.063044146 0.3403483
-0.2198154 -0.48860967 0.5278468 0.68918914 0.16779502 0.29358876 0.6468477 0.49840266
0.1536418 -0.47412318 0.12277381 0.41626433 0.10272269 -0.123930976 -0.43138406 -0.4163992
0.26155108 -0.17548022 0.26370326 -0.6650695 0.6183073 0.017648866 -0.60884666 -0.660738
-0.34401482 -0.24033765 -0.31196684 -0.30008286 0.47702673 0.46237117 -0.30150712 -0.68192685
-0.2112051 -0.48920903 0.34148616 0.23377204 0.4501528 -0.46760598 0.612196 0.6142069
0.009280731 0.31770968 0.25205234 -0.2050273 -0.35463172 0.28599963 -0.4183931 0.062163033
0.0026585932 -0.11702028 -0.0051309876 0.5844919 -0.6406242 -0.5561788 0.104407705 0.16608211
-0.12071662 0.3284775 -0.50953513 -0.31831214 0.40635046 0.09822682 0.72628075 0.6644902
-0.019340418 0.078263216 -0.39461556 0.09482244 0.121619105 -0.15839083 0.16545996 -0.06197663
-0.19236566 0.38615507 0.43420804 0.7920033 0.00681442 0.038198948 -0.08019334 0.14849442

fc1.bias f4 [32]
00000000: dd74 5cbd 6595 23be eb96 133e edae cabc
00000010: f8f6 813e 0184 90be 0e71 f03c 13d1 d1be
00000020: 3c29 b53c dfb8 1ebe b787 a7be 7d3d 283e
00000030: 649a 60bb 0b00 093e d71e 49bd 203c 823e
00000040: 376f 673e 889a 10bd 9671 db3e c649 17be
00000050: 07af 2bbb 1db8 2fbe 246a e5be aca0 8abe
00000060: 5440 0b3d 8cc7 83bd 1477 f1bd 2303 c43b
00000070: f32f ba3e 7c88 c9be 3d24 833d 6c74 7cbe
-0.053822387 -0.15974958 0.1441304 -0.024741614 0.25383735 -0.2822571 0.029350784 -0.40979823
0.022114389 -0.1550021 -0.3272073 0.16429706 -0.0034271711 0.13378923 -0.049101677 0.25436497
0.22601019 -0.035303622 0.42860097 -0.14774236 -0.0026196854 -0.17160077 -0.4480754 -0.27075708
0.033996895 -0.06434545 -0.117902905 0.0059818192 0.36364707 -0.39361942 0.06403396 -0.24653786

fc2.weight f4 [2, 32]
00000000: 2f3a f8be 6856 84bd f870 00be f865 b3be
00000010: ae2c febc 9ce3 23be f096 56be e223 2f3e
00000020: b602 50bc 6920 963c 0f1c 43be 73df 4dbe
00000030: 5b36 9bbe bf3c f2bd 8d4c a9bd 3334 a73e
00000040: b96f aa3e 3477 a73e 251e 643d b721 ae3d
00000050: 810b e2bd 11e6 a6be 29f7 0abc 7dd9 b23d
00000060: ccb7 92be 8bfd 89bd 8890 723e 4910 a7be
00000070: 0322 97bd c762 1f3d bac2 7bbe 0e13 6ab9
00000080: cd71 973e 41fd 0b3e e254 8b3e 3b15 423e
00000090: 677f 913e 823c 2c3e 7419 a03e abf7 023d
000000a0: 88ae e53d 590e 7c3d 7f1d ddbd ab77 12bd
000000b0: 11ca 1a3e 2834 8e3e 74d1 7c3e 9b02 7ebe
000000c0: 9744 71bc e85e 5cbd 24df 1fbe 6b13 4cbe
000000d0: 0b37 b83d 6617 b23e da19 3bbd 96fe 05bd
000000e0: 7456 973d 7e7d 883e ec3b e7bc c04b 8b3e
000000f0: 742a d0bd 0998 a83d 557c d33e 8a54 21be
-0.4848189 -0.06461793 -0.12543094 -0.35038733 -0.031027164 -0.16004795 -0.20956016 0.17103532
-0.012695959 0.018326001 -0.19053672 -0.2010477 -0.30314907 -0.11827993 -0.08266554 0.32657012
0.33288363 0.32708132 0.05569281 0.08502524 -0.110373504 -0.32597402 -0.008481779 0.08732889
-0.2865585 -0.067378126 0.23687947 -0.32629612 -0.07379534 0.03891256 -0.24586001 -0.00022323077
0.2957901 0.13670827 0.27213198 0.18953411 0.28417513 0.16819957 0.3126942 0.031974476
0.1121493 0.06153712 -0.107966416 -0.035758656 0.15116145 0.27774167 0.24689275 -0.24805681
-0.014725826 -0.053801447 -0.15612465 -0.19929282 0.089948736 0.34783477 -0.04567895 -0.032713495
0.073895365 0.26658243 -0.028226815 0.2720623 -0.10164347 0.082321234 0.41305795 -0.15754905

fc2.bias f4 [2]
00000000: fb01 13ba 7bc2 79be
-0.00056079 -0.24390595
