PG/Policy_Based/REINFORCE/model_save/Discrete_REINFORCE_CartPole-v0_Score_183.1.pt (torch, 2643 bytes, 4 tensors)

fc1.weight f4 [32, 4]
-0.17915004 -0.1071214 -0.722729 -0.7553192 -0.08754933 -0.038110256 -0.33456373 -0.078488946
0.17499436 -0.10246357 -0.35813305 -0.30512735 0.26696524 -0.21511401 -0.05436815 0.0510623
0.039825868 0.14971285 -0.6198659 -0.4716241 -0.13421758 -0.17368098 0.074140295 0.2839089
0.3564941 0.9149825 0.83205944 0.4914775 0.30181676 0.42616624 -0.4804066 0.14691581
0.057149302 0.25904164 -0.009732838 0.12258701 -0.28472283 -0.2017667 -0.2396181 0.06636938
0.08346657 -0.2258078 0.36834276 0.45519802 0.2055288 0.004422501 -0.2575029 -0.6197555
-0.019160826 0.5241009 0.17169237 0.21894708 0.0806247 0.27226347 -0.45939663 -0.8115411
0.16816643 -0.04516226 0.53612435 0.3718231 -0.20804682 0.4581247 0.8892705 0.61951154
0.37546638 0.014878157 -0.7562199 -0.30346853 -0.15200531 0.16247582 0.31886846 0.42921466
0.033201315 0.012609398 0.5201067 -0.122625306 0.31450754 -0.2944724 -0.31636703 -0.14908868
-0.25831604 0.30974406 -0.38392028 -0.23326917 -0.28761175 -0.3479263 0.14165682 0.57712054
-0.31880286 0.4360225 0.5408675 0.49410367 -0.39005658 0.4015735 -0.554196 -0.6838078
0.3939005 0.2834153 0.2535473 0.6762692 0.257538 -0.37959266 -0.33580154 -0.15754753
0.18379669 -0.20455208 -0.873658 -0.46592227 -0.25658673 -0.5025284 0.11783245 -0.70261365
0.2532457 0.16215469 0.5570152 -0.10540729 -0.23573922 0.121286914 -0.074030384 0.6351616
-0.07733308 0.46659446 0.9716433 0.43252745 -0.14893426 0.09520397 0.50766355 0.406037
00000000: 1c73 37be 7762 dbbd c504 39bf 995c 41bf
00000010: 104d b3bd 8019 1cbd f04b abbe d0be a0bd
00000020: b931 333e 6cd8 d1bd 375d b7be a739 9cbe
00000030: abaf 883e d946 5cbe 23b1 5ebd b426 513d
00000040: 7320 233d 534e 193e 88af 1ebf b778 f1be
00000050: 5570 09be 6dd9 31be ded6 973d 825c 913e
00000060: 6586 b63e 4b3c 6a3f d901 553f f0a2 fb3e
00000070: ba87 9a3e 7632 da3e dbf7 f5be 1971 163e
00000080: 6315 6a3d 1ba1 843e 7b76 1fbc e60e fb3d
00000090: 31c7 91be ee9b 4ebe 725e 75be abec 873d
000000a0: 85f0 aa3d 293a 67be 6c97 bc3e b70f e93e
000000b0: 2476 523e a1ea 903b 6cd7 83be 4ca8 1ebf
000000c0: 2af7 9cbc 7a2b 063f 20d0 2f3e aa33 603e
000000d0: 901e a53d 1e66 8b3e 0936 ebbe 28c1 4fbf
000000e0: d233 2c3e 10fc 38bd 723f 093f 995f be3e
000000f0: 3a0a 55be 528f ea3e 3ba7 633f 4f98 1e3f
00000100: 213d c03e 83c3 733c a197 41bf 3a60 9bbe
00000110: 48a7 1bbe 1060 263e ba42 a33e 06c2 db3e
00000120: 1afe 073d a697 4e3c b625 053f fa22 fbbd
00000130: 2207 a13e 16c5 96be dcfa a1be b4aa 18be
00000140: 0042 84be c696 9e3e 3391 c4be 1dde 6ebe
00000150: d941 93be 6523 b2be 7c0e 113e 2cbe 133f
00000160: 213a a3be 573e df3e 4b76 0a3f 28fb fc3e
00000170: 7fb5 c7be 0b9b cd3e cadf 0dbf 070e 2fbf
00000180: 54ad c93e cf1b 913e f4d0 813e fa1f 2d3f
00000190: 05dc 833e f859 c2be 2eee abbe 2454 21be
000001a0: 3335 3c3e 1a76 51be 0da8 5fbf 5d8d eebe
000001b0: 565f 83be b4a5 00bf 2452 f13d 7dde 33bf
000001c0: 6ca9 813e e10b 263e 8c98 0e3f c7df d7bd
000001d0: 9f65 71be 4665 f83d 3e9d 97bd f399 223f
000001e0: ce60 9ebd 78e5 ee3e 9ebd 783f 3d74 dd3e
000001f0: 3982 18be 4dfa c23d 3df6 013f 15e4 cf3e

fc1.bias f4 [32]
0.19090888 -0.30942547 0.5356607 -0.5427829 0.3168514 -0.64048845 0.01817056 -0.5143599
-0.35462794 -0.01921646 -0.34974635 0.074711226 -0.013008025 -0.02413465 -0.28194898 0.22766744
0.4153114 0.17278259 -0.3880611 -0.54895353 0.058772307 -0.23945327 0.13117476 0.09166002
0.37357715 0.28435856 0.32566413 0.19506402 0.33856726 -0.092770405 0.08894509 0.25407517
00000000: 9e7d 433e 046d 9ebe 0f21 093f d2f3 0abf
00000010: 593a a23e 0df7 23bf 6dda 943c 17ad 03bf
00000020: cb91 b5be d66b 9dbc f411 b3be 3302 993d
00000030: 9c1f 55bc 08b6 c5bc 9e5b 90be a721 693e
00000040: b2a3 d43e ebed 303e f2af c6be 3888 0cbf
00000050: 3bbb 703d 3d33 75be ad52 063e 40b8 bb3d
00000060: 8145 bf3e 7297 913e 73bd a63e ddbe 473e
00000070: b058 ad3e 69fe bdbd d828 b63d 2416 823e

fc2.weight f4 [2, 32]
0.4834306 0.07082932 0.11832209 -0.059056755 0.05624152 -0.15326415 -0.32763085 0.09110915
0.12131517 -0.10714045 -0.15431067 0.31091696 -0.1782012 0.13363747 -0.13653544 -0.39782438
0.13520962 -0.34564608 0.12916784 -0.010972381 -0.04254421 -0.14654437 -0.15421882 0.23309305
-0.2943068 0.22106595 0.34965906 0.45103452 0.023567105 -0.19609003 -0.48577935 -0.047471907
-0.3660168 -0.018088626 -0.20831639 0.054452937 -0.3442494 -0.13005829 0.37956458 -0.07891726
0.026985304 -0.13796824 0.14263193 -0.30942923 0.21645136 -0.32408044 -0.009276587 0.4586196
-0.2450332 0.26675153 0.05955798 0.004888496 -0.14753695 0.03666432 0.43782416 -0.28711632
0.17989577 -0.03842227 -0.30668864 -0.35175142 0.028971449 0.2583259 0.34353077 0.04860158
00000000: 3784 f73e f60e 913d da52 f23d 7fe5 71bd
00000010: 825d 663d 47f1 1cbe 3bbf a7be 6f97 ba3d
00000020: 1674 f83d 746c dbbd 9e03 1ebe 8230 9f3e
00000030: 607a 36be 43d8 083e f2cf 0bbe a3af cbbe
00000040: 6474 0a3e 86f8 b0be 9344 043e 80c5 33bc
00000050: d642 2ebd ba0f 16be 8aeb 1dbe f2af 6e3e
00000060: 62af 96be 1d5f 623e 8306 b33e ffed e63e
00000070: cd0f c13c d3cb 48be 12b8 f8be e771 42bd
00000080: 8e66 bbbe 992e 94bc e450 55be 0b0a 5f3d
00000090: 7541 b0be 002e 05be 4a56 c23e 5f9f a1bd
000000a0: 4910 dd3c 8c47 0dbe 1b0e 123e 826d 9ebe
000000b0: 6da5 5d3e dfed a5be d3fc 17bc 30d0 ea3e
000000c0: fce9 7abe a893 883e 12f3 733d ad2f a03b
000000d0: ed13 17be 532d 163d 7d2a e03e e900 93be
000000e0: 9936 383e ac60 1dbd 4b06 9dbe c318 b4be
000000f0: 8855 ed3c 4b43 843e 44e3 af3e 7312 473d

fc2.bias f4 [2]
-0.0301695 -0.16862145
00000000: 0726 f7bc 1aab 2cbe
