PG/Policy_Based/REINFORCE/model_save/Discrete_REINFORCE_CartPole-v0_Score_152.0.pt (torch, 2644 bytes, 4 tensors)

fc1.weight f4 [32, 4]
-0.04245291 -0.4178774 -0.68962884 -0.24082191 -0.40348113 -0.1660857 -0.4168998 -0.7029678
0.12664 -0.33168462 -0.48834738 -0.6560118 -0.022555552 0.345053 -0.06140708 -0.73213726
0.087627605 0.03221256 0.52023816 -0.22229795 -0.13527209 -0.16813847 0.39562622 -0.108480126
0.29597047 0.21192262 -0.58342034 -0.46575674 -0.3781166 -0.5364231 0.13692868 0.57908565
-0.267085 0.2954693 0.0789557 0.11668764 0.15323314 -0.05643856 -0.14375044 0.1310804
0.22174197 -0.14044404 -0.12822777 -0.522842 -0.11359042 -0.21804078 0.69616973 0.81494516
0.021981563 0.40015596 -0.3593063 0.06406743 0.11891237 0.012747986 0.73088825 0.5347025
0.29678285 -0.3099585 0.21522021 0.6054983 0.18828374 0.06642552 -0.28631815 0.18097742
0.08841258 -0.10543373 -0.62964284 -0.42064792 -0.09133891 -0.22516294 -0.05465199 -0.04277436
-0.34481212 -0.24869178 -0.082713954 -0.36928743 0.029008238 -0.039302174 -0.7308716 -0.23862787
0.45037094 0.7908994 0.83180606 0.5489235 -0.7116523 0.20160939 -0.66976845 -0.5059215
0.17315032 -0.03192616 0.42970362 0.58596003 0.46247587 -0.38091883 0.8290296 0.8320346
0.01859482 -0.07768613 0.7895169 0.5717031 -0.27540398 0.20507903 -0.6002047 -0.6937318
0.5014217 0.030358553 0.28807002 0.5964875 0.10965382 0.02655788 -0.3616187 -0.56294686
0.15984899 0.14292835 0.7669558 0.4264857 0.49181324 -0.34728086 0.26631126 0.4773397
0.16213484 0.14557761 -0.621573 -0.4194009 0.10883467 0.51414263 -0.014294086 0.44166383
00000000: 1ae3 2dbd 07f4 d5be 848b 30bf 059a 76be
00000010: 1495 cebe 5f12 2abe e473 d5be b3f5 33bf
00000020: ebad 013e 91d2 a9be ab08 fabe 64f0 27bf
00000030: 6cc6 b8bc c9aa b03e fe85 7bbd 596d 3bbf
00000040: 1a76 b33d 51f1 033d 542e 053f 13a2 63be
00000050: c484 0abe 7e2c 2cbe 858f ca3e d42a debd
00000060: 7189 973e 3e02 593e 095b 15bf ab77 eebe
00000070: 8098 c1be 0653 09bf 0837 0c3e f53e 143f
00000080: 5dbf 88be c147 973e 87b3 a13d eef9 ee3d
00000090: 26e9 1c3e 1f2c 67bd 5133 13be f139 063e
000000a0: 5410 633e 90d0 0fbe 244e 03be f9d8 05bf
000000b0: 18a2 e8bd 1546 5fbe 2e38 323f 3fa0 503f
000000c0: ae12 b43c 3ee1 cc3e fff6 b7be c935 833d
000000d0: 5488 f33d eedc 503c 7e1b 3b3f 43e2 083f
000000e0: ecf3 973e e1b2 9ebe b062 5c3e f001 1b3f
000000f0: 74cd 403e 1a0a 883d 4b98 92be 2552 393e
00000100: a811 b53d a4ed d7bd 4630 21bf 2a5f d7be
00000110: e50f bbbd 1d91 66be c4da 5fbd 2b34 2fbd
00000120: 378b b0be 0fa9 7ebe ef65 a9bd 3e13 bdbe
00000130: afa2 ed3c 51fb 20bd 671a 3bbf dd5a 74be
00000140: 0597 e63e 6278 4a3f 3ef1 543f 4086 0c3f
00000150: d82e 36bf b172 4e3e f275 2bbf 1284 01bf
00000160: 514e 313e 01c5 02bd 1d02 dc3e 7a01 163f
00000170: a3c9 ec3e cb07 c3be 493b 543f 3800 553f
00000180: 2a54 983c e819 9fbd c81d 4a3f 225b 123f
00000190: c001 8dbe 3d00 523e 04a7 19bf 6898 31bf
000001a0: 2c5d 003f 80b2 f83c ea7d 933e 68b3 183f
000001b0: 2f92 e03d e98f d93c 1626 b9be 491d 10bf
000001c0: 74af 233e cf5b 123e 3757 443f 555c da3e
000001d0: f2ce fb3e ccce b1be f359 883e df65 f43e
000001e0: ad06 263e 4c12 153e 681f 1fbf b7bb d6be
000001f0: b6e4 de3d da9e 033f be31 6abc c321 e23e

fc1.bias f4 [32]
-0.044031706 0.44242513 0.33932507 0.079450905 0.17814368 -0.19140315 -0.22888516 -0.06861019
-0.11352073 -0.4323667 0.035543654 0.053038415 -0.432299 0.24290562 0.32680166 -0.12200653
0.3908136 -0.3315067 -0.5231661 0.06621204 -0.09673046 0.41429165 0.27317452 -0.10048682
0.12643461 0.26578566 0.23772106 0.06468735 0.29961085 -0.07576504 -0.13474564 0.06414419
00000000: 975a 34bd 8c85 e23e 04bc ad3e 28b7 a23d
00000010: 4c6b 363e 30ff 43be df60 6abe 8083 8cbd
00000020: 8e7d e8bd 2b5f ddbe 3996 113d cf3e 593d
00000030: 4b56 ddbe 40bc 783e 8c52 a73e 8fde f9bd
00000040: b818 c83e 3fbb a9be 37ee 05bf 2e9a 873d
00000050: 9f1a c6bd 091e d43e 88dd 8b3e 09cc cdbd
00000060: 1378 013e 0f15 883e 266d 733e cd7a 843d
00000070: 9866 993e b42a 9bbd c3fa 09be 075e 833d

fc2.weight f4 [2, 32]
0.2763025 0.19665803 0.3085107 0.14283471 0.0780816 0.060690507 0.09342343 -0.18918833
0.09916219 0.08881968 0.2194978 -0.2979855 0.15642306 -0.400683 -0.28219274 -0.00452569
0.119422756 -0.13617967 0.013529986 0.22037016 -0.37543738 0.1670858 -0.18293895 -0.49816298
-0.21874772 0.2652944 -0.38678524 0.14386879 -0.120974496 -0.33731848 0.19709307 -0.28648818
-0.27875638 -0.39705375 -0.3723385 -0.31572577 0.03984017 0.114743 -0.10129158 0.35993123
0.1707699 0.06063223 -0.10694064 0.3695342 0.07305361 0.2011571 0.10695042 0.0766296
-0.12716022 0.17710108 -0.014961358 -0.1052266 0.43160403 -0.13792543 0.24567229 0.23886241
0.48188257 -0.28613368 0.39733166 -0.3379993 0.13583775 0.42904377 -0.38848668 0.12734333
00000000: 8577 8d3e b960 493e 1df5 9d3e 4343 123e
00000010: 3fe9 9f3d 9c96 783d c954 bf3d 96ba 41be
00000020: 8c15 cb3d 18e7 b53d 08c4 603e 8e91 98be
00000030: 5e2d 203e 5226 cdbe 917b 90be 3d4c 94bb
00000040: eb93 f43d af72 0bbe e0ac 5d3c b7a8 613e
00000050: 5439 c0be 8a18 2b3e 5954 3bbe 380f ffbe
00000060: 67ff 5fbe abd4 873e b708 c6be 5752 133e
00000070: 7ac1 f7bd 02b5 acbe c4d2 493e 94ae 92be
00000080: 28b9 8ebe a14a cbbe 27a3 bebe cfa6 a1be
00000090: 722f 233d 61fe ea3d f671 cfbd e848 b83e
000000a0: 4ede 2e3e 8059 783d b203 dbbd 9633 bd3e
000000b0: 229d 953d 20fc 4d3e d208 db3d fbef 9c3d
000000c0: 4a36 02be fc59 353e 7c20 75bc 0b81 d7bd
000000d0: 34fb dc3e 533c 0dbe 8491 7b3e 5998 743e
000000e0: 50b9 f63e 1d80 92be 0e6f cb3e 3f0e adbe
000000f0: 0d19 0b3e a0ab db3e bae7 c6be 4a66 023e

fc2.bias f4 [2]
-0.09422553 -0.17434591
00000000: 51f9 c0bd bc87 32be
