PG/Policy_Based/REINFORCE/model_save/Discrete_REINFORCE_CartPole-v0_Score_147.3.pt (torch, 2644 bytes, 4 tensors)

fc1.weight f4 [32, 4]
000000 7b d5 37 bd 7d 04 d5 be 11 b7 2e bf d3 e5 75 be
       -0.044881325 -0.41604987 -0.6824809 -0.24013452
000010 f3 c5 cc be 9f 32 28 be 1e 96 d2 be 36 df 32 bf
       -0.39994773 -0.1642556 -0.41130155 -0.6987184
000020 72 14 06 3e 8a c4 a8 be 61 61 f7 be d5 f0 26 bf
       0.13093737 -0.32962447 -0.48316482 -0.6521123
000030 5c 4a cd bc d1 9f af 3e c9 d3 6d bd 0a 6d 3a bf
       -0.025059871 0.34301618 -0.058063302 -0.7282263
000040 ba 6d b7 3d 94 8a 08 3d f5 f2 05 3f 06 9c 62 be
       0.089564756 0.033335283 0.5232385 -0.2212983
000050 70 89 0c be 8d 65 2c be 81 43 ca 3e 8a 4d dc bd
       -0.13724303 -0.16835614 0.39504626 -0.10756977
000060 4a 49 97 3e 94 81 59 3e 85 97 13 bf d9 79 ec be
       0.29548103 0.21240836 -0.57653075 -0.46186712
000070 35 5f c2 be f1 c1 09 bf 70 a1 06 3e 4c 24 14 3f
       -0.37963262 -0.53811556 0.13147521 0.57867885
000080 0b c2 8d be 01 a3 94 3e 46 35 98 3d 7e 94 f0 3d
       -0.27687106 0.29030612 0.07432036 0.11747073
000090 c2 f6 1c 3e dc cf 66 bd 22 2c 13 be a0 3f 06 3e
       0.15328506 -0.056350574 -0.14372304 0.13110209
0000a0 d7 26 5f 3e 52 e8 13 be 03 ce ff bd 41 bd 04 bf
       0.2179216 -0.14444092 -0.124904655 -0.5185128
0000b0 f1 7c f4 bd 6b df 60 be 1e 7a 31 3f 5c 40 50 3f
       -0.11937893 -0.21960227 0.6932696 0.81348205
0000c0 60 f9 97 3c e3 7c cc 3e bb 32 b6 be 0f 43 81 3d
       0.018551528 0.3993903 -0.3558558 0.063116185
0000d0 af 0e e7 3d 07 05 1c 3c 47 f8 39 3f 1f 41 08 3f
       0.112820975 0.009522683 0.72644466 0.53224367
0000e0 c6 78 96 3e 12 fb 9f be 60 6c 57 3e 48 82 1a 3f
       0.29389018 -0.3124624 0.21037436 0.60355043
0000f0 58 91 40 3e e2 e4 89 3d f4 0d 93 be aa 47 35 3e
       0.18805444 0.06733109 -0.28721583 0.17703119
000100 13 8d be 3d f2 68 d3 bd 47 af 1f bf 79 1d d5 be
       0.093042515 -0.10322751 -0.62376827 -0.41624048
000110 65 bc c1 bd 28 1e 6a be a9 32 6b bd 53 6a 35 bd
       -0.094597615 -0.22863066 -0.05742136 -0.04429085
000120 86 21 b2 be 69 d9 80 be d8 42 ab bd c2 e4 bd be
       -0.347912 -0.2516587 -0.08362359 -0.3708859
000130 2e 91 fd 3c d9 7b 17 bd e8 76 39 bf 9b bc 70 be
       0.030953016 -0.036983345 -0.7244706 -0.23509447
000140 f9 84 e2 3e 6b 57 49 3f c5 1d 53 3f 9a be 0a 3f
       0.44242075 0.78649014 0.824673 0.54197085
000150 c7 98 35 bf 89 45 51 3e 9d af 29 bf 0b 60 00 bf
       -0.70936245 0.20436682 -0.6628359 -0.5014655
000160 4c 55 2c 3e 38 89 10 bd 48 85 d9 3e 29 67 15 3f
       0.16829413 -0.035287112 0.42484498 0.58360535
000170 8e 0c eb 3e 11 4c c4 be fb a1 52 3f a5 1e 54 3f
       0.45908016 -0.38339284 0.8227841 0.8285926
000180 a8 eb 66 3c 38 83 a7 bd da dd 48 3f c7 ef 11 3f
       0.014094271 -0.08179325 0.7846352 0.57006496
000190 70 82 8a be c9 d8 54 3e 73 37 18 bf 43 92 30 bf
       -0.2705264 0.20785822 -0.5945961 -0.6897318
0001a0 f1 f2 fe 3e c3 e7 dd 3c 59 18 91 3e 4d 03 18 3f
       0.49794725 0.027088052 0.28338888 0.59380037
0001b0 0f b1 db 3d 9a ff ce 3c 97 3b b7 be 73 50 0f bf
       0.107271306 0.025268365 -0.3578765 -0.5598213
0001c0 5f f1 1d 3e b7 3c 10 3e 11 0f 43 3f bf fe d7 3e
       0.15424107 0.14085661 0.76194865 0.42186543
0001d0 f9 5a fb 3e 0b a9 b2 be 95 9c 84 3e 2f 58 f2 3e
       0.49092844 -0.34894595 0.25900713 0.47332904
0001e0 5f e0 25 3e 14 11 14 3e 5e e0 1d bf e9 e8 d2 be
       0.16198872 0.1445964 -0.6167048 -0.4119332
0001f0 35 d7 cf 3d 09 e1 02 3f 7f c8 9c bc f3 43 df 3e
       0.10148469 0.51124626 -0.019138573 0.4360653

fc1.bias f4 [32]
000000 d6 c8 3e bd ce 4a e2 3e b6 78 ad 3e a5 04 a3 3d
       -0.04657825 0.44197696 0.33881158 0.0795987
000010 c2 05 39 3e 50 66 43 be 29 9b 6c be 86 03 91 bd
       0.18068603 -0.19081998 -0.23106064 -0.0708075
000020 e8 d7 ed bd d6 5b dd be 5a df f9 3c 93 69 52 3d
       -0.116134465 -0.43234128 0.03050201 0.051370215
000030 ff ac dd be fe 9e 78 3e b0 4f a7 3e dc 93 fe bd
       -0.43296048 0.242794 0.32677984 -0.12430546
000040 e0 12 c8 3e ab 20 a6 be ae 02 05 bf c6 ba 84 3d
       0.390769 -0.324468 -0.51957214 0.06480937
000050 c6 84 d7 bd c9 d3 d3 3e f2 cb 8b 3e 36 15 d2 bd
       -0.105233714 0.41372517 0.27304035 -0.10257952
000060 00 a4 00 3e 44 9b 87 3e b8 12 73 3e f9 60 7e 3d
       0.12562561 0.26485646 0.2373761 0.0621042
000070 df d1 99 3e 12 f9 a1 bd c5 32 10 be c3 7a 85 3d
       0.3004293 -0.079088345 -0.14081867 0.065175556

fc2.weight f4 [2, 32]
000000 5e 71 8c 3e 76 11 47 3e 8c c1 9c 3e 17 ba 0f 3e
       0.27430242 0.19440255 0.30616415 0.14035831
000010 82 20 9f 3d 71 2e 80 3d a3 68 bb 3d ea 8b 43 be
       0.07769872 0.06258858 0.09150817 -0.19096342
000020 d7 7e cc 3d e5 f9 b5 3d c6 9f 5c 3e 25 35 98 be
       0.0998513 0.08885554 0.21545324 -0.29728046
000030 19 1e 1f 3e fd 53 cc be 36 42 90 be 6a 12 ac bb
       0.15538825 -0.39907828 -0.28175515 -0.0052512186
000040 14 86 f1 3d 8b 89 06 be bc f6 7e 3c e4 74 5d 3e
       0.117931515 -0.13138406 0.015561756 0.21626621
000050 5d d9 bb be 03 27 29 3e 44 09 3a be e8 70 fd be
       -0.36689273 0.16518788 -0.18167597 -0.49500203
000060 b3 55 5e be 00 a5 86 3e fe ff c4 be 1a 17 10 3e
       -0.21712379 0.2629776 -0.38476557 0.14071313
000070 ca 4f f5 bd 4a d5 ab be 0a 3d 45 3e e0 67 90 be
       -0.11978109 -0.33561164 0.19261566 -0.2820425
000080 01 b3 8d be ff 22 ca be 96 6f bd be 39 62 a0 be
       -0.27675632 -0.39479825 -0.36999196 -0.31324938
000090 ec c0 24 3d 3e 1b e7 3d d0 85 cb bd 92 31 b9 3e
       0.040223047 0.11284493 -0.09937632 0.36170632
0000a0 a8 29 2e 3e e6 33 78 3d 2e bb d2 bd 2d d7 bc 3e
       0.17008078 0.06059637 -0.10289608 0.36882916
0000b0 ad bb 97 3d 77 57 4c 3e 64 23 da 3d 5e 6c 9e 3d
       0.07408843 0.1995524 0.106512815 0.07735513
0000c0 5e af 00 be d8 70 30 3e 2c 35 8b bc 65 19 cf bd
       -0.12566897 0.17230546 -0.016993128 -0.101122655
0000d0 3d 9b d8 3e cc 4a 0b be 6f 46 7a 3e b9 5b 71 3e
       0.42305937 -0.13602751 0.24440931 0.23570146
0000e0 76 e4 f5 3e 72 50 91 be 55 66 ca 3e a1 70 ab be
       0.48025864 -0.28381687 0.39531198 -0.33484367
0000f0 35 e0 09 3e e8 cb da 3e dd 9c c4 be c6 b1 fb 3d
       0.13464434 0.42733693 -0.38400927 0.12289767

fc2.bias f4 [2]
000000 16 fb c1 bd da 06 32 be
       -0.09471719 -0.17385426
