PG/Policy_Based/REINFORCE/model_save/Discrete_REINFORCE_CartPole-v0_Score_178.4.pt (torch, 2643 bytes, 4 tensors)

fc1.weight f4 [32, 4]
0	0xbe434f9d	-0.19073339
1	0xbdea17ed	-0.11430345
2	0xbf3785cc	-0.7168853
3	0xbf3e044a	-0.74225295
4	0xbdb34d10	-0.08754933
5	0xbd1c1980	-0.038110256
6	0xbeab4bf0	-0.33456373
7	0xbda0bed0	-0.078488946
8	0x3e24295e	0.16031405
9	0xbdde668a	-0.108594015
10	0xbeb1cf10	-0.3472829
11	0xbe94714b	-0.28992686
12	0x3e8cc88a	0.2749675
13	0xbe5d0498	-0.21583784
14	0xbd64df05	-0.05587675
15	0x3d55a22a	0.052156605
16	0x3cc73b94	0.024320401
17	0x3e1385d3	0.14406519
18	0xbf1cc261	-0.612341
19	0xbeea1c93	-0.45724925
20	0xbe0990b5	-0.13434108
21	0xbe320535	-0.17384799
22	0x3d977a78	0.07396406
23	0x3e916cfe	0.28403467
24	0x3ec02b74	0.37533152
25	0x3f6b5ea5	0.9194129
26	0x3f523e8a	0.8212668
27	0x3ef50c53	0.47860965
28	0x3e925072	0.28577
29	0x3ed22ea5	0.41051212
30	0xbeee005c	-0.4648465
31	0x3e287484	0.16450697
32	0x3d5d550e	0.054036193
33	0x3e838774	0.2568928
34	0xbbf9497d	-0.0076076374
35	0x3e025096	0.12726054
36	0xbe917b65	-0.28414455
37	0xbe512c6f	-0.20427106
38	0xbe73ed3a	-0.23820964
39	0x3d8fdcd0	0.070245385
40	0x3dab6b2d	0.083700515
41	0xbe6874b3	-0.22700767
42	0x3ebb25b3	0.365522
43	0x3ee980d8	0.45606112
44	0x3e43902e	0.19097969
45	0xbad64c79	-0.0016349695
46	0xbe8080bd	-0.2509822
47	0xbf1c4ba7	-0.61052936
48	0xbc537d99	-0.012908363
49	0x3f078b97	0.5294737
50	0x3e269611	0.16268183
51	0x3e50d11a	0.20392266
52	0x3d8ba1eb	0.06817993
53	0x3e88e754	0.2673899
54	0xbee73f99	-0.4516571
55	0xbf4d7442	-0.8025552
56	0x3e2fb99a	0.17160645
57	0xbd44b261	-0.048021678
58	0x3f086010	0.5327158
59	0x3ebfd57a	0.37467557
60	0xbe4b6056	-0.19860968
61	0x3eecd543	0.46256456
62	0x3f619420	0.88116646
63	0x3f1b730a	0.6072241
64	0x3eb8ee53	0.36119327
65	0x3c17c322	0.009262832
66	0xbf3edb70	-0.74553585
67	0xbe9416f6	-0.28923768
68	0xbe1a63b3	-0.15077095
69	0x3e25e860	0.16201925
70	0x3ea028e8	0.3128121
71	0x3ed79238	0.42103744
72	0x3d07fe23	0.033201348
73	0x3c4e97d0	0.012609437
74	0x3f0525b6	0.5201067
75	0xbdfb22ff	-0.12262534
76	0x3ea0fce7	0.3144295
77	0xbe96d63e	-0.2946033
78	0xbea20fa3	-0.31652555
79	0xbe188a28	-0.14896452
80	0xbe8767a1	-0.2644625
81	0x3e9d6b8e	0.3074612
82	0xbec2df16	-0.38060826
83	0xbe694e80	-0.22783852
84	0xbe912d3d	-0.28354827
85	0xbeb16b82	-0.34652334
86	0x3e0bc0c5	0.13647754
87	0x3f12f571	0.57405764
88	0xbea2e208	-0.31813073
89	0x3ee0adfc	0.4388274
90	0x3f08cd56	0.5343832
91	0x3ef6e9ad	0.48225155
92	0xbeccec92	-0.4002424
93	0x3ecb2c10	0.39682055
94	0xbf0c0e41	-0.5470925
95	0xbf2c990b	-0.67421025
96	0x3ecfd040	0.4058857
97	0x3e938c60	0.28818035
98	0x3e7b074d	0.24514504
99	0x3f2a0c4f	0.6642503
100	0x3e7bb63d	0.24581237
101	0xbec3b761	-0.38225845
102	0xbea4c636	-0.32182473
103	0xbe11b2dc	-0.14228386
104	0x3e2eb0cb	0.17059629
105	0xbe564825	-0.20925958
106	0xbf5de74b	-0.8668105
107	0xbee89c11	-0.4543157
108	0xbe8563a7	-0.2605259
109	0xbf029186	-0.510033
110	0x3df0afd8	0.117522895
111	0xbf2fe96e	-0.6871556
112	0x3e829127	0.25501367
113	0x3e269fdb	0.16271918
114	0x3f0e1420	0.5549946
115	0xbddc7593	-0.10764613
116	0xbe71a846	-0.23599347
117	0x3dfe5e5e	0.12420343
118	0xbda7a499	-0.081856914
119	0x3f1fe50e	0.62458885
120	0xbd827a1e	-0.06370948
121	0x3ef17584	0.4715997
122	0x3f75ca7f	0.9601211
123	0x3ed6c0b2	0.4194389
124	0xbe14304f	-0.14471553
125	0x3dc47224	0.09592083
126	0x3f009e4c	0.5024154
127	0x3eccab15	0.39974275

fc1.bias f4 [32]
0	0x3e3ff452	0.18745545
1	0xbe9e6d04	-0.30942547
2	0x3f0a27ea	0.53967154
3	0xbf0a9458	-0.54132605
4	0x3ea2b70d	0.31780282
5	0xbf23ee52	-0.6403552
6	0x3c7240a7	0.014785922
7	0xbf078c3b	-0.5294835
8	0xbeb6685b	-0.35626492
9	0xbc81eaf7	-0.01585911
10	0xbeb243d6	-0.3481738
11	0x3d8b151e	0.06791137
12	0xbc4455e4	-0.011983369
13	0xbd08e507	-0.033421542
14	0xbe8e8062	-0.27832323
15	0x3e664ef6	0.22491059
16	0x3ed67a8c	0.4189037
17	0x3e2be2ee	0.16785786
18	0xbec6aff0	-0.38806105
19	0xbf0c7f42	-0.5488168
20	0x3d68a9f6	0.056802712
21	0xbe780db0	-0.24223971
22	0x3e01fd31	0.12694241
23	0x3db2e22b	0.08734544
24	0x3ebe7063	0.3719512
25	0x3e951434	0.29116976
26	0x3ea731ed	0.32655278
27	0x3e4b4e46	0.19854078
28	0x3eae51bb	0.3404673
29	0xbdda1b60	-0.106497526
30	0x3daf2497	0.08551901
31	0x3e814f53	0.25255832

fc2.weight f4 [2, 32]
0	0x3ef2b91e	0.47406858
1	0x3d910ef6	0.07082932
2	0x3df0635e	0.11737703
3	0xbd6d8877	-0.05799147
4	0x3d4e5aa3	0.050379407
5	0xbe1d06b1	-0.15334584
6	0xbea7f812	-0.3280645
7	0x3d99735e	0.07492708
8	0x3df72b31	0.12068785
9	0xbdd67713	-0.1047193
10	0xbe1cf48b	-0.1532766
11	0x3e99a55d	0.30008975
12	0xbe37dc50	-0.17955136
13	0x3dfff701	0.12498284
14	0xbe081c57	-0.13292061
15	0xbec64b60	-0.38729382
16	0x3e06337e	0.1310558
17	0xbeabe052	-0.3356958
18	0x3e044491	0.12916781
19	0xbc35a53d	-0.011086759
20	0xbd439208	-0.047746688
21	0xbe131ed4	-0.14367229
22	0xbe13bb33	-0.1442688
23	0x3e678b11	0.22611643
24	0xbe9397f6	-0.28826874
25	0x3e638c0b	0.22221391
26	0x3eb013c2	0.34390074
27	0x3ee56084	0.44800198
28	0x3cb60e6f	0.02222368
29	0xbe41dfb4	-0.18932992
30	0xbef42a34	-0.47688448
31	0xbd1fe82f	-0.039039787
32	0xbeb69b75	-0.3566548
33	0xbc942e99	-0.018088626
34	0xbe545926	-0.20737132
35	0x3d5aad03	0.053387653
36	0xbead4119	-0.33838728
37	0xbe051896	-0.1299766
38	0x3ec28f21	0.37999824
39	0xbd807b4e	-0.062735185
40	0x3ce233df	0.027612625
41	0xbe0fc23d	-0.1403894
42	0x3e10ff08	0.14159787
43	0xbe98e25d	-0.298602
44	0x3e5f075d	0.21780153
45	0xbea17f7d	-0.31542578
46	0xbc533681	-0.012891413
47	0x3ee56bed	0.44808903
48	0xbe76a916	-0.24087939
49	0x3e837b74	0.25680125
50	0x3d73f31d	0.059558023
51	0x3ba3ef27	0.0050028744
52	0xbe11c020	-0.14233446
53	0x3d0a69bc	0.033792242
54	0x3edb1252	0.42787415
55	0xbe8f6e78	-0.28013968
56	0x3e3207c0	0.17385769
57	0xbd221462	-0.03957022
58	0xbe9a138a	-0.30093032
59	0xbeb28b48	-0.34871888
60	0x3cf856e6	0.030314874
61	0x3e80cd3b	0.25156578
62	0x3eab5566	0.3346359
63	0x3d2488bb	0.04016946

fc2.bias f4 [2]
0	0xbce63c20	-0.028104842
1	0xbe2ec856	-0.1706861
