PG/Policy_Based/REINFORCE/model_save/Discrete_REINFORCE_CartPole-v0_Score_98.6.pt (torch, 2643 bytes, 4 tensors)

fc1.weight f4 [32, 4]
00000000: e45b 24bf f397 96be 06b8 723f 1839 093f
00000010: d153 f4bd 977b a8be bb1c aa3a 6cef bc3e
00000020: f6e7 cf3d a68e 233e 6966 033f 2ca3 143f
00000030: d38f dcbe 76f7 01be 3905 ac3e 4c25 073f
00000040: 3cf0 9bbe a9e7 1ebe 6f26 993e cb2e 393f
00000050: 2c1a 02be 9301 183f 6070 573e 529f 043f
00000060: 270e b9bc f142 aebe e664 b03e f37a f53e
00000070: c432 debd d3e3 7b3d d9f5 d2bd d6bc a9be
00000080: a493 723d c9fa 51be 0fa9 8c3e 92f0 9f3e
00000090: 9bb5 f2be 1204 bdbe bbc5 373e eefb 62be
000000a0: 1a0d cbbe 4c1e a0bb 17d8 b4be 98bb 3bbd
000000b0: 67d6 033e 6d60 b7be a554 da3b f216 b43e
000000c0: f47b 81be b90c d9be 5ec1 2f3f aaca 3c3f
000000d0: 6503 1f3e a536 b03e ed11 543f a38f 043f
000000e0: f14f e83d 42fb dfbe fb3c 843e cc85 de3e
000000f0: 410e e53d e357 17be 4b1a 1abf 386f 06bf
00000100: c264 883e 5a90 45be 0417 d83d de0a 52bf
00000110: 27b5 1e3f c2cc cdbb 17af 45bf 5f3a 3dbf
00000120: d74c bcbe 89ec 9ebe 8a50 09bf 44ae e1be
00000130: 633b f63e 36f7 e53e 691b e6be b750 3dbf
00000140: db56 6fbe 8b85 e5be a8af dc3e 00ff 763e
00000150: 4ea4 c83e a3f7 e3be d940 4e3f cb5a 223f
00000160: 0e5f ba38 5e15 a23e ebf7 793e 4751 7ebe
00000170: de9d b3be de04 993e 7966 d2be 8778 443d
00000180: 1f2d febc f1eb 61bd c77f 1e3e a858 1f3f
00000190: 8315 36bf 19b1 04bf e1f4 493e 2604 2a3e
000001a0: 6f98 01be 0252 a13e 6f36 1fbf 465e d0be
000001b0: 7177 ca3e 2a1a f93d a5b8 653f da57 3d3f
000001c0: 1e17 f8bc c10c 223d c84e 0dbf 8d5f 75bc
000001d0: 5ea9 d83d 4066 32be 52a3 393e a857 9fbd
000001e0: 8298 51be ee08 cf3e 8e63 163f 2abd 5e3f
000001f0: 804b df3b 8076 1c3d 683c a4bd ec0e 183e
-0.64202714 -0.29412803 0.9481205 0.53602743 -0.11930049 -0.32906792 0.0012978533 0.36901414
0.10151665 0.15972385 0.5132814 0.5806148 -0.4307848 -0.12692055 0.33597735 0.52791286
-0.30456722 -0.15518059 0.29912135 0.72337025 -0.12705296 0.593774 0.21038961 0.51805604
-0.022589756 -0.34035447 0.3445198 0.47945365 -0.108495265 0.061496567 -0.10300798 -0.33151883
0.059222832 -0.20505823 0.2747273 0.31238228 -0.4740418 -0.36917168 0.17946522 -0.22166416
-0.39658433 -0.004886424 -0.35321113 -0.0458332 0.12874757 -0.35815755 0.0066629224 0.35173756
-0.2528988 -0.4239252 0.6865443 0.7374674 0.15528639 0.3441669 0.8283985 0.5178167
0.113433726 -0.43746382 0.25827774 0.43461454 0.11184359 -0.1477962 -0.6019637 -0.52513456
0.26639372 -0.19293347 0.10551265 -0.8204783 0.61995167 -0.0062805125 -0.7722029 -0.7391719
-0.36777374 -0.31039837 -0.5363852 -0.44078267 0.48092183 0.4491517 -0.44942787 -0.73951286
-0.23372976 -0.44828448 0.43102765 0.24120712 0.39187855 -0.4452487 0.805677 0.6341979
8.8868765e-05 0.31656927 0.2441098 -0.24835692 -0.3508138 0.29886526 -0.41093805 0.047966506
-0.031027375 -0.055156652 0.1547843 0.62244654 -0.71126574 -0.5183273 0.1972232 0.16603145
-0.12655805 0.3150788 -0.62192434 -0.40696925 0.39544252 0.121631935 0.8973487 0.73962176
-0.03028446 0.039562944 -0.55198336 -0.014976394 0.10579179 -0.17421818 0.18128708 -0.07780391
-0.20468333 0.404365 0.5874566 0.8700739 0.00681442 0.038198948 -0.08019334 0.14849442

fc1.bias f4 [32]
00000000: 712b 10bd 1d99 20be a687 043e fb14 f4bb
00000010: ae31 753e 311b 58be 3db3 513d 891a d6be
00000020: 0209 debb d00a 1fbe 40c0 a7be 2661 cb3d
00000030: 4431 db3c e571 203e a059 53bd d68a 873e
00000040: 32ed 643e 5492 8abc 89eb d43e 1782 13be
00000050: bf9a 6cbc 3633 33be b66b e6be becb 86be
00000060: 94e7 163d d678 c5bd 6b62 d1bd 6630 3e3c
00000070: 2e79 983e ffa2 d1be f6b3 a03d 6c74 7cbe
-0.03519768 -0.15683408 0.12942371 -0.00744879 0.23944733 -0.21104123 0.051196326 -0.4181712
-0.006775976 -0.15531468 -0.32763863 0.09930639 0.02675689 0.15668447 -0.051599145 0.2647311
0.22356108 -0.016915478 0.4158595 -0.14405094 -0.014441191 -0.17500004 -0.45004052 -0.26327318
0.036841944 -0.09642188 -0.1022385 0.011608219 0.29779953 -0.4094467 0.07846825 -0.24653786

fc2.weight f4 [2, 32]
00000000: 0a67 0bbf 238d 02bd eb5d 21be 8abd c2be
00000010: 23e8 2fbd 2937 1abe bcef 61be 4be8 2e3e
00000020: 6a46 73bc e894 023c 2cee 43be 2d1b 3dbe
00000030: c0f1 a9be a242 2cbe 7690 a5bd fa6e c73e
00000040: 0e38 ca3e 0caa be3e f212 b73d da8e da3d
00000050: 2bd6 e3bd ec8c acbe 03f8 653c ce33 b33d
00000060: 02eb 9bbe 1047 64bd a111 863e 08d9 c5be
00000070: 5c7f 8abd 4a1d bd3c bc12 a7be 0e13 6ab9
00000080: b205 b63e b1ea d43d 5ecb 9b3e 68c4 603e
00000090: a299 973e 0f90 223e dac5 a53e fee5 033d
000000a0: ff16 ea3d a73c 933d 4379 dbbd b288 55bd
000000b0: dc40 383e 48c6 a73e 66f3 7a3e 153c 9fbe
000000c0: eb49 9dbd e2fa cabd 1461 42be fd49 62be
000000d0: b601 ba3d 41be b73e d1aa 8bbd 45b3 06bd
000000e0: 5023 bc3d fb86 823e b6e8 59bd 7f14 aa3e
000000f0: 1ccd dcbd 1602 c93d b5ad fc3e 8a54 21be
-0.544541 -0.03187288 -0.15758483 -0.38035232 -0.042945992 -0.15060104 -0.22064108 0.170808
-0.014848331 0.007970072 -0.19133824 -0.18467398 -0.33192253 -0.16822293 -0.08084194 0.38951856
0.3949589 0.3723911 0.089391604 0.10671778 -0.11124834 -0.33701265 0.014036181 0.08750115
-0.30452734 -0.055731833 0.26185325 -0.38642144 -0.06762573 0.023085255 -0.3263148 -0.00022323077
0.3555122 0.10396326 0.30428594 0.21949923 0.296094 0.15875266 0.3237751 0.03220176
0.114301674 0.07189303 -0.10716488 -0.052132316 0.17993492 0.32768464 0.24506912 -0.31100526
-0.07680114 -0.09911133 -0.18982345 -0.22098537 0.090823576 0.3588734 -0.0681969 -0.03288581
0.09186423 0.25493607 -0.053200446 0.33218762 -0.10781309 0.09814851 0.49351278 -0.15754905

fc2.bias f4 [2]
00000000: b8c0 333c c0c8 82be
0.010971241 -0.25543785
