PG/Policy_Based/REINFORCE/model_save/Discrete_REINFORCE_CartPole-v0_Score_126.5.pt (torch, 2643 bytes, 4 tensors)

fc1.weight f4 [32, 4]
0	0xbe520028	-0.20507872
1	0xbdd014cb	-0.10160216
2	0xbf3167ec	-0.692992
3	0xbf3c1187	-0.73464245
4	0xbdb34d10	-0.08754933
5	0xbd1c1980	-0.038110256
6	0xbeab4bf0	-0.33456373
7	0xbda0bed0	-0.078488946
8	0x3e1b830c	0.15186709
9	0xbdbf1112	-0.09329428
10	0xbe9ede87	-0.3102915
11	0xbe8e3660	-0.2777586
12	0x3e8cc8bc	0.27496898
13	0xbe5db003	-0.21649174
14	0xbd689a61	-0.056787852
15	0x3d57d94e	0.052697472
16	0x3c2f517f	0.0107005825
17	0x3e276ce3	0.1635013
18	0xbf150453	-0.58209723
19	0xbee68374	-0.45022166
20	0xbe0a2458	-0.13490427
21	0xbe32ccda	-0.17460957
22	0x3d95d519	0.07316036
23	0x3e91b82f	0.28460833
24	0x3eccca4d	0.39998093
25	0x3f65d977	0.8978495
26	0x3f45dc6e	0.77289474
27	0x3ef091aa	0.46986133
28	0x3e815ea5	0.2526752
29	0x3ec9d347	0.39419004
30	0xbee2828a	-0.44240218
31	0x3e439b19	0.19102134
32	0x3d5da03a	0.054107882
33	0x3e843d63	0.25828084
34	0xbbe9b4ff	-0.007132172
35	0x3df820ca	0.12115629
36	0xbe8f78e8	-0.28021932
37	0xbe568854	-0.20950443
38	0xbe6ff39b	-0.23432772
39	0x3d9e4014	0.07727066
40	0x3dab264b	0.08356913
41	0xbe6d9cc2	-0.2320433
42	0x3eb7801f	0.35839936
43	0x3eec2aac	0.46126306
44	0x3e38ba31	0.18039776
45	0x3c446ffb	0.011989589
46	0xbe6c4d50	-0.23076367
47	0xbf1b13ea	-0.6057726
48	0xbceb50e4	-0.028725095
49	0x3f02582a	0.5091578
50	0x3e008d1a	0.12553826
51	0x3e3f372c	0.1867339
52	0x3d730540	0.05933118
53	0x3e91bac0	0.2846279
54	0xbeda1894	-0.42596877
55	0xbf4c0e7a	-0.7970959
56	0x3e30b42a	0.17256227
57	0xbd6c27f7	-0.0576553
58	0x3f05e891	0.52307993
59	0x3ec4a4b3	0.38406906
60	0xbe4a8ab3	-0.19779472
61	0x3ee57225	0.44813648
62	0x3f5a5f24	0.85301423
63	0x3f18cd9b	0.5968873
64	0x3eb56141	0.3542576
65	0x3cd94127	0.026520325
66	0xbf3595d4	-0.70931745
67	0xbe8f9adb	-0.28047833
68	0xbe2c0d7e	-0.16802022
69	0x3e0f3128	0.13983595
70	0x3e94b336	0.29042977
71	0x3ed6edb0	0.41978216
72	0x3d07fe4d	0.033201504
73	0x3c4e988d	0.012609613
74	0x3f0525b3	0.5201065
75	0xbdfb2317	-0.12262552
76	0x3ea0ce42	0.31407362
77	0xbe972478	-0.2952001
78	0xbea26e64	-0.31724846
79	0xbe17f5b8	-0.14839828
80	0xbe88b5e7	-0.2670128
81	0x3ea47f90	0.32128572
82	0xbeba3dad	-0.3637518
83	0xbe68ce88	-0.22735035
84	0xbe8bd09f	-0.27307603
85	0xbeb085d8	-0.34477115
86	0x3e0104d9	0.12599505
87	0x3f12218c	0.5708244
88	0xbeaa0a02	-0.3321076
89	0x3ed803ad	0.42190304
90	0x3f013210	0.50467014
91	0x3ef26331	0.47341302
92	0xbed169d9	-0.40901068
93	0x3ed37327	0.41298792
94	0xbf03c48d	-0.5147179
95	0xbf2b2264	-0.6684935
96	0x3ed33370	0.4125018
97	0x3e8e486e	0.27789634
98	0x3e5e2b7c	0.21696275
99	0x3f26e620	0.6519489
100	0x3e720d0c	0.2363779
101	0xbec00896	-0.3750655
102	0xbe93efec	-0.28893983
103	0xbdf728dc	-0.1206834
104	0x3e26eb30	0.16300654
105	0xbe45868a	-0.19289604
106	0xbf56daa1	-0.8392735
107	0xbee5e2a7	-0.44899485
108	0xbe83d82f	-0.25750872
109	0xbf03682b	-0.5133082
110	0x3dfa6b95	0.12227551
111	0xbf2c7c3e	-0.6737708
112	0x3e82843a	0.25491506
113	0x3e256573	0.16151981
114	0x3f0c0f0f	0.5471048
115	0xbde8084a	-0.11329706
116	0xbe659e59	-0.22423686
117	0x3dff31d3	0.12460675
118	0xbdd81e43	-0.10552647
119	0x3f1d4308	0.61430407
120	0xbd3e01ae	-0.04638832
121	0x3ee70b72	0.4512592
122	0x3f6a6ba9	0.91570526
123	0x3ed3c7d9	0.4136341
124	0xbe1b22a5	-0.15149935
125	0x3dad63d0	0.08466303
126	0x3ef77716	0.48333043
127	0x3ecab0d5	0.39588037

fc1.bias f4 [32]
0	0x3e271b67	0.16319047
1	0xbe9e6d04	-0.30942547
2	0x3f078e6e	0.52951705
3	0xbf0a6ea4	-0.54075074
4	0x3e9b4568	0.3032639
5	0xbf23c681	-0.6397477
6	0x3c9c79a6	0.019100975
7	0xbf0cf040	-0.5505409
8	0xbeb5c7e2	-0.3550406
9	0xbc5c0dfe	-0.01343107
10	0xbeaf6e3c	-0.3426379
11	0x3d41f8cf	0.047356423
12	0x3a6a3b56	0.00089352333
13	0xbd3a02b8	-0.04541275
14	0xbe89b6d8	-0.2689731
15	0x3e708d03	0.23491292
16	0x3ed0bcef	0.40769145
17	0x3e2f11ac	0.17096585
18	0xbec6afea	-0.38806087
19	0xbf0c5662	-0.5481931
20	0x3d5335a6	0.051564835
21	0xbe7b4b73	-0.245405
22	0x3e0c14c6	0.136798
23	0x3d96ef5d	0.07369874
24	0x3ec3edee	0.38267463
25	0x3e8bd5bd	0.27311507
26	0x3e9f1606	0.3107149
27	0x3e340e22	0.17583516
28	0x3eb339f6	0.35005158
29	0xbdf7cb75	-0.12099353
30	0x3dc94d70	0.09829223
31	0x3e84ecf0	0.2596202

fc2.weight f4 [2, 32]
0	0x3ee84732	0.45366818
1	0x3d910ef6	0.07082932
2	0x3dd3373a	0.10313268
3	0xbd6ca632	-0.057775684
4	0x3d1b30fa	0.037888505
5	0xbe1d685c	-0.15371841
6	0xbe96da09	-0.29463223
7	0x3d7d813c	0.061890826
8	0x3df91730	0.12162626
9	0xbdd096c2	-0.10185005
10	0xbe1f5fca	-0.15563884
11	0x3e952989	0.2913325
12	0xbe20c2c4	-0.15699297
13	0x3e01747d	0.12642093
14	0xbe03d738	-0.12875068
15	0xbebe67f4	-0.37188685
16	0x3dec847f	0.11548709
17	0xbea9908a	-0.33118087
18	0x3e044484	0.12916762
19	0xbc3e3103	-0.011608365
20	0xbd364cc6	-0.04450681
21	0xbe0d6a11	-0.13809992
22	0xbe026fc9	-0.12737955
23	0x3e68e2dc	0.2274279
24	0xbe930cb5	-0.28720632
25	0x3e50ea9d	0.20401998
26	0x3ea425f2	0.320602
27	0x3ed9f72f	0.425714
28	0x3c85b62f	0.016322223
29	0xbe39779d	-0.18112035
30	0xbee4f202	-0.44715887
31	0xbd1ab7f6	-0.037773095
32	0xbeac2989	-0.3362544
33	0xbc942e99	-0.018088626
34	0xbe45c314	-0.19312698
35	0x3d59cabe	0.053171866
36	0xbea6dbe3	-0.32589635
37	0xbe04b6eb	-0.12960403
38	0x3eb17118	0.34656596
39	0xbd4b911d	-0.049698938
40	0x3cda83e4	0.026674218
41	0xbe12b266	-0.14325866
42	0x3e136a47	0.1439601
43	0xbe946689	-0.28984478
44	0x3e47edd1	0.19524314
45	0xbea23bfb	-0.31686386
46	0xbc8bc43f	-0.01706135
47	0x3edd8881	0.43268207
48	0xbe66b7d7	-0.22531067
49	0x3e812bab	0.2522863
50	0x3d73f351	0.059558216
51	0x3bb506b3	0.0055244802
52	0xbe151170	-0.14557433
53	0x3ce72d60	0.028219879
54	0x3ed26c9d	0.4109849
55	0xbe901a5d	-0.28145114
56	0x3e30f13f	0.17279528
57	0xbcaf1d54	-0.02137629
58	0xbe8e25ba	-0.27763158
59	0xbea721f3	-0.3264309
60	0x3d145793	0.03621633
61	0x3e79325e	0.2433562
62	0x3e9c1d34	0.3049103
63	0x3d1f5882	0.038902767

fc2.bias f4 [2]
0	0xbd1ba4ce	-0.037998967
1	0xbe24a6a7	-0.16079198
