PG/Policy_Based/REINFORCE/model_save/Discrete_REINFORCE_CartPole-v0_Score_156.1.pt (torch, 2644 bytes, 4 tensors)

fc1.weight f4 [32, 4]
00000000: 7330 1bbd 21f0 d7be 8137 34bf b5e4 79be
00000010: 2fde d2be 230b 30be 2fbf dbbe b4d5 35bf
00000020: 305f ef3d 2b01 adbe b1e8 ffbe 21a8 29bf
00000030: c5fe a8bc c2d8 b03e 57ed 8cbd 30ea 3cbf
00000040: 6a93 a83d 7d69 e93c 3d65 033f 527f 65be
00000050: 514a 09be 1404 2dbe e361 cb3e 52d3 dfbd
00000060: 2def 963e 63d8 553e 1e44 18bf e8f1 f0be
00000070: 1a8c c0be 6c87 08bf 87a2 173e 8f8e 143f
00000080: 2817 80be 92cf 9b3e 3b0b b23d 5c34 ec3d
00000090: b6d1 1c3e ffca 67bd b03f 13be 2730 063e
000000a0: 4cfd 653e 1062 0fbe 488e 0cbe f7f3 06bf
000000b0: b743 d6bd fee3 5cbe 492f 343f 7b99 513f
000000c0: f575 e43c 0e8e cd3e d301 bbbe 9f90 863d
000000d0: d14b 053e 893f a53c e2d1 3d3f 2f16 0a3f
000000e0: 403a 9b3e cd89 9bbe 1b52 673e bd01 1c3f
000000f0: 36ff 403e be94 843d 3a8d 91be 7445 403e
00000100: a0b7 9f3d 2cb3 e5bd e783 24bf 2a42 dbbe
00000110: c391 afbd b073 60be 1852 4cbd d481 24bd
00000120: 87cf adbe b56d 79be aa30 a6bd 73aa bbbe
00000130: 2aea b63c 0df9 40bd fb6e 3ebf 17f8 77be
00000140: 53d2 ef3e fef4 4d3f 24a6 583f f038 0e3f
00000150: 01e4 37bf 1671 463e 6d4a 2fbf 0b72 03bf
00000160: 059a 3a3e 4163 c8bc 9bbb e13e 7d2b 173f
00000170: 7564 ef3e 80a8 c0be cdc6 573f bacc 563f
00000180: 6029 da3c e5a8 8fbd bde9 4c3f 1891 133f
00000190: 4f2f 92be 2c4c 493e c8dc 1cbf 54f9 32bf
000001a0: 7441 023f e908 1d3d b9d3 983e 0ec2 193f
000001b0: dd5d e33d 4142 cb3c b5c5 bdbe e42e 11bf
000001c0: d277 2f3e 0f78 183e bf33 473f 946e de3e
000001d0: 265b fc3e 7b71 b0be 5160 8f3e 5e00 f83e
000001e0: 7a02 233e 039a 103e c2a3 21bf b011 dabe
000001f0: 112a 003e 61a7 053f cbed 4dbb 60db e63e
-0.037888 -0.4217539 -0.7039719 -0.24403651 -0.41185138 -0.17191748 -0.429193 -0.7102921
0.116880774 -0.33789954 -0.49982217 -0.6627217 -0.020629296 0.34540373 -0.068812065 -0.7379484
0.08231242 0.028492684 0.5132635 -0.2241185 -0.13407256 -0.16896087 0.3972312 -0.10928978
0.29479352 0.20883326 -0.5947894 -0.4705956 -0.3760689 -0.5333164 0.14808093 0.5803003
-0.25017667 0.304318 0.08693548 0.11533424 0.15314373 -0.056590077 -0.14379764 0.13104306
0.22459906 -0.14002252 -0.13726151 -0.5271601 -0.10462134 -0.21571347 0.7038465 0.8187482
0.027888278 0.40147442 -0.3652483 0.06570553 0.13017203 0.020171897 0.7414838 0.539401
0.3031788 -0.3037857 0.22589915 0.6094015 0.18847355 0.06473683 -0.2842806 0.18776494
0.077986956 -0.11215815 -0.64263767 -0.42823917 -0.08572724 -0.21919131 -0.04988298 -0.040162876
-0.33947393 -0.24358256 -0.08114751 -0.3665348 0.022328455 -0.047112513 -0.7438809 -0.24215733
0.46840152 0.80451953 0.8462851 0.5555563 -0.7183228 0.19379076 -0.6847294 -0.5134589
0.18222816 -0.02446139 0.44088444 0.5905073 0.4675633 -0.37628555 0.8428772 0.8390614
0.026631057 -0.07014636 0.80044156 0.5764327 -0.2855172 0.19657964 -0.61274385 -0.69911695
0.50881124 0.038338576 0.29849032 0.6006173 0.111018874 0.024811866 -0.370649 -0.56712174
0.17135552 0.14889549 0.77813333 0.4344374 0.4928829 -0.3446158 0.2800317 0.4843778
0.15918913 0.14121251 -0.631405 -0.4259162 0.12516047 0.52208525 -0.0031422253 0.45089245

fc1.bias f4 [32]
00000000: c8cc 1bbd 5a8e e13e b4e1 ac3e b439 9c3d
00000010: ad06 2f3e 36d4 43be 8ad2 68be 7508 86bd
00000020: cf4a dfbd e764 ddbe d0ee 2d3d 63e1 6f3d
00000030: fdc0 dcbe bcff 7a3e b042 a83e 8765 f2bd
00000040: ffa3 c63e faef afbe d383 07bf 3ed1 893d
00000050: ecec 9fbd b111 d33e ab0b 8d3e d121 c5bd
00000060: d39d 043e 6fdf 873e 7f91 763e 92a8 873d
00000070: b1e3 993e 20f5 91bd cba6 07be 57c6 863d
-0.03803709 0.44053918 0.33765948 0.076281935 0.1709239 -0.19123921 -0.22736564 -0.06544582
-0.109029405 -0.43241045 0.042464077 0.058564555 -0.43115988 0.24511617 0.3286338 -0.11835771
0.38796994 -0.34362775 -0.5293552 0.06729363 -0.07808861 0.41224435 0.27547964 -0.096255906
0.1295083 0.26537654 0.2407894 0.06623949 0.30056527 -0.07126832 -0.1324722 0.06580799

fc2.weight f4 [2, 32]
00000000: 3563 903e 24c1 4b3e af58 9f3e 0770 143e
00000010: acc9 9d3d d097 6a3d d855 c33d d622 3fbe
00000020: d517 c93d b8c6 b53d 9fa8 653e 0225 9abe
00000030: 8300 223e b2d6 cfbe 3fb2 91be f7c3 4abb
00000040: 5f5f f63d 8ee7 13be bf59 243c f5dd 673e
00000050: 4382 c9be 3297 2c3e 03d5 3fbe 512f 01bf
00000060: 4899 65be 50da 883e b508 c9be 3cc0 163e
00000070: 8687 00be 84a0 aebe a207 4e3e 629b 98be
00000080: d8a4 91be d77a ccbe b906 c0be 31bd a2be
00000090: 996e 273d c7fd f13d 0573 d3bd 08fd b63e
000000a0: 29dd 2f3e 409a 783d e0cc e4bd 0ac7 be3e
000000b0: d8f6 913d e15c 533e 8de3 df3d 5701 9a3d
000000c0: 051c 03be dbce 3d3e 5bcd 3bbc 86eb e3bd
000000d0: 2344 e63e fbba 0ebe 1709 803e 2e37 7b3e
000000e0: 4186 f93e c285 93be 0c6f ce3e 32c5 aebe
000000f0: d7bf 0f3e 2297 dd3e 2902 c9be e53f 0e3e
0.2820069 0.19897896 0.31122348 0.1449586 0.077044815 0.057273686 0.09537858 -0.18665633
0.09818999 0.08875793 0.22427605 -0.3010636 0.15820508 -0.40593487 -0.28456303 -0.0030939558
0.12029909 -0.144438 0.010031163 0.22643264 -0.39357194 0.16854551 -0.18733601 -0.50462824
-0.22421753 0.2672906 -0.39264455 0.14721769 -0.12551698 -0.3410684 0.20120099 -0.29806048
-0.28446078 -0.3993747 -0.3750513 -0.31784967 0.04087696 0.11815982 -0.103246726 0.35739923
0.1717421 0.06069398 -0.11171889 0.3726123 0.0712716 0.20640899 0.10932074 0.07519787
-0.12803657 0.1853594 -0.011462535 -0.11128907 0.4497386 -0.13938515 0.25006935 0.24532768
0.4873524 -0.28812987 0.40319097 -0.34134823 0.14038025 0.43279368 -0.3925946 0.13891561

fc2.bias f4 [2]
00000000: 9a88 c3bd 1840 31be
-0.09547539 -0.17309606
