PG/Policy_Based/REINFORCE/model_save/Discrete_REINFORCE_CartPole-v0_Score_156.5.pt (torch, 2644 bytes, 4 tensors)

fc1.weight f4 [32, 4]
0	0xb97416fe	-0.00023278219
1	0xbedc1eb0	-0.42992163
2	0xbf4737bd	-0.77819425
3	0xbe985263	-0.29750356
4	0xbec7805b	-0.38965115
5	0xbe433249	-0.19062151
6	0xbef7514a	-0.48304206
7	0xbf3962e1	-0.724165
8	0x3e0a10bb	0.13482945
9	0xbeb5d40f	-0.3551335
10	0xbf0c6a1f	-0.5484943
11	0xbf2cc19f	-0.6748294
12	0x3bf4aae3	0.0074666603
13	0x3ead86ab	0.33891806
14	0xbdd60698	-0.104504764
15	0xbf3e23a1	-0.74273115
16	0x3deb7ba8	0.11498195
17	0x3c86380b	0.016384145
18	0x3ef5d457	0.48013565
19	0xbe65df0f	-0.22448371
20	0xbe113141	-0.14178945
21	0xbe3c8f5a	-0.1841406
22	0x3ecd07e2	0.40045077
23	0xbddcfa4f	-0.1078993
24	0x3e90eb54	0.2830454
25	0x3e28e940	0.16495228
26	0xbf291a63	-0.6605589
27	0xbeed17c0	-0.46307182
28	0xbecd6a6c	-0.40120256
29	0xbf07fdcb	-0.5312163
30	0x3e41e0cb	0.18933408
31	0x3f16e017	0.58935684
32	0xbe7118ce	-0.23544618
33	0x3ea9a17b	0.33131012
34	0x3deac235	0.11462823
35	0x3dabfd83	0.08397963
36	0x3e1c931e	0.15290496
37	0xbd69734d	-0.056994725
38	0xbe1360bc	-0.1439237
39	0x3e061603	0.13094334
40	0x3e8665b2	0.26249462
41	0xbe2c99bb	-0.16855519
42	0xbe4bcc35	-0.19902118
43	0xbf054d60	-0.5207119
44	0xbdfb66a7	-0.12275439
45	0xbe733cf6	-0.23753724
46	0x3f377992	0.71669877
47	0x3f533c54	0.8251393
48	0x3da3b3ea	0.079933
49	0x3ee6441c	0.44973838
50	0xbea650fc	-0.3248366
51	0x3cfd34f9	0.030909048
52	0x3dfd7d2d	0.12377391
53	0x3d180c72	0.037121244
54	0x3f480b79	0.78142506
55	0x3f0a6e32	0.54074395
56	0x3e900b95	0.28133836
57	0xbe971320	-0.2950678
58	0x3e885186	0.26624697
59	0x3f1e86aa	0.6192423
60	0x3e325812	0.17416409
61	0x3d82100e	0.063507184
62	0xbe85d3f9	-0.26138285
63	0x3e44b75a	0.19210568
64	0x3dd4f921	0.1039908
65	0xbe0237a8	-0.12716544
66	0xbf31c3da	-0.6943947
67	0xbee0a7da	-0.4387806
68	0xbd971429	-0.07376892
69	0xbe6024eb	-0.21889083
70	0xbd65ded2	-0.0561207
71	0xbce8ee41	-0.02843392
72	0xbea654dc	-0.32486618
73	0xbe6b3cc4	-0.22972399
74	0xbd9dc0ea	-0.07702811
75	0xbeb7fb0d	-0.35933724
76	0x3d22d9f4	0.039758638
77	0xbda731a4	-0.08163765
78	0xbf4fe28a	-0.81205046
79	0xbe799b14	-0.24375564
80	0x3eef700d	0.46765175
81	0x3f55db07	0.83537334
82	0x3f608732	0.8770629
83	0x3f05cd3c	0.5226629
84	0xbf2f6bc2	-0.685238
85	0x3e37c761	0.17947151
86	0xbf3d7d24	-0.74019074
87	0xbf06fa72	-0.527259
88	0x3e2af246	0.16693982
89	0xbc415cf5	-0.011801948
90	0x3ef7e99a	0.4842041
91	0x3f1931f0	0.59841824
92	0x3edde0bc	0.4333552
93	0xbec3b943	-0.3822728
94	0x3f664d1f	0.8996143
95	0x3f5b1163	0.85573405
96	0x3bbe677a	0.005810675
97	0xbd9cc31a	-0.076544
98	0x3f55e6d0	0.83555317
99	0x3f163009	0.58667046
100	0xbe86623c	-0.26246822
101	0x3e327dca	0.17430797
102	0xbf2a9465	-0.6663268
103	0xbf329ec6	-0.6977352
104	0x3ef56fd9	0.47936895
105	0x3d60a5a1	0.054845456
106	0x3eae90d0	0.34094858
107	0x3f199d53	0.6000568
108	0x3e0bc75c	0.13650268
109	0x3b064373	0.002048698
110	0xbed4018a	-0.41407424
111	0xbf0fc95a	-0.56166613
112	0x3e21d33a	0.15803233
113	0x3e273e94	0.16332465
114	0x3f52e5ff	0.82382196
115	0x3ee4ce8d	0.44688836
116	0x3ededcec	0.43527925
117	0xbeb85ce3	-0.36008367
118	0x3eabede3	0.3357993
119	0x3f007c0d	0.50189286
120	0x3e386157	0.18005882
121	0x3ddfb7b7	0.10923713
122	0xbf3059da	-0.688871
123	0xbed83f10	-0.42235613
124	0x3de803e5	0.11328868
125	0x3f07ffa6	0.53124464
126	0x3d0d8eea	0.03456012
127	0x3ee6d4b0	0.45084143

fc1.bias f4 [32]
0	0xbc25c67b	-0.010118122
1	0x3eea3863	0.45746145
2	0x3eb5eef6	0.35533875
3	0x3db9bbd3	0.09069028
4	0x3e361a99	0.17783584
5	0xbe3cbcdf	-0.18431424
6	0xbe7aad81	-0.24480249
7	0xbd694b3f	-0.056956526
8	0xbdb993fb	-0.09061428
9	0xbedd7437	-0.43252727
10	0x3dc80e13	0.097683094
11	0x3d2d643b	0.042331915
12	0xbec67571	-0.38761476
13	0x3e6d91ba	0.23200122
14	0x3e9f8b02	0.31160742
15	0xbe060501	-0.13087846
16	0x3ed0467f	0.40678784
17	0xbebb19fd	-0.36543265
18	0xbf0bbee7	-0.5458817
19	0x3dba9615	0.09110657
20	0xbd80e25b	-0.06293174
21	0x3edca870	0.43097258
22	0x3e84be8e	0.25926632
23	0xbdc823f8	-0.097724855
24	0x3de2e9d2	0.11079754
25	0x3e9515c4	0.29118168
26	0x3e6c5912	0.23080853
27	0x3dd719a5	0.10502938
28	0x3e8fd47b	0.28091797
29	0xbd9f0949	-0.07765443
30	0xbe05e6ae	-0.13076279
31	0x3d60b545	0.054860372

fc2.weight f4 [2, 32]
0	0x3ea83c67	0.32858583
1	0x3e610efa	0.2197837
2	0x3eace2a6	0.3376667
3	0x3e17e260	0.14832449
4	0x3dae4b65	0.08510474
5	0x3d3114d0	0.04323274
6	0x3daf5c63	0.08562543
7	0xbe457429	-0.19282593
8	0x3da65833	0.081222914
9	0x3db57040	0.088593006
10	0x3e854e73	0.26036415
11	0xbe9d3835	-0.30706945
12	0x3e3e9214	0.18610412
13	0xbecc2331	-0.398706
14	0xbe8a5abe	-0.27022356
15	0x3c144eae	0.009051962
16	0x3e116c00	0.14201355
17	0xbe334d47	-0.17509948
18	0xbaad339c	-0.0013214233
19	0x3e8aca2a	0.27107364
20	0xbed04076	-0.4067418
21	0x3e3ce1c1	0.18445493
22	0xbe355f72	-0.17712191
23	0xbf05ad2b	-0.5221736
24	0xbe639aac	-0.22226971
25	0x3e91bc4c	0.28463972
26	0xbec2e8f6	-0.3806836
27	0x3e28917f	0.16461752
28	0xbdf26613	-0.11835875
29	0xbeaf9bbf	-0.34298512
30	0x3e472f8e	0.19451734
31	0xbe983ada	-0.297324
32	0xbea97e0a	-0.33103973
33	0xbed721c3	-0.42017946
34	0xbecd90b0	-0.4014945
35	0xbea4765d	-0.32121554
36	0x3d066b27	0.032817032
37	0x3e075fa3	0.13220076
38	0xbdbf7990	-0.09349358
39	0x3eba25b1	0.3635688
40	0x3e413cfb	0.18870918
41	0x3d79472e	0.060858898
42	0xbe175ab9	-0.14780702
43	0x3ec1da3d	0.37861815
44	0x3d31a769	0.043372545
45	0x3e4bf5e0	0.19918013
46	0x3dc2858e	0.0949813
47	0x3d812163	0.06305196
48	0xbe195856	-0.14975104
49	0x3e5d3494	0.21602088
50	0xb8e69401	-0.000109948225
51	0xbe1fac22	-0.15593007
52	0x3eed0256	0.46290845
53	0xbe1f058a	-0.15529457
54	0x3e759c9c	0.23985523
55	0x3e86974b	0.26287302
56	0x3ef886f3	0.48540458
57	0xbe9c67be	-0.305479
58	0x3ec84f4d	0.39123002
59	0xbeb7add3	-0.35874805
60	0x3e086b5a	0.13322201
61	0x3ede925d	0.4347104
62	0xbec59620	-0.385911
63	0x3e0d7ed8	0.13817918

fc2.bias f4 [2]
0	0xbda29438	-0.07938427
1	0xbe41ba4b	-0.18918721
