PG/Policy_Based/REINFORCE/model_save/Discrete_REINFORCE_CartPole-v0_Score_162.2.pt (torch, 2643 bytes, 4 tensors)

fc1.weight f4 [32, 4]
000000 55 7d 0c bf 83 5a 81 be 84 48 78 3f ce 0d 10 3f
       -0.5487874 -0.25264367 0.9698565 0.56271064
000010 d2 ea a0 bd 7e bf a2 be 02 6c a1 3c fc e0 c5 3e
       -0.078572884 -0.31786722 0.019704822 0.38648212
000020 52 64 28 3e 51 11 84 3e 2b dc 25 3f b5 63 13 3f
       0.16444519 0.2579446 0.64789075 0.57574016
000030 12 07 bf be cc 10 c3 bd 7b b4 ba 3e 41 bf 0b 3f
       -0.37310082 -0.09524688 0.3646582 0.54588705
000040 8f fd 75 be 25 b9 8d bd 93 4e d7 3e d8 5b 44 3f
       -0.24022506 -0.06920079 0.42052135 0.7670264
000050 7b a1 63 bd ed ba 31 3f 8e a3 ab 3e a8 68 00 3f
       -0.05557392 0.6942585 0.3352322 0.5015969
000060 e3 9b 4f 3d 6a 66 91 be 01 18 d1 3e 5a 9e fd 3e
       0.050685775 -0.28398448 0.40838626 0.49534875
000070 31 df db bd 35 4a 84 3d 70 42 cf bd ae 93 ab be
       -0.1073593 0.06459466 -0.10120094 -0.33511108
000080 72 6f fe 3d c6 ba 0a be 40 2c a9 3e b0 4a 9f 3e
       0.124236 -0.13547811 0.33041573 0.3111167
000090 d2 63 db be 65 de ad be 68 c1 51 3e fb dc 4b be
       -0.42849594 -0.33958736 0.20483935 -0.19908516
0000a0 a3 aa aa be 35 b3 43 3d e8 8c 96 be 21 67 21 bb
       -0.3333331 0.047778327 -0.29404378 -0.002462812
0000b0 fe 44 30 3e f4 6b 97 be d0 db 93 3d 9c d0 b9 3e
       0.17213818 -0.2957455 0.0721966 0.3629197
0000c0 96 8b 43 be fc c5 b8 be 24 67 3f 3f f3 da 41 3f
       -0.19096217 -0.3608855 0.74766755 0.75724715
0000d0 17 9c 55 3e 04 e7 d9 3e 0c 3c 7a 3f da b3 0f 3f
       0.20860325 0.42559063 0.97747874 0.56133807
0000e0 cf a6 30 3e 5a 87 cb be a5 fe a1 3e 2b 71 e1 3e
       0.17251132 -0.39751703 0.3163959 0.44031653
0000f0 ab 08 57 3d 53 50 6a be 87 1f 3a bf 68 36 12 bf
       0.0524985 -0.22882204 -0.72704357 -0.5711427
000100 eb 59 45 3e 99 c3 96 be 23 16 06 bd 88 49 5a bf
       0.19272582 -0.29446104 -0.032735955 -0.8526845
000110 b4 3b 12 3f 9a 7f 7a bd ed e6 68 bf a4 f3 4d bf
       0.5712235 -0.061156847 -0.90977365 -0.8044989
000120 7d 67 e5 be ce a6 c9 be 04 2d 2a bf 67 fc fe be
       -0.44805518 -0.39385074 -0.6647494 -0.49801943
000130 5a 04 e2 3e d0 9b c9 3e 0f 43 13 bf c3 b7 49 bf
       0.44143945 0.39376688 -0.575242 -0.78796023
000140 eb 2e 3d be 61 92 d0 be 2c 0b e6 3e 88 c6 74 3e
       -0.18474929 -0.40736678 0.44930398 0.23903859
000150 ba de e5 3e c2 85 cb be 0d cb 60 3f 26 17 28 3f
       0.4489649 -0.39750487 0.8780983 0.6566032
000160 44 16 30 3b e4 78 a4 3e c2 49 65 3e 14 85 95 be
       0.002686874 0.32123482 0.22391418 -0.29203093
000170 c0 5e b3 be 7d 27 9b 3e 54 ef d1 be 38 9c 24 3d
       -0.35033226 0.30303565 -0.41002905 0.040188044
000180 cb f3 4f 3d f2 3a 29 3d 73 52 80 3e 24 bd 25 3f
       0.05076961 0.04131598 0.25062904 0.6474173
000190 41 a4 1b bf 2f 44 fd be f3 7f 5e 3e e7 47 48 3e
       -0.60797507 -0.49466082 0.21728496 0.19558679
0001a0 3d a8 1f be 04 38 83 3e 53 72 3a bf d1 57 e3 be
       -0.15591522 0.25628674 -0.72830695 -0.44402936
0001b0 4c f7 e3 3e b3 18 5a 3e 5a 9e 82 3f b1 1e 42 3f
       0.4452461 0.21298485 1.0204575 0.7582808
0001c0 cb 0e cb bd c4 d1 5e bc 58 ac 1b bf 2b 75 4e bd
       -0.09914931 -0.013599817 -0.6080985 -0.05040471
0001d0 f5 8c d8 3d 76 74 32 be 88 b1 39 3e 11 74 9f bd
       0.105737604 -0.17427239 0.18134129 -0.0778581
0001e0 bf 71 0f be 6d 75 fa 3e 5a 7e 36 3f ed 47 66 3f
       -0.14008234 0.48917714 0.7128655 0.899535
0001f0 80 4b df 3b 80 76 1c 3d 68 3c a4 bd ec 0e 18 3e
       0.00681442 0.038198948 -0.08019334 0.14849442

fc1.bias f4 [32]
000000 de 5a ac bd 10 6c 29 be 8e 90 f1 3d a7 7e 83 bd
       -0.08415769 -0.16545129 0.1179515 -0.064206414
000010 7a d0 47 3e 86 00 97 bd 07 1b 1c 3c 9c f4 d4 be
       0.19513121 -0.07373147 0.009527928 -0.41592872
000020 bc 4d 4e bd 3e 34 3c be 2d 66 c5 be 3a 5f 38 3d
       -0.050367102 -0.18379304 -0.38554516 0.04501269
000030 2c bb 04 bd 25 82 05 3e e3 a4 b8 bd c2 88 93 3e
       -0.032405064 0.13037927 -0.09015825 0.28815275
000040 7c d4 84 3e be 01 44 39 94 d4 e0 3e 1f cf 2b be
       0.25943363 0.00018692666 0.43912184 -0.16778229
000050 6a d4 a6 bd c4 af 39 be c0 0e e0 be d9 62 85 be
       -0.081459835 -0.18133456 -0.43761253 -0.26051977
000060 0a 14 c4 bb 0c 3a f5 bd ba f6 1b be 94 9f 9b 3c
       -0.005983834 -0.11973962 -0.15230837 0.018996991
000070 0c 22 7c 3e 19 aa d1 be f1 07 57 3d 6c 74 7c be
       0.24622363 -0.40950087 0.052497808 -0.24653786

fc2.weight f4 [2, 32]
000000 75 7b 0b bf 3b 9f 5e bd 47 a0 40 be 9f 0e c3 be
       -0.54485255 -0.054351073 -0.18811141 -0.38097093
000010 b8 da d9 bc f0 6a 55 be 6d e7 52 be 7e e5 30 3e
       -0.026593551 -0.20841575 -0.20596094 0.17275044
000020 f7 8d 82 bc 58 41 d3 3d c8 a2 e2 bd 29 64 28 be
       -0.015936835 0.10315198 -0.11066204 -0.16444458
000030 61 55 a8 be 7c 0b 63 be 31 01 a5 bd 4f ad e7 3e
       -0.3287764 -0.2217235 -0.08056868 0.4524941
000040 54 3d e2 3e 64 c3 c8 3e 3b 11 1d 3e 3c 46 ba 3d
       0.44187415 0.3921157 0.15338604 0.090954274
000050 4d 6b d4 bd f6 69 bd be 4f 48 36 3c 33 ff b4 3d
       -0.103720285 -0.36994904 0.011125638 0.08837738
000060 cf 68 9f be 57 f3 b4 bc 08 fe 87 3e 33 9d e2 be
       -0.3113465 -0.02208869 0.26560998 -0.44260558
000070 8f 85 57 bd a9 ab bc 3c 66 b3 c4 be 0e 13 6a b9
       -0.052617606 0.023031073 -0.3841812 -0.00022323077
000080 87 2e b6 3e de 79 01 3e 8d 6c ab 3e 90 66 61 3e
       0.35582373 0.12644145 0.33481255 0.2201178
000090 48 3a 8f 3e d6 c3 5d 3e b4 41 9e 3e 6e e2 f7 3c
       0.27974153 0.21656737 0.30909503 0.030259337
0000a0 ae 51 ec 3d 51 c8 be bc 6b 59 40 be 60 32 94 bd
       0.11539017 -0.023288878 -0.1878411 -0.07236171
0000b0 1d 08 35 3e b4 2a c3 3e c6 ab 7a 3e 6a 7a bf be
       0.17678876 0.38118517 0.24479589 -0.37398082
0000c0 02 5f fd bd 45 60 f3 bd 6b f4 81 be af 25 52 be
       -0.12371637 -0.11883596 -0.2538179 -0.20522188
0000d0 d9 96 aa 3d 4b 9b c8 3e da b4 85 bd 10 4a 0a bd
       0.08329553 0.3918098 -0.06528635 -0.033762038
0000e0 88 1a ca 3d a2 9a 62 3e e6 4b 69 bd aa d8 c6 3e
       0.09868342 0.221293 -0.056957148 0.38837177
0000f0 b1 89 fb bd 7f 1e c9 3d 2e 27 0d 3f 8a 54 21 be
       -0.12282122 0.0982027 0.5513791 -0.15754905

fc2.bias f4 [2]
000000 d1 90 f3 3c c8 63 8c be
       0.02973214 -0.27419877
