PG/Policy_Based/REINFORCE/model_save/Discrete_REINFORCE_CartPole-v0_Score_180.3.pt (torch, 2643 bytes, 4 tensors)

fc1.weight f4 [32, 4]
0	0xbef5f5ec	-0.48039186
1	0x3c9b071b	0.018924287
2	0x3f8a1a9a	1.0789368
3	0x3ed6a0ad	0.4191946
4	0xbce2a635	-0.027667144
5	0xbe050a5f	-0.12992238
6	0x3bc50e59	0.0060136733
7	0x3e57c8c2	0.21072677
8	0x3e05eb25	0.13077982
9	0x3e6fcb60	0.23417425
10	0x3f59c5e7	0.850676
11	0x3f209579	0.6272808
12	0xbea67bcf	-0.32516333
13	0x3e06256c	0.13100213
14	0x3ede1ae2	0.43379885
15	0x3ed14840	0.40875435
16	0xbec6a268	-0.3879578
17	0xbd5077a6	-0.050895356
18	0x3f19bf8b	0.60057896
19	0x3f3aded0	0.72996235
20	0xbe15a7c6	-0.14614782
21	0x3f18cc96	0.59687173
22	0x3f190f01	0.5978852
23	0x3f48e499	0.7847381
24	0x3ddb20b0	0.10699594
25	0xbe0591c0	-0.1304388
26	0x3f088729	0.5333124
27	0x3edf82b9	0.4365442
28	0xbdae8b06	-0.0852261
29	0x3db1030e	0.08643161
30	0xbdbb54f9	-0.091470666
31	0xbeb425c1	-0.35185054
32	0x3e264f3e	0.16241166
33	0xbd1c1af6	-0.03811165
34	0x3ea496fa	0.32146436
35	0x3e5a3e51	0.21312834
36	0xbebc1e29	-0.3674176
37	0xbe9a3a4f	-0.3012261
38	0x3e285267	0.16437684
39	0xbe8a7b9f	-0.2704744
40	0xbe972d57	-0.2952678
41	0x3da66f77	0.08126729
42	0xbe86b086	-0.26306552
43	0x3ca4badb	0.02010863
44	0x3e3ae0a9	0.18249764
45	0xbe5922fe	-0.21204755
46	0x3d85acd7	0.06527107
47	0x3e8adabe	0.27120012
48	0xbdc36a5f	-0.09541773
49	0xbdf9a183	-0.12189009
50	0x3f6a82a4	0.9160559
51	0x3f326c55	0.6969655
52	0x3e320cdd	0.1738772
53	0x3ec4ef8c	0.3846401
54	0x3f9a0a95	1.2034479
55	0x3f2336eb	0.63755673
56	0x3e9c2d61	0.3050337
57	0xbe69add1	-0.22820212
58	0x3e8dc858	0.27691913
59	0x3ea009a9	0.3125737
60	0x3ce38218	0.027771994
61	0xbe77b031	-0.24188305
62	0xbf684bec	-0.9074085
63	0xbf1cadfb	-0.61202973
64	0x3e9be863	0.30450734
65	0xbe38d78b	-0.18050973
66	0xbe6b63f9	-0.22987355
67	0xbf7cf9eb	-0.98818845
68	0x3f1d1f33	0.6137573
69	0x3e007bee	0.12547275
70	0xbf4bf50b	-0.7967078
71	0xbf73b40d	-0.9519661
72	0x3d1386e6	0.03601732
73	0xbeaf57d1	-0.34246686
74	0xbf701010	-0.9377451
75	0xbf06d11a	-0.52662814
76	0x3ef5bd52	0.47996002
77	0x3f03d804	0.5150149
78	0xbf0c2d01	-0.5475617
79	0xbf6ad921	-0.9173756
80	0xbe2cb0ce	-0.1686432
81	0xbe84b975	-0.25922742
82	0x3ed37a30	0.4130416
83	0x3dac0a13	0.08400359
84	0x3f0bc64d	0.5459946
85	0xbe46254a	-0.19350162
86	0x3f6851ca	0.907498
87	0x3f039fde	0.5141581
88	0x3c7f8f08	0.015598066
89	0x3ed9cd79	0.42539576
90	0x3e98bd5c	0.2983197
91	0xbeef44d9	-0.46732214
92	0xbec79eaa	-0.3898824
93	0x3e812f14	0.2523123
94	0xbee09744	-0.43865407
95	0x3d9ee756	0.077589676
96	0x3e25caad	0.16190596
97	0x3e3ef94d	0.18649788
98	0x3eacb19b	0.33729252
99	0x3f15972b	0.5843379
100	0xbf05966b	-0.52182645
101	0xbeb86911	-0.3601766
102	0x3e480870	0.19534469
103	0x3da8b8c9	0.0823837
104	0xbd8cabf7	-0.06868737
105	0x3ed7900f	0.42102095
106	0xbf1d8a0b	-0.6153876
107	0xbf0d41d4	-0.5517857
108	0x3ed44427	0.41458246
109	0x3e508041	0.20361425
110	0x3fa00e49	1.250436
111	0x3f4f734e	0.81035316
112	0xbd4e095e	-0.050301902
113	0x3d1511e1	0.036394004
114	0xbf55c689	-0.83506066
115	0xbe326359	-0.1742071
116	0x3dd886ed	0.1057261
117	0xbe327777	-0.17428385
118	0x3e39b489	0.18135275
119	0xbd9f7a19	-0.0778696
120	0xbde15170	-0.11001861
121	0x3efff4f0	0.4999156
122	0x3f6a40f0	0.91505337
123	0x3f6a7665	0.91586906
124	0x3bdf4b80	0.00681442
125	0x3d1c7680	0.038198948
126	0xbda43c68	-0.08019334
127	0x3e180eec	0.14849442

fc1.bias f4 [32]
0	0xbe79b1c7	-0.24384223
1	0xbeaf76a5	-0.34270206
2	0x3e0bd176	0.13654122
3	0xbe609a1a	-0.21933785
4	0x3e44edc6	0.19231328
5	0x3df0e384	0.11762145
6	0xbd4f73d0	-0.050647557
7	0xbeceac46	-0.4036581
8	0xbe2258e6	-0.15854225
9	0xbe5fe58e	-0.21864912
10	0xbed526a3	-0.4163104
11	0xbd8c4211	-0.06848539
12	0xbd92589d	-0.07145808
13	0x3e18b714	0.14913589
14	0xbe71e82a	-0.2362372
15	0x3e83334f	0.25625083
16	0x3e4dbd82	0.20091823
17	0x3d528574	0.051396802
18	0x3edb0dcd	0.42783967
19	0xbdf1e67d	-0.1181154
20	0xbe624628	-0.22097075
21	0xbeaeee5e	-0.34166235
22	0xbecb84c2	-0.39749724
23	0xbe99558f	-0.2994809
24	0xbde1897b	-0.110125504
25	0xbe69f2cd	-0.22846527
26	0xbddcb8f2	-0.10777463
27	0x3ce790c2	0.028267268
28	0x3dfab321	0.122411974
29	0xbed1ab9a	-0.40951234
30	0x3df23390	0.11826241
31	0xbe7c746c	-0.24653786

fc2.weight f4 [2, 32]
0	0xbed3df92	-0.41381508
1	0x3d104ed7	0.035231438
2	0xbe463db3	-0.19359474
3	0xbe897c6d	-0.26852742
4	0xbd24c7c7	-0.040229585
5	0xbe65692d	-0.22403403
6	0xbdcdd23f	-0.10049867
7	0x3e356c0e	0.17717001
8	0x3d3c3809	0.045951877
9	0x3e295d7d	0.16539569
10	0xbd3d3e62	-0.04620207
11	0xbda1dded	-0.07903657
12	0xbe71573e	-0.23568437
13	0xbe74c8c1	-0.23904707
14	0x3ca33e7a	0.019927252
15	0x3ed882cc	0.4228729
16	0x3ed94fe1	0.42443755
17	0x3ef5f79e	0.4804048
18	0x3dcd6065	0.100281514
19	0x3e55f8e2	0.20895723
20	0xbc1947c5	-0.00935549
21	0xbea23560	-0.31681347
22	0x3e205a90	0.15659547
23	0x3dc42063	0.0957649
24	0xbe7bf59b	-0.2460541
25	0x3de1e03f	0.110291
26	0x3ed86085	0.4226114
27	0xbef18045	-0.47168174
28	0xbd913a3b	-0.07091185
29	0x3cbc9377	0.023019535
30	0xbed06467	-0.407016
31	0xb96a130e	-0.00022323077
32	0x3e662e5f	0.22478627
33	0x3d16f95d	0.036858905
34	0x3eae3b43	0.34029588
35	0x3ddc844f	0.10767423
36	0x3e963594	0.29337752
37	0x3e6dc212	0.23218563
38	0x3e508517	0.2036327
39	0x3cd3ae04	0.025839813
40	0x3d5b2454	0.053501442
41	0xbdaf2bb2	-0.08553256
42	0xbe812d9a	-0.25230104
43	0xbe218e65	-0.15776975
44	0x3dab692b	0.083696686
45	0x3ecc0952	0.3985086
46	0x3e13c35e	0.14429995
47	0xbeb04fe1	-0.34435943
48	0xbdd9a92e	-0.106279716
49	0xbe5418a4	-0.20712525
50	0xbe4d87c3	-0.2007132
51	0xbea57db7	-0.32322475
52	0xbc355be0	-0.011069268
53	0x3ead66b5	0.33867422
54	0xbe57d07a	-0.21075621
55	0xbd288c7d	-0.041149605
56	0x3d08c4ed	0.033390928
57	0x3db61830	0.08891332
58	0xbe5b17f4	-0.21395856
59	0x3ed5bbc0	0.41744804
60	0xbdd6123d	-0.104526974
61	0x3dc92487	0.0982142
62	0x3f12ffb2	0.5742141
63	0xbe21548a	-0.15754905

fc2.bias f4 [2]
0	0xbaa7a46a	-0.0012790088
1	0xbe790624	-0.24318749
