PG/Policy_Based/REINFORCE/model_save/Discrete_REINFORCE_CartPole-v0_Score_132.7.pt (torch, 2643 bytes, 4 tensors)

fc1.weight f4 [32, 4]
0	0xbf1c729b	-0.61112374
1	0xbe9bc055	-0.30420175
2	0x3f73cdac	0.95235705
3	0x3f0fe2b7	0.56205314
4	0xbdef6609	-0.116893835
5	0xbeaeeac1	-0.34163478
6	0x3a369648	0.00069651427
7	0x3ec42214	0.3830725
8	0x3e0c57ac	0.13705319
9	0x3e469945	0.19394405
10	0x3f0dba50	0.55362415
11	0x3f1a1b06	0.60197484
12	0xbec89730	-0.39177847
13	0xbe073701	-0.13204576
14	0x3eaf9eb9	0.34300783
15	0x3f0eba9f	0.5575351
16	0xbe864471	-0.26224092
17	0xbdfd9f96	-0.12383954
18	0x3eaae44f	0.3337731
19	0x3f3fc182	0.74904644
20	0xbdbaf39a	-0.091284946
21	0x3f221064	0.6330626
22	0x3e83078d	0.25591698
23	0x3f08e977	0.5348124
24	0x3c83e659	0.01610105
25	0xbeaf2bf2	-0.34213215
26	0x3eb69577	0.35660908
27	0x3f01219e	0.5044192
28	0xbdde6461	-0.108589895
29	0x3d7c291c	0.061562642
30	0xbdd3a806	-0.10334782
31	0xbea9e4b9	-0.33182314
32	0x3dce2511	0.100656636
33	0xbe5115fd	-0.20418544
34	0x3e91c7dc	0.28472793
35	0x3eab976a	0.33513957
36	0xbef1cbe2	-0.47225863
37	0xbebfb074	-0.3743931
38	0x3e3394b3	0.17537193
39	0xbe5fec8d	-0.2186758
40	0xbece2194	-0.40259993
41	0xbc67b5ec	-0.014142495
42	0xbeb6d284	-0.35707486
43	0xbd3fd3fd	-0.046833027
44	0x3e226510	0.15858865
45	0xbeb406cb	-0.35161433
46	0x3c906954	0.01762835
47	0x3ebc284b	0.3674949
48	0xbe574ae9	-0.2102467
49	0xbed795c1	-0.4210644
50	0x3f33805f	0.70117754
51	0x3f449928	0.767962
52	0x3e46fe55	0.19432957
53	0x3ec27ee6	0.3798744
54	0x3f5f4d8d	0.8722771
55	0x3f0bec10	0.5465708
56	0x3e1ae7e8	0.15127528
57	0xbee45d9b	-0.44602665
58	0x3e8ba4cf	0.27274176
59	0x3eebf71c	0.46086967
60	0x3da00e5f	0.07815241
61	0xbe356e91	-0.17717959
62	0xbf227b67	-0.6346955
63	0xbf0c3659	-0.5477043
64	0x3e6979e4	0.22800404
65	0xbe6b8e65	-0.23003538
66	0x3d90d2bc	0.070714444
67	0xbf557a1c	-0.8338945
68	0x3f17dbf8	0.5932002
69	0xbd0525fa	-0.03250692
70	0xbf4eb3ec	-0.8074329
71	0xbf3ee1dc	-0.74563384
72	0xbed3bdb3	-0.41355667
73	0xbead2033	-0.3381363
74	0xbf11a3d5	-0.5689061
75	0xbeeea201	-0.46607974
76	0x3ee9e5bf	0.45683095
77	0x3ed6d81d	0.41961756
78	0xbefa976a	-0.48943645
79	0xbf3ebcfa	-0.74507105
80	0xbe5d9a00	-0.21640778
81	0xbeebeb07	-0.4607775
82	0x3eda82f6	0.4267804
83	0x3e83c8fc	0.25739276
84	0x3edc4417	0.43020698
85	0xbee41944	-0.44550526
86	0x3f543d4c	0.8290603
87	0x3f2aea91	0.6676417
88	0xb9fd4a5c	-0.00048311322
89	0x3ea211ce	0.3165421
90	0x3e75d16f	0.24005674
91	0xbe863616	-0.2621314
92	0xbeb39c28	-0.35080075
93	0x3e990a97	0.29890892
94	0xbed26324	-0.41091263
95	0x3d444647	0.047918584
96	0x3cac4a45	0.021031508
97	0xbcd2a3e5	-0.025712917
98	0x3e392341	0.18079855
99	0x3f279a87	0.65470165
100	0xbf332fca	-0.69994795
101	0xbf07fb3a	-0.53117716
102	0x3e4998bc	0.1968717
103	0x3e3b75e1	0.18306686
104	0xbe0d9c33	-0.13829117
105	0x3e928d83	0.2862359
106	0xbf285b00	-0.65763855
107	0xbece244e	-0.40262073
108	0x3edb1b44	0.4279424
109	0x3e2183a6	0.15772876
110	0x3f71d77d	0.94469434
111	0x3f44bd54	0.7685139
112	0xbd87ceb6	-0.06631224
113	0x3c8b4471	0.017000409
114	0xbf1378fc	-0.5760648
115	0xbd0f377a	-0.034965016
116	0x3dd89b93	0.105765484
117	0xbe326d26	-0.1742445
118	0x3e39aa38	0.1813134
119	0xbd9f6573	-0.07783022
120	0xbe2b328e	-0.16718504
121	0x3edec47c	0.4350928
122	0x3f20d612	0.62826645
123	0x3f675b91	0.90374094
124	0x3bdf4b80	0.00681442
125	0x3d1c7680	0.038198948
126	0xbda43c68	-0.08019334
127	0x3e180eec	0.14849442

fc1.bias f4 [32]
0	0xbcea7f0e	-0.028625038
1	0xbe1338bf	-0.14377116
2	0x3e267fa0	0.16259623
3	0x3b97283a	0.0046129497
4	0x3e87e395	0.2654082
5	0xbe1c2903	-0.1525002
6	0x3d884db8	0.06655449
7	0xbed5fe13	-0.41795406
8	0x3bec3a05	0.007209065
9	0xbe199a41	-0.1500025
10	0xbea6272e	-0.32451767
11	0x3dda74b9	0.10666794
12	0x3d11fecf	0.035643395
13	0x3e3cbdbf	0.18431757
14	0xbd058c63	-0.032604586
15	0x3e730904	0.23733908
16	0x3e4b95d2	0.1988137
17	0xbd362599	-0.04446945
18	0x3ec71a39	0.38887194
19	0xbe369088	-0.17828572
20	0xbc912fc2	-0.017722968
21	0xbe0ec445	-0.13942058
22	0xbee5a6bf	-0.4485378
23	0xbe86c868	-0.26324773
24	0x3d5fe214	0.054658964
25	0xbdb3d355	-0.08780543
26	0xbe11f6c7	-0.14254294
27	0x3d3a5d96	0.045499407
28	0x3e8adb2b	0.27120337
29	0xbed1a671	-0.40947297
30	0x3dcfefaa	0.10153134
31	0xbe7c746c	-0.24653786

fc2.weight f4 [2, 32]
0	0xbf1007bc	-0.562618
1	0xbd3de925	-0.046364922
2	0xbe47fcad	-0.19529982
3	0xbecc9c23	-0.39962873
4	0xbd8377fb	-0.06419369
5	0xbe337a11	-0.17527033
6	0xbe76da22	-0.24106649
7	0x3e2eeaa0	0.1708169
8	0xbd06e328	-0.032931477
9	0x3bb3dc1b	0.005488885
10	0xbe452155	-0.19250996
11	0xbe4dc397	-0.20094143
12	0xbeb44281	-0.35206988
13	0xbe579561	-0.21053077
14	0xbdd2d393	-0.10294261
15	0x3ec11e0e	0.37718242
16	0x3ec3bc02	0.38229376
17	0x3eb8c48d	0.36087456
18	0x3da4ede0	0.080531836
19	0x3dbd0b9b	0.09230729
20	0xbe003c05	-0.12522896
21	0xbebc6a02	-0.36799628
22	0x3c75cfd1	0.015003161
23	0x3db33416	0.08750169
24	0xbea911db	-0.33021435
25	0xbd84949b	-0.06473657
26	0x3e81f8de	0.25385183
27	0xbedaead7	-0.42757294
28	0xbdb5fc88	-0.08886057
29	0x3cbce620	0.02305895
30	0xbebcc30d	-0.36867562
31	0xb96a130e	-0.00022323077
32	0x3ebf4712	0.3735891
33	0x3df298b2	0.118455306
34	0x3eaf1abf	0.34200093
35	0x3e74819a	0.23877564
36	0x3ea27a9c	0.3173417
37	0x3e3bd2f7	0.18342195
38	0x3eb03b0d	0.34420052
39	0x3d03dcaa	0.032192864
40	0x3e078fe3	0.13238482
41	0x3d985182	0.074374214
42	0xbdd912f5	-0.10599319
43	0xbd12e709	-0.035864864
44	0x3e4ce25d	0.20008226
45	0x3ebd6fa6	0.36999243
46	0x3e88ca7b	0.2671698
47	0xbe98eb29	-0.29866913
48	0xbd8359bc	-0.064136
49	0xbdb364eb	-0.08759483
50	0xbe394e8b	-0.18096368
51	0xbe53885d	-0.20657487
52	0x3dd6a396	0.1048042
53	0x3ec79b57	0.38985702
54	0xbd8da5cb	-0.06916388
55	0xbd06b3d4	-0.03288634
56	0x3df0beb4	0.11755124
57	0x3e872341	0.26394084
58	0xbd39229b	-0.045199018
59	0x3ebf264e	0.37333912
60	0xbdb14ff0	-0.08657825
61	0x3dc90fe1	0.09817482
62	0x3f092f02	0.53587353
63	0xbe21548a	-0.15754905

fc2.bias f4 [2]
0	0xbc7c91f4	-0.015415657
1	0xbe6a8c56	-0.22905096
