PG/Policy_Based/REINFORCE/model_save/Discrete_REINFORCE_CartPole-v0_Score_146.3.pt (torch, 2643 bytes, 4 tensors)

fc1.weight f4 [32, 4]
0	0xbf0cc653	-0.5499012
1	0xbe88491a	-0.26618272
2	0x3f78cd99	0.9718872
3	0x3f1234ab	0.57111615
4	0xbd950020	-0.072754145
5	0xbea8327f	-0.32851025
6	0x3c580411	0.013184563
7	0x3ec72056	0.38891858
8	0x3e2bbeec	0.1677205
9	0x3e7e6b3e	0.24845597
10	0x3f20efac	0.6286571
11	0x3f167afb	0.58781403
12	0xbebc8ae9	-0.3682473
13	0xbdd8987f	-0.10575961
14	0x3ebbd08f	0.36682555
15	0x3f0e58b2	0.5560409
16	0xbe6fefad	-0.23431273
17	0xbdad5451	-0.08463348
18	0x3ece9b22	0.40352732
19	0x3f461725	0.77379066
20	0xbd55a9cb	-0.05216388
21	0x3f3113b1	0.6917067
22	0x3ea4355d	0.32071963
23	0x3f00b26d	0.50272256
24	0x3d63fe7d	0.05566262
25	0xbe996406	-0.29959124
26	0x3eccb9d2	0.3998552
27	0x3f00eaaa	0.5035807
28	0xbddc445f	-0.10755228
29	0x3d82b4c8	0.063821375
30	0xbdd03d7d	-0.10167978
31	0xbeab1970	-0.33417845
32	0x3e0a3712	0.1349757
33	0xbe1c57cb	-0.15267865
34	0x3ea5d29e	0.3238725
35	0x3ea55976	0.32294816
36	0xbedac3ec	-0.42727602
37	0xbeae0e54	-0.33995306
38	0x3e511353	0.20417528
39	0xbe4cef3d	-0.20013137
40	0xbeaf194c	-0.34198987
41	0x3d24813f	0.04016232
42	0xbe9a2851	-0.30108884
43	0xbbf8e797	-0.007595967
44	0x3e34212f	0.17590784
45	0xbe9e1559	-0.30875662
46	0x3d8333ec	0.06406388
47	0x3ebc7e2f	0.3681502
48	0xbe3fa583	-0.18715481
49	0xbec15d37	-0.3776643
50	0x3f3e213e	0.74269474
51	0x3f443f5d	0.76659185
52	0x3e5d1630	0.21590495
53	0x3ed80e16	0.42198247
54	0x3f74d265	0.95633537
55	0x3f101d6a	0.5629488
56	0x3e324392	0.17408589
57	0xbed388ba	-0.41315252
58	0x3ea03acf	0.31294867
59	0x3ee6f393	0.45107707
60	0x3d402408	0.046909362
61	0xbe64292a	-0.22281328
62	0xbf356f81	-0.70873266
63	0xbf127fd1	-0.5722628
64	0x3e3ecf7b	0.18633835
65	0xbe938a69	-0.28816536
66	0xbc425e3e	-0.011863289
67	0xbf5a927b	-0.8537976
68	0x3f10ae20	0.56515694
69	0xbd7b3e61	-0.061338786
70	0xbf6319d7	-0.88711303
71	0xbf4b3cc8	-0.7938962
72	0xbee9da0d	-0.45674172
73	0xbec592c8	-0.38588548
74	0xbf254a2d	-0.6456631
75	0xbefe5329	-0.4967282
76	0x3edfed93	0.43735942
77	0x3ec92c9f	0.39291856
78	0xbf0ea3af	-0.5571851
79	0xbf478d1e	-0.779497
80	0xbe33882d	-0.17532416
81	0xbed8f123	-0.42371473
82	0x3ee4e34c	0.44704664
83	0x3e80b4be	0.25137895
84	0x3eea60a0	0.45776844
85	0xbed26006	-0.41088885
86	0x3f5ef325	0.8708976
87	0x3f2ab765	0.6668609
88	0x3aa77fcc	0.0012779175
89	0x3ea36bc2	0.3191815
90	0x3e670228	0.22559416
91	0xbe92cc64	-0.28671563
92	0xbeb36ee3	-0.35045537
93	0x3e9a97a1	0.3019381
94	0xbed20dbe	-0.4102611
95	0x3d2d0ead	0.042250324
96	0x3d6957fa	0.056968667
97	0x3d054fa8	0.03254667
98	0x3e77d22c	0.24201268
99	0x3f27fd50	0.656209
100	0xbf1e430e	-0.6182107
101	0xbf01219f	-0.50441927
102	0x3e5b8ab8	0.21439636
103	0x3e4913d1	0.19636466
104	0xbe206444	-0.15663248
105	0x3e8204d3	0.25394306
106	0xbf387684	-0.7205584
107	0xbedcd7e8	-0.43133473
108	0x3ee61631	0.44938806
109	0x3e4ebe7d	0.20189853
110	0x3f809a0c	1.0047011
111	0x3f4514ea	0.7698504
112	0xbdcf7846	-0.10130362
113	0xbc3616a2	-0.0111137945
114	0xbf19e7e0	-0.6011944
115	0xbd48b08f	-0.048996504
116	0x3dd88e55	0.10574023
117	0xbe3273c5	-0.17426975
118	0x3e39b0d7	0.18133865
119	0xbd9f72b1	-0.077855475
120	0xbe0b3091	-0.13592745
121	0x3ef71ff0	0.48266554
122	0x3f3283ae	0.6973218
123	0x3f6829c5	0.90688735
124	0x3bdf4b80	0.00681442
125	0x3d1c7680	0.038198948
126	0xbda43c68	-0.08019334
127	0x3e180eec	0.14849442

fc1.bias f4 [32]
0	0xbd87a1d1	-0.06622661
1	0xbe208264	-0.1567474
2	0x3e0548f9	0.13016118
3	0xbd382006	-0.044952415
4	0x3e575d23	0.21031623
5	0xbd983424	-0.0743182
6	0x3ccf8c09	0.025335329
7	0xbed540bc	-0.4165095
8	0xbd078261	-0.033083323
9	0xbe3bdac9	-0.18345179
10	0xbec1d11f	-0.3785486
11	0x3d7745a0	0.060369134
12	0xbc860a16	-0.016362231
13	0x3e14bfcd	0.14526291
14	0xbd95321e	-0.0728495
15	0x3e8c146a	0.27359325
16	0x3e796e6b	0.24358527
17	0xbc2803d0	-0.010254815
18	0x3ed992d3	0.4249483
19	0xbe3000f7	-0.17187868
20	0xbd821477	-0.063515596
21	0xbe27e58a	-0.16396156
22	0xbee2095c	-0.44147766
23	0xbe85c207	-0.26124594
24	0x3c4abccf	0.012374117
25	0xbde2bd8a	-0.11071308
26	0xbe20699f	-0.15665291
27	0x3cec909b	0.028877547
28	0x3e7c2aae	0.24625656
29	0xbed1a9c1	-0.40949824
30	0x3d8538ee	0.06504999
31	0xbe7c746c	-0.24653786

fc2.weight f4 [2, 32]
0	0xbf0db563	-0.553549
1	0xbd65aaec	-0.056071207
2	0xbe4831c4	-0.19550234
3	0xbec7a2e6	-0.3899147
4	0xbd1d8023	-0.03845228
5	0xbe547677	-0.20748316
6	0xbe6050b5	-0.21905787
7	0x3e3058d8	0.17221391
8	0xbcc97262	-0.024590675
9	0x3db720e4	0.0894182
10	0xbe005442	-0.12532142
11	0xbe350037	-0.17675863
12	0xbeadc884	-0.33942044
13	0xbe6709e3	-0.22562365
14	0xbdbb71f2	-0.09152593
15	0x3edf370f	0.43596694
16	0x3edbc307	0.42922232
17	0x3ec23cd5	0.37937036
18	0x3e0dc65e	0.13845202
19	0x3dadd149	0.084871836
20	0xbde4cab1	-0.11171473
21	0xbec24f7e	-0.37951273
22	0x3c4f528d	0.012653959
23	0x3db48440	0.08814287
24	0xbea47115	-0.32117525
25	0xbcf51f7f	-0.029922245
26	0x3e838b73	0.2569233
27	0xbee51437	-0.44741985
28	0xbd8037a3	-0.06260612
29	0x3cbcb129	0.023033695
30	0xbec64b8e	-0.3872952
31	0xb96a130e	-0.00022323077
32	0x3ebaa263	0.36452016
33	0x3e033ccb	0.1281616
34	0x3eaf354b	0.34220347
35	0x3e6a8f1e	0.22906157
36	0x3e954ca1	0.29160026
37	0x3e5ccf5d	0.21563478
38	0x3ea4f658	0.32219195
39	0x3cfc479e	0.030795868
40	0x3dfe0ac9	0.12404401
41	0xbc1c8d01	-0.009555102
42	0xbe31568d	-0.17318173
43	0xbd75f48c	-0.06004767
44	0x3e3fee62	0.1874328
45	0x3ec529e7	0.3850853
46	0x3e82f213	0.25575313
47	0xbeb7042a	-0.35745364
48	0xbde375d0	-0.11106455
49	0xbdd9460a	-0.10609062
50	0xbe749dfa	-0.23888388
51	0xbe4beb35	-0.19913943
52	0x3dbaf63d	0.091289975
53	0x3ecd80d3	0.40137348
54	0xbd88d621	-0.06681467
55	0xbd095429	-0.033527527
56	0x3dde3ba2	0.10851218
57	0x3e6aa027	0.22912656
58	0xbd45b741	-0.048270468
59	0x3ec94fae	0.39318603
60	0xbde714d5	-0.1128327
61	0x3dc91d1f	0.098200075
62	0x3f0df342	0.55449307
63	0xbe21548a	-0.15754905

fc2.bias f4 [2]
0	0x3c8d23d1	0.017228993
1	0xbe85fcf8	-0.26169562
