PG/Policy_Based/REINFORCE/model_save/Discrete_REINFORCE_CartPole-v0_Score_180.1.pt (torch, 2644 bytes, 4 tensors)

fc1.weight f4 [32, 4]
0	0xbd77a4b1	-0.060459796
1	0xbf09c7d9	-0.5382057
2	0xbf5e06f0	-0.86729336
3	0xbe827959	-0.25483206
4	0xbeeb99f1	-0.46015885
5	0xbea9f65e	-0.33195776
6	0xbf21d63d	-0.63217527
7	0xbf2f8454	-0.6856129
8	0x3d5eec13	0.054424357
9	0xbefd4eb3	-0.49474105
10	0xbf2f82e7	-0.68559116
11	0xbf21d12f	-0.63209814
12	0xbd01fe37	-0.03173658
13	0x3e6218fc	0.22079843
14	0xbe66d1f9	-0.22541036
15	0xbf2e6d0f	-0.6813516
16	0x3cb339f4	0.02187822
17	0xbd9a6e76	-0.075406
18	0x3ec7d02a	0.39026004
19	0xbe66709b	-0.22503893
20	0xbe61d58a	-0.22054115
21	0xbe49cb5e	-0.19706485
22	0x3ee3504f	0.44397208
23	0xbe1d7695	-0.15377267
24	0x3e81ffba	0.25390416
25	0x3ddc4a9d	0.10756419
26	0xbf418aa8	-0.756022
27	0xbee918d0	-0.45526743
28	0xbec44dca	-0.38340598
29	0xbefadb32	-0.48995358
30	0x3e8b64ab	0.2722524
31	0x3f1ad22f	0.60476965
32	0xbe3272d3	-0.17426614
33	0x3efc0516	0.4922263
34	0x3e9f5aae	0.3112387
35	0x3b758293	0.0037461862
36	0x3e1c6d07	0.15275966
37	0xbd6a7566	-0.057240866
38	0xbe1374d4	-0.14400035
39	0x3e06061b	0.13088267
40	0x3e12ee8b	0.1434881
41	0xbeb82f8a	-0.3597377
42	0xbebbb85f	-0.366641
43	0xbecd1d68	-0.40061498
44	0xbdad2217	-0.08453768
45	0xbe52372b	-0.20528857
46	0x3f4b0b77	0.7931437
47	0x3f56ffa0	0.839838
48	0x3e2c48c3	0.16824631
49	0x3ef4ac94	0.47787917
50	0xbebfef58	-0.37487292
51	0xbc5706f6	-0.013124218
52	0x3e549da8	0.20763266
53	0x3e2be7ab	0.16787593
54	0x3f690d08	0.9103551
55	0x3f01c5de	0.50692546
56	0x3eb290cd	0.348761
57	0xbe39755a	-0.18111172
58	0x3ebba664	0.36650383
59	0x3f1a9132	0.603778
60	0x3e41e0ca	0.18933406
61	0x3da884f1	0.082284816
62	0xbe7e222f	-0.24817728
63	0x3e4d8b58	0.20072687
64	0x3c8c5ce0	0.01713413
65	0xbe8e16f7	-0.27751896
66	0xbf5a3336	-0.8523439
67	0xbeccb904	-0.39984906
68	0xbda413ab	-0.08011564
69	0xbe75168d	-0.23934384
70	0xbd9408c2	-0.07228233
71	0xbd633820	-0.055473447
72	0xbea2d086	-0.31799716
73	0xbe65660d	-0.2240221
74	0xbd9a44d7	-0.075326614
75	0xbeb5a895	-0.3548018
76	0xbd87777d	-0.066145875
77	0xbe755505	-0.23958214
78	0xbf732f52	-0.9499408
79	0xbe3362fa	-0.17518225
80	0x3f10d5ee	0.5657643
81	0x3f7c4321	0.9853993
82	0x3f85918f	1.0435046
83	0x3eebc5be	0.46049303
84	0xbf45ec72	-0.7731391
85	0x3d11deb9	0.035612796
86	0xbf65da03	-0.89785784
87	0xbefa5207	-0.48890707
88	0x3e75a6ba	0.23989382
89	0x3de712b7	0.112828664
90	0x3f1bf340	0.60918045
91	0x3f0f4413	0.5596325
92	0x3ef5d949	0.48017338
93	0xbeb2814f	-0.3486428
94	0x3f728d4a	0.9474684
95	0x3f5f7ee3	0.8730299
96	0x3d4e96fa	0.05043695
97	0xbae1bada	-0.0017221824
98	0x3f6e8c40	0.93182755
99	0x3f17e03d	0.59326535
100	0xbeaacdc4	-0.33360112
101	0x3c51676d	0.012781006
102	0xbf5173f4	-0.81817555
103	0xbf1d905e	-0.6154841
104	0x3f125695	0.57163364
105	0x3e4986ee	0.19680378
106	0x3eea8729	0.45806244
107	0x3f0f5ebc	0.5600393
108	0x3d4b9a3c	0.049707636
109	0xbe1e34fe	-0.15449902
110	0xbf0cbf4c	-0.54979396
111	0xbeece3ef	-0.4626765
112	0x3e6abdd0	0.2292397
113	0x3e9892fb	0.29799637
114	0x3f76a371	0.9634314
115	0x3ece4a1b	0.40290913
116	0x3eef6e44	0.46763813
117	0xbea1019c	-0.3144654
118	0x3edefb5d	0.4355115
119	0x3f07b6a7	0.5301308
120	0x3e0e21bc	0.13880056
121	0x3d043421	0.032276276
122	0xbf4a56ec	-0.7903888
123	0xbecd11d3	-0.4005266
124	0x3e561f39	0.20910348
125	0x3f2b4831	0.6690703
126	0x3e378efd	0.1792564
127	0x3ecb46e5	0.39702526

fc1.bias f4 [32]
0	0x3e063ddf	0.1310954
1	0x3ede3dc8	0.4340651
2	0x3eabbe34	0.3354355
3	0x3d5655c1	0.052327875
4	0x3dfb315f	0.12265276
5	0xbdf5a2b7	-0.11993926
6	0xbe8b3d1e	-0.27195066
7	0xbd9edaed	-0.077566005
8	0x3d8a2c7e	0.067467675
9	0xbedd7d88	-0.43259835
10	0x3dc610d6	0.0967118
11	0x3c348af6	0.011019459
12	0xbec022bd	-0.37526503
13	0x3e7b6efb	0.24554054
14	0x3ea15e63	0.31517324
15	0xbdf9cc7e	-0.12197207
16	0x3ec02fda	0.37536508
17	0xbeb8f43a	-0.3612383
18	0xbf0ddacd	-0.5541199
19	0x3da62790	0.08113015
20	0x3d98706e	0.07443319
21	0x3eccd465	0.40005794
22	0x3e8c1b2f	0.2736449
23	0xbe0b9df9	-0.1363448
24	0x3daec1ba	0.08533044
25	0x3e9424ca	0.28934318
26	0x3e794530	0.24342799
27	0x3de45f9b	0.11151048
28	0x3e976892	0.29571968
29	0xbdd98b86	-0.10622315
30	0xbe2d77fd	-0.16940303
31	0x3def7a75	0.11693279

fc2.weight f4 [2, 32]
0	0x3eed72fb	0.46376786
1	0x3e6063b8	0.2191304
2	0x3eb34d81	0.35020068
3	0x3d7ef770	0.062247694
4	0x3d4e41c1	0.050355677
5	0x3cbba1f5	0.022904376
6	0x3d988f5c	0.07449219
7	0xbe3c2580	-0.1837368
8	0xbd8cbbf2	-0.06871785
9	0x3db53baa	0.08849271
10	0x3e715a6f	0.23569654
11	0xbe9e678d	-0.30938378
12	0x3e65f7d4	0.2245782
13	0xbeda0dea	-0.4258874
14	0xbe8494c8	-0.2589476
15	0xbc086ea4	-0.00832716
16	0x3e0d1b6f	0.13779996
17	0xbe4bedab	-0.19914882
18	0xbc779815	-0.015111943
19	0x3ea53e67	0.32274172
20	0xbf11275c	-0.5670068
21	0x3e2a1af4	0.16611844
22	0xbe43f5d4	-0.19136745
23	0xbf0f4f85	-0.5598071
24	0xbe62e5b6	-0.2215794
25	0x3e808736	0.25103158
26	0xbed1f7eb	-0.4100946
27	0x3ddb8491	0.107186444
28	0xbe22c1e9	-0.15894283
29	0xbebbebd0	-0.36703348
30	0x3e3a1aac	0.18174237
31	0xbed46249	-0.41481236
32	0xbeeeb49e	-0.46622175
33	0xbed6cc20	-0.4195261
34	0xbed3fb8b	-0.4140285
35	0xbe70c838	-0.23513877
36	0x3d8a6018	0.0675661
37	0x3e1c3099	0.15252914
38	0xbda8ac89	-0.082360335
39	0x3eb57e5b	0.35447964
40	0x3ead6387	0.33864996
41	0x3d79b060	0.06095922
42	0xbdfc308a	-0.123139456
43	0x3ec30995	0.38093248
44	0x3ba0832e	0.0048984503
45	0x3e67cb51	0.22636153
46	0x3dab6db2	0.08370532
47	0x3da4b90b	0.08043107
48	0xbe1507c5	-0.14553745
49	0x3e75d4f8	0.24007022
50	0x3c60247a	0.013680572
51	0xbe5494a0	-0.20759821
52	0x3f1f884a	0.62317336
53	0xbe0c3ebd	-0.13695808
54	0x3e82197f	0.25410077
55	0x3e99dc01	0.30050662
56	0x3ef82c7b	0.48471436
57	0xbe8b32a8	-0.27187085
58	0x3ed75e42	0.420641
59	0xbe9a4639	-0.301317
60	0x3e31fa39	0.17380609
61	0x3eeae26e	0.45875877
62	0xbebf0bb2	-0.3731361
63	0x3e82e6d8	0.25566745

fc2.bias f4 [2]
0	0xbdc5c2b9	-0.09656281
1	0xbe302308	-0.17200863
