PG/Policy_Based/REINFORCE/model_save/Discrete_REINFORCE_CartPole-v0_Score_179.6.pt (torch, 2644 bytes, 4 tensors)

fc1.weight f4 [32, 4]
00000000: 51b7 8bbd a84d 01bf 2002 57bf 478d 90be
00000010: 4052 eebe 3f26 9fbe 2e0f 1cbf d32c 33bf
00000020: 847f 4c3d e394 f2be 5400 2abf 4c93 25bf
00000030: 68b7 20bd 7177 6c3e f696 55be 0ed7 2fbf
00000040: baf3 163d 2412 92bd 931b c83e 09ad 66be
00000050: ffcc 50be 7a95 4fbe 5343 d93e 0539 16be
00000060: 3af9 7d3e cf42 e13d 5a53 3dbf e0c4 e8be
00000070: 065b c3be 84fd 01bf 9b93 833e dec9 1d3f
00000080: 46a6 1fbe 6000 f33e 9fec 8e3e a9a5 813c
00000090: 7c6e 1c3e 886b 6abd 1074 13be b706 063e
000000a0: ab54 133e f9a8 abbe d15d afbe e597 d7be
000000b0: 1b6f a8bd 0046 63be 531d 483f 3a8c 5a3f
000000c0: 5646 173e 593a f43e be4d b5be 8e37 47bc
000000d0: bf1d 593e bb5c 153e f7ca 633f 5993 053f
000000e0: dafe b33e a081 4abe 4162 b43e fead 1c3f
000000f0: b1c8 403e 569e a33d 085f 7ebe 4082 503e
00000100: c985 523c 4cec 82be f72a 54bf 2169 d4be
00000110: ffaf abbd fb0a 7ebe 1482 90bd e612 14bd
00000120: 41e8 a2be 3f82 65be c955 9abd 69c0 b5be
00000130: d1f2 8abd a922 5bbe 059e 6cbf 4d43 48be
00000140: 68f7 123f 48b3 783f 08a7 813f c6a0 ee3e
00000150: 730a 47bf fa10 673d c5fb 5fbf ac13 01bf
00000160: 9606 7a3e 9193 bd3d 7bd7 163f 431a 133f
00000170: e3ff f03e 7603 bebe 3c7d 713f e676 633f
00000180: 1cd4 4d3d b337 a4bc 2727 6c3f 3b69 1b3f
00000190: 0333 adbe 38e9 033d faa0 4bbf 6f76 21bf
000001a0: e732 123f bfab 343e 3c37 e13e 3c40 123f
000001b0: 10f7 403d ce87 0dbe 7845 07bf a7f9 f2be
000001c0: 9665 723e 1766 8d3e 586d 703f c5cf d63e
000001d0: 25d9 ea3e 3f94 adbe 55f9 d73e d9e5 0a3f
000001e0: 09ee 063e 1b7a 0c3d 577e 45bf a2e0 cabe
000001f0: bb58 5a3e 4dbb 263f c3ab 243e db53 d23e
-0.06822074 -0.5050912 -0.8398762 -0.28232786 -0.46547127 -0.31083867 -0.6096066 -0.6999027
0.049926296 -0.47379217 -0.6640675 -0.6467788 -0.03923741 0.23092438 -0.20858368 -0.6868752
0.03685353 -0.07132366 0.39083537 -0.22526945 -0.203907 -0.20271865 0.42434177 -0.14670189
0.24802104 0.10999071 -0.7395531 -0.45462704 -0.38155383 -0.5077746 0.25698552 0.6163615
-0.15590772 0.47461224 0.27914903 0.015826063 0.15276521 -0.057231456 -0.14399743 0.13088499
0.14387767 -0.33527353 -0.34251264 -0.42108074 -0.08224317 -0.22194672 0.78169745 0.8537022
0.14772925 0.47700766 -0.35410875 -0.012159241 0.21202753 0.14586155 0.88981575 0.5217796
0.35155374 -0.1977601 0.35231212 0.6120299 0.18826558 0.079891846 -0.24840939 0.20362186
0.01284928 -0.25570905 -0.8287806 -0.41486457 -0.08383178 -0.24808876 -0.070560604 -0.036150835
-0.3181782 -0.22412966 -0.075358935 -0.3549836 -0.06784595 -0.2139994 -0.9242862 -0.19556923
0.5740876 0.9714856 1.0129099 0.46607035 -0.7775032 0.056412674 -0.87493545 -0.5042064
0.24416575 0.09256662 0.5892255 0.5746195 0.47070226 -0.37112015 0.9433172 0.888533
0.05025111 -0.02004609 0.9224724 0.60707444 -0.3382798 0.032204837 -0.79542506 -0.6307134
0.5710892 0.17643641 0.43987453 0.57129264 0.047110617 -0.13821337 -0.52840376 -0.47456095
0.23671564 0.2761695 0.93916845 0.4195539 0.45868793 -0.33902165 0.42182413 0.5425697
0.1317674 0.034296136 -0.77145904 -0.39624506 0.2132291 0.6512955 0.16081147 0.41079602

fc1.bias f4 [32]
00000000: 1c49 d23d a7fe d93e 312d a73e 5a6b 5e3d
00000010: 959f 083e 6ea5 07be f51c 8cbe 8434 89bd
00000020: 504f 9b3d 2d7d ddbe 1592 b33d c2a2 c33c
00000030: 0d91 c0be 8925 823e 42fe a53e cee7 f8bd
00000040: 600e bc3e 495f b4be e6ca 0dbf 795f 8d3d
00000050: 5a22 9d3d 2ce5 c83e 0c83 903e ad53 eabd
00000060: 391f c43d 8afe 8f3e 4d18 823e 1345 d93d
00000070: e991 9c3e 11b8 b1bd 76b4 33be 730b fa3d
0.10267851 0.42577097 0.32651666 0.054301597 0.13342126 -0.132467 -0.27365842 -0.0669947
0.07583487 -0.43259564 0.08768097 0.02388132 -0.37610665 0.25419262 0.32420546 -0.12153588
0.36729717 -0.35228947 -0.55387723 0.069029756 0.07672568 0.39237344 0.2822498 -0.11441741
0.09576268 0.28123885 0.25409165 0.10608878 0.3058007 -0.08677686 -0.17549309 0.12209215

fc2.weight f4 [2, 32]
00000000: db4d d93e fdde 593e 3a3e ae3e 724e 8d3d
00000010: 670b 4d3d 01bc f03c 10dc 913d 741d 4bbe
00000020: 56dc 70bd ac3d b53d 94ef 653e 102e a5be
00000030: 40c1 623e f31a debe a543 8bbe bf09 e2bb
00000040: 31b6 043e 9b52 4cbe 1fba 6abc 2711 9c3e
00000050: 3680 0ebf 0371 273e 4c23 4ebe 9b6f 12bf
00000060: 2eff 6ebe c00f 803e d8c1 d6be 12fb d73d
00000070: db99 27be 3e55 c3be aa73 353e d943 d2be
00000080: 7e8f dabe c189 d3be 44ec cebe 95b1 77be
00000090: 46fb 8a3d 588d 153e 3df9 a1bd 55fa bc3e
000000a0: 1550 a83e 5aac 793d d35a e5bd 18d0 c93e
000000b0: ceaa 033c 63e5 6f3e 2829 c63d d3cb a13d
000000c0: 87a2 0cbe e839 763e 8446 533c 1f3a 42be
000000d0: 24e1 1c3f cc94 09be 3b30 873e 2e1c a03e
000000e0: 3739 fe3e 32bb 8abe 2f28 dc3e d963 99be
000000f0: 2bd2 363e dc4b f23e 31b8 bcbe 68c8 803e
0.42442212 0.2127647 0.3403185 0.06899728 0.050059702 0.029386522 0.07122052 -0.19835454
-0.05880388 0.088496536 0.22454673 -0.32261705 0.22144032 -0.43379936 -0.27200046 -0.0068981345
0.12960126 -0.19953386 -0.014326601 0.30481836 -0.55664384 0.16351704 -0.20130652 -0.57201546
-0.23339531 0.25012016 -0.41944766 0.10545935 -0.16367285 -0.38150972 0.17719904 -0.4106739
-0.426876 -0.41316035 -0.4041463 -0.24188836 0.06786208 0.146047 -0.079088666 0.36909738
0.32873598 0.060955383 -0.11198964 0.39416575 0.0080363285 0.23427348 0.09675819 0.079002045
-0.13733874 0.24045527 0.01289523 -0.18967484 0.6128104 -0.13435668 0.26403984 0.312715
0.49653026 -0.27095944 0.42999408 -0.2995899 0.1785361 0.473235 -0.36859277 0.25152898

fc2.bias f4 [2]
00000000: 34c5 d4bd cba1 28be
-0.10389176 -0.16467969
