PG/Policy_Based/REINFORCE/model_save/Discrete_REINFORCE_CartPole-v0_Score_154.1.pt (torch, 2643 bytes, 4 tensors)

fc1.weight f4 [32, 4]
0	0xbe4cac2f	-0.19987558
1	0xbde33a84	-0.11095145
2	0xbf34d534	-0.7063782
3	0xbf3c97de	-0.7366923
4	0xbdb34d10	-0.08754933
5	0xbd1c1980	-0.038110256
6	0xbeab4bf0	-0.33456373
7	0xbda0bed0	-0.078488946
8	0x3e19bc64	0.15013272
9	0xbdd8b610	-0.10581601
10	0xbea938c1	-0.33051112
11	0xbe8f4394	-0.27981246
12	0x3e8dcfe8	0.27697682
13	0xbe5d789c	-0.2162804
14	0xbd676037	-0.056488242
15	0x3d57dc2f	0.052700218
16	0x3c4ce056	0.012504658
17	0x3e18ace7	0.14909707
18	0xbf192c99	-0.59833676
19	0xbee667c7	-0.4500105
20	0xbe09b85b	-0.13449232
21	0xbe323ad2	-0.1740525
22	0x3d970950	0.07374823
23	0x3e91812f	0.28418872
24	0x3ec856cb	0.39128718
25	0x3f69b559	0.9129234
26	0x3f4cfdb7	0.8007464
27	0x3ef1eed6	0.4725253
28	0x3e8c08fc	0.27350605
29	0x3ecf4f4d	0.4049019
30	0xbee8e97d	-0.45490637
31	0x3e2fd70b	0.17171876
32	0x3d5d693e	0.054055445
33	0x3e83b84f	0.25726554
34	0xbbf51a66	-0.0074799536
35	0x3e00a2dd	0.12562127
36	0xbe9133a4	-0.2835971
37	0xbe53e84e	-0.20694086
38	0xbe7289ec	-0.23685426
39	0x3d97b757	0.07408016
40	0x3dab16df	0.08353972
41	0xbe691a1e	-0.22763869
42	0x3eb92ad8	0.361655
43	0x3ee9516e	0.45569938
44	0x3e37019a	0.17871705
45	0x3ae74c92	0.0017646721
46	0xbe7797c5	-0.24178989
47	0xbf1bdf03	-0.60887164
48	0xbc5e7d82	-0.013579728
49	0x3f05f1d7	0.52322143
50	0x3e169779	0.1470622
51	0x3e47dd5a	0.19518033
52	0x3d73ce2a	0.059522785
53	0x3e8b8544	0.2725011
54	0xbee17c5c	-0.4404019
55	0xbf4ccd83	-0.80001086
56	0x3e2f5727	0.1712309
57	0xbd5077da	-0.05089555
58	0x3f077d2b	0.52925366
59	0x3ec1207b	0.37720093
60	0xbe44a776	-0.19204506
61	0x3eeb558b	0.45963702
62	0x3f5e3f95	0.8681577
63	0x3f19619a	0.59914553
64	0x3eb3fa7a	0.35152036
65	0x3c4e319d	0.012585071
66	0xbf3a9b6b	-0.728934
67	0xbe8f7607	-0.28019735
68	0xbe1bf558	-0.1523031
69	0x3e1f3cae	0.15550491
70	0x3e9ad1ce	0.30238193
71	0x3ed55ede	0.4167394
72	0x3d07fe2e	0.03320139
73	0x3c4e9803	0.012609485
74	0x3f0525b6	0.5201067
75	0xbdfb2305	-0.12262539
76	0x3ea0f060	0.31433392
77	0xbe96eb40	-0.29476357
78	0xbea22915	-0.31671968
79	0xbe18624b	-0.14881246
80	0xbe898264	-0.26857293
81	0x3e9f9da7	0.31174967
82	0xbebf3e1e	-0.3735208
83	0xbe68439c	-0.22682041
84	0xbe8ed876	-0.27899522
85	0xbeb0279b	-0.34405217
86	0x3e06d7fb	0.13168328
87	0x3f11cfe6	0.5695785
88	0xbea1c31b	-0.31594166
89	0x3edea296	0.43483418
90	0x3f0577ea	0.521361
91	0x3ef31c82	0.47482687
92	0xbed09d38	-0.40744948
93	0x3ecd7813	0.40130672
94	0xbf08e68d	-0.5347679
95	0xbf2be979	-0.67153126
96	0x3ed3dd08	0.4137957
97	0x3e929ac0	0.2863369
98	0x3e6e52bb	0.23273747
99	0x3f27f02c	0.6560085
100	0x3e70b168	0.23505175
101	0xbec45cbb	-0.38351998
102	0xbe9cefc1	-0.30651668
103	0xbe033c22	-0.12815908
104	0x3e259672	0.16170672
105	0xbe52dd1d	-0.2059216
106	0xbf5a57c2	-0.8529016
107	0xbee499d3	-0.4464861
108	0xbe87a551	-0.26493314
109	0xbf038313	-0.5137188
110	0x3df87c7e	0.1213312
111	0xbf2d57eb	-0.6771228
112	0x3e83264e	0.25615162
113	0x3e268c73	0.16264515
114	0x3f0d67d5	0.5523656
115	0xbde0fe7c	-0.10986039
116	0xbe6fe48c	-0.23427027
117	0x3e01fc09	0.126938
118	0xbdbba3c2	-0.09162094
119	0x3f1d4fba	0.6144978
120	0xbd52c1f8	-0.051454514
121	0x3eef6152	0.46753937
122	0x3f70e692	0.9410182
123	0x3ed2b677	0.41154835
124	0xbe131b6e	-0.14365932
125	0x3dbe5130	0.09292829
126	0x3efcfaea	0.49410182
127	0x3ecac592	0.3960386

fc1.bias f4 [32]
0	0x3e38edd6	0.18059477
1	0xbe9e6d04	-0.30942547
2	0x3f0a3a91	0.53995615
3	0xbf0a70f6	-0.54078615
4	0x3ea13f38	0.31493545
5	0xbf23e3a1	-0.6401921
6	0x3c711efe	0.014716862
7	0xbf097a6e	-0.5370244
8	0xbeb63d43	-0.35593614
9	0xbc57be7d	-0.013167975
10	0xbeb23fba	-0.34814245
11	0x3d6d1b3c	0.0578873
12	0xbc190921	-0.009340555
13	0xbd1e7a00	-0.038690567
14	0xbe8d10c5	-0.27551857
15	0x3e66c70a	0.22536865
16	0x3ed66d1a	0.41880113
17	0x3e29f986	0.16599092
18	0xbec6afee	-0.388061
19	0xbf0c7448	-0.5486493
20	0x3d5cdb06	0.053919815
21	0xbe7c6bde	-0.24650523
22	0x3e01db5c	0.12681335
23	0x3da516d0	0.08060992
24	0x3ebef8ee	0.37299293
25	0x3e93f43a	0.28897268
26	0x3ea658fd	0.32489768
27	0x3e46c288	0.19410145
28	0x3eaf9ef3	0.34300956
29	0xbdf4e8ae	-0.11958443
30	0x3db07820	0.08616662
31	0x3e819573	0.25309333

fc2.weight f4 [2, 32]
0	0x3eee79e5	0.46577373
1	0x3d910ef6	0.07082932
2	0x3de96edc	0.11398098
3	0xbd6ce83c	-0.057838663
4	0x3d39ed2d	0.045392204
5	0xbe1d20eb	-0.15344588
6	0xbea1fd91	-0.31638768
7	0x3d8c4f15	0.06851021
8	0x3df7af51	0.12093986
9	0xbdd110ee	-0.10208307
10	0xbe1cb0e7	-0.15301858
11	0x3e96ee94	0.29478896
12	0xbe2f38c0	-0.17111492
13	0x3dfe7f22	0.124265924
14	0xbe054829	-0.13015808
15	0xbec0bb3f	-0.37642857
16	0x3e00d204	0.12580115
17	0xbea83a99	-0.32857206
18	0x3e04448d	0.12916775
19	0xbc37f0c1	-0.011226834
20	0xbd413a35	-0.04717465
21	0xbe0f21de	-0.13977763
22	0xbe081c8e	-0.13292143
23	0x3e6744a0	0.22584772
24	0xbe917111	-0.28406575
25	0x3e5efc39	0.21775903
26	0x3eabb262	0.33534533
27	0x3ee1c170	0.44092894
28	0x3caf0fc1	0.021369817
29	0xbe3b0805	-0.18264778
30	0xbeeca8d9	-0.4622257
31	0xbd0a0bb0	-0.033702552
32	0xbeb25c3c	-0.34835994
33	0xbc942e99	-0.018088626
34	0xbe50dee5	-0.20397528
35	0x3d5a0cc8	0.053234845
36	0xbeaab36a	-0.33340007
37	0xbe04fe5c	-0.12987655
38	0x3ebc94a0	0.36832142
39	0xbd66ae0a	-0.05631832
40	0x3ce02362	0.027360622
41	0xbe127550	-0.14302564
42	0x3e10bb64	0.14133984
43	0xbe962b94	-0.29330122
44	0x3e5663cd	0.20936508
45	0xbea12185	-0.31470886
46	0xbc803cb3	-0.015653944
47	0x3edfdbcc	0.4372238
48	0xbe71479c	-0.23562473
49	0x3e7fab75	0.2496775
50	0x3d73f32b	0.059558075
51	0x3ba8862e	0.0051429486
52	0xbe125615	-0.1429065
53	0x3cf4ebc5	0.02989758
54	0x3ed54300	0.4165268
55	0xbe8f4b40	-0.279871
56	0x3e2db9f6	0.1696547
57	0xbd0fd51a	-0.03511534
58	0xbe95b22a	-0.2923749
59	0xbeaeec34	-0.34164584
60	0x3cff5594	0.031168737
61	0x3e7ac2c6	0.24488363
62	0x3ea3d40b	0.31997713
63	0x3d0eac3c	0.034832224

fc2.bias f4 [2]
0	0xbcebd0a7	-0.028786017
1	0xbe2e15c5	-0.17000492
