PG/Policy_Based/REINFORCE/model_save/Discrete_REINFORCE_CartPole-v0_Score_189.9.pt (torch, 2643 bytes, 4 tensors)

fc1.weight f4 [32, 4]
00000000: dc88 f6be 8f8d e03c 7417 8b3f 9db0 d43e
00000010: b0a3 e2bc ab09 05be 090b c53b 0bc8 573e
00000020: 25b1 1d3e 1096 813e 029e 5b3f 488b 1c3f
00000030: 73d8 a5be 71ff 043e e233 de3e 3d5d d13e
00000040: 8d03 cabe c486 6cbd cc29 1b3f f1c7 393f
00000050: d9cb fbbd ba03 1d3f 99b1 1a3f f395 453f
00000060: f4e4 cf3d 09d3 07be 9d72 083f 88e5 dc3e
00000070: 9288 aebd 7e95 b13d ff5e bbbd a06b b4be
00000080: 34b1 253e c760 1fbd 0615 a43e cdf2 583e
00000090: a0f0 b8be 5723 96be 22f2 233e d1bd 8fbe
000000a0: 4c2d 97be 9d6f a63d 7db0 86be 41bb a43c
000000b0: 1644 383e 2912 5cbe b619 853d a633 8d3e
000000c0: 8028 d7bd 1613 f8bd 68ce 6b3f 80dc 303f
000000d0: c1e2 493e 36df cd3e a7de 9a3f f800 203f
000000e0: 8f29 9f3e 1026 67be 1623 8d3e b5fa 9f3e
000000f0: b279 193b 2774 85be e122 6abf 9f60 19bf
00000100: d912 923e 68ed 45be 51ae 70be fc06 7bbf
00000110: c1be 163f 6cf7 e03d c993 4cbf 3898 70bf
00000120: 5a14 af3b ed3b b8be 3ca6 71bf dd83 04bf
00000130: 1d0a e93e 297f fe3e 1b1b 0dbf 9541 67bf
00000140: 04ac 2cbe aeb8 84be dd77 d33e e804 ac3d
00000150: c55e 0e3f 2e33 40be e85e 663f e402 033f
00000160: 6708 2dbb 2978 d23e 2c7d 963e 9bc4 e5be
00000170: b59e c7be 062f 813e 4c97 e0be 80e7 9e3d
00000180: fad3 313e bbfa 453e 6036 ad3e 0db2 133f
00000190: 32ad 05bf d5aa b8be f1d0 473e 9554 a93d
000001a0: 546a c8bd a280 ce3e 5ee4 1dbf 0af9 09bf
000001b0: 35ac df3e 3bf8 623e 6b38 a13f 2d2e 4b3f
000001c0: e348 67bd 0989 013d 3445 56bf 72df 2dbe
000001d0: ed86 d83d 7777 32be 89b4 393e 197a 9fbd
000001e0: 169b aabd 2dfb 043f 1219 6c3f c72d 663f
000001f0: 804b df3b 8076 1c3d 683c a4bd ec0e 183e
-0.4815129 0.02741125 1.0866532 0.41540995 -0.027665943 -0.1299197 0.0060132784 0.21072404
0.15399607 0.253098 0.85787976 0.61150026 -0.323917 0.12988068 0.43398958 0.40891448
-0.39455834 -0.05774571 0.6061065 0.7257071 -0.1229474 0.6133381 0.6042724 0.7718193
0.10151091 -0.13264097 0.53299886 0.43143868 -0.085221425 0.086710915 -0.091489784 -0.3523836
0.16180879 -0.038910653 0.3204729 0.21186371 -0.36121082 -0.29323837 0.16010335 -0.28074506
-0.29526746 0.08126757 -0.26306525 0.02010882 0.17994723 -0.21491303 0.064990446 0.27578467
-0.10505772 -0.12113015 0.92111826 0.69086456 0.19715406 0.4020936 1.2099198 0.6250148
0.31086394 -0.22573113 0.2756583 0.31245962 0.0023418483 -0.2606518 -0.9145947 -0.5991306
0.28530005 -0.19328845 -0.23503996 -0.9805753 0.5888482 0.10984692 -0.79913 -0.9398227
0.0053430023 -0.3598322 -0.9439428 -0.5176371 0.45515528 0.4970639 -0.55119485 -0.90334445
-0.16862494 -0.2592215 0.41302386 0.08399373 0.55613357 -0.18769524 0.89988565 0.51176286
-0.0026402713 0.411073 0.29392374 -0.4487656 -0.3898827 0.2523119 -0.4386543 0.07758999
0.17366019 0.19333927 0.33830547 0.5769356 -0.522174 -0.36067834 0.19513299 0.08268086
-0.097859055 0.40332514 -0.61676586 -0.5389563 0.4368607 0.22165005 1.2595342 0.79367334
-0.056465995 0.031624828 -0.83699346 -0.16979769 0.1057261 -0.17428385 0.18135275 -0.0778696
-0.083303615 0.51945764 0.92225754 0.899136 0.00681442 0.038198948 -0.08019334 0.14849442

fc1.bias f4 [32]
00000000: 36e1 7abe fb76 afbe b671 103e 9260 61be
00000010: 6b2c 353e ceb3 f73d 5d45 6abd 5a74 cebe
00000020: 7915 23be 73a1 65be ac26 d5be b319 82bd
00000030: 97a9 9dbd 67a1 1b3e 9dc5 71be 1575 813e
00000040: b16d 443e 65b9 213d 3711 d93e c1aa 08be
00000050: e246 62be da02 afbe 3052 d4be 9a55 99be
00000060: 90e2 e4bd b7ab 69be a907 f6bd de3d 053d
00000070: e8be f53d 9aab d1be 4101 003e 6c74 7cbe
-0.24499974 -0.34270462 0.14105877 -0.22009495 0.17692725 0.12094842 -0.057195056 -0.40323144
-0.1592616 -0.22424869 -0.41631067 -0.06352558 -0.07698362 0.15198289 -0.2361054 0.2528464
0.19182469 0.039483447 0.42395946 -0.13346387 -0.22097352 -0.34181863 -0.41468954 -0.2994812
-0.11176026 -0.2281941 -0.1201318 0.032529704 0.11999303 -0.40951234 0.12500478 -0.24653786

fc2.weight f4 [2, 32]
00000000: 1b44 d4be 9c46 103d cf37 4bbe 68a6 89be
00000010: be27 01bd b2c3 6dbe 4926 c6bd 0883 353e
00000020: d2f8 3a3d 1714 293e d13d 3dbd 9d8d 9fbd
00000030: bdb8 6dbe 2220 7ebe 1d79 913c ae3d d73e
00000040: f939 d13e 0053 e83e d3fd cf3d 963e 3f3e
00000050: 7a24 20bc beab a4be 76ff 173e 6b20 c43d
00000060: b866 7dbe 48c8 e33d 2b5e ce3e d78f f4be
00000070: 2c72 98bd 7793 bc3c 5e84 d2be 0e13 6ab9
00000080: 72f7 663e 9801 173d 52b8 b03e 3a2c dd3d
00000090: 93c1 913e 971c 763e 1caf 4c3e 2bf6 d23c
000000a0: 8b63 5c3d e798 aebd ac2d 81be 8eb6 22be
000000b0: 282c a43d 03b5 d03e 09fc 153e c30a afbe
000000c0: 9051 b9bd 67cf 38be 7ad6 4ebe 9120 9abe
000000d0: 2b7f 2ebc 13dd af3e 6075 4fbe 8e8c 28bd
000000e0: 6189 0e3d 2730 b43d 4113 47be 52cb d83e
000000f0: 4cda cebd 8724 c93d ad0f 143f 8a54 21be
-0.4145821 0.03522359 -0.19845508 -0.2688477 -0.03153204 -0.23219183 -0.09675271 0.17725766
0.04564745 0.1651157 -0.04620153 -0.077906825 -0.23215003 -0.24816945 0.017757947 0.42039245
0.40864542 0.45375824 0.10155835 0.18676218 -0.009774322 -0.3216228 0.14843544 0.09576496
-0.24746215 0.11122185 0.4030622 -0.4776599 -0.074436516 0.023019535 -0.41116613 -0.00022323077
0.2255533 0.036866754 0.34515625 0.10799451 0.28467998 0.24034344 0.19988674 0.025752148
0.05380587 -0.085252576 -0.25230157 -0.15889952 0.08016235 0.407631 0.14646925 -0.34187898
-0.0904876 -0.18047868 -0.20199004 -0.3010297 -0.010650436 0.34348354 -0.20259619 -0.04114967
0.034798983 0.08798247 -0.19440939 0.4234262 -0.101002306 0.0982142 0.5783642 -0.15754905

fc2.bias f4 [2]
00000000: 5277 69bb 90af 76be
-0.00356241 -0.2409041
