PG/Policy_Based/REINFORCE/model_save/Discrete_REINFORCE_CartPole-v0_Score_174.4.pt (torch, 2643 bytes, 4 tensors)

fc1.weight f4 [32, 4]
0	0xbf0725cd	-0.52792054
1	0xbe61afe6	-0.22039756
2	0x3f743a88	0.9540181
3	0x3f09d363	0.53838176
4	0xbdaeab74	-0.08528796
5	0xbe95d8c1	-0.29266933
6	0x3cd04112	0.025421653
7	0x3ebf8ff5	0.37414518
8	0x3e35b524	0.17744881
9	0x3e8e49b8	0.27790618
10	0x3f2cb6a2	0.67466176
11	0x3f0f87b2	0.5606643
12	0xbeba067e	-0.36333078
13	0xbd89293a	-0.066973165
14	0x3eb1ea4b	0.34749064
15	0x3f04f715	0.5193952
16	0xbe637df7	-0.2221602
17	0xbcefab38	-0.029256448
18	0x3ee56738	0.44805312
19	0x3f40c89e	0.7530612
20	0xbd4751b3	-0.0486619
21	0x3f3404bd	0.7031973
22	0x3eb6b318	0.35683513
23	0x3f02f388	0.5115285
24	0x3d9623b7	0.07331031
25	0xbe790929	-0.243199
26	0x3ed5652d	0.41678753
27	0x3ef50c4f	0.47860953
28	0xbddb2cc8	-0.10701901
29	0x3d87151d	0.06595824
30	0xbdcd87bf	-0.10035657
31	0xbeac6b3c	-0.33675563
32	0x3e0e9ef7	0.13927828
33	0xbdbed727	-0.09318381
34	0x3ea7038a	0.32619888
35	0x3e94074f	0.28911826
36	0xbed9f85d	-0.425723
37	0xbeb2bcbe	-0.34909624
38	0x3e504e96	0.20342478
39	0xbe468814	-0.19387847
40	0xbea2d9d2	-0.3180681
41	0x3d7ab554	0.061208084
42	0xbe90309c	-0.28162086
43	0x3bd7e6c2	0.006588788
44	0x3e34fc1a	0.17674294
45	0xbe89769f	-0.26848313
46	0x3dab86c5	0.083753146
47	0x3eb50d24	0.35361588
48	0xbe3315f1	-0.17488839
49	0xbea28be7	-0.31747362
50	0x3f40806f	0.75195974
51	0x3f3c75d3	0.73617285
52	0x3e623d4a	0.22093692
53	0x3ede2eee	0.4339518
54	0x3f80ab44	1.0052266
55	0x3f1067c3	0.5640833
56	0x3e4bf5c2	0.19917968
57	0xbebaa53d	-0.36454192
58	0x3e9bc2e8	0.3042214
59	0x3ed5c600	0.41752625
60	0x3d387f67	0.045043375
61	0xbe77674f	-0.24160503
62	0xbf419fa4	-0.7563422
63	0xbf131fa9	-0.57470185
64	0x3e3fec85	0.18742569
65	0xbe9d9b6f	-0.3078265
66	0xbd874408	-0.06604773
67	0xbf5a6408	-0.85308886
68	0x3f11a697	0.5689482
69	0xbd5b1f0a	-0.053496398
70	0xbf70dfcd	-0.9409149
71	0xbf574d28	-0.84102106
72	0xbede6a89	-0.43440655
73	0xbece34e7	-0.40274736
74	0xbf328499	-0.6973358
75	0xbf0050a8	-0.5012307
76	0x3ee1d546	0.44108027
77	0x3eca9dca	0.39573509
78	0xbf1b237e	-0.6060103
79	0xbf51289d	-0.81702596
80	0xbe3d90da	-0.18512288
81	0xbec16c5f	-0.37777993
82	0x3ee15f96	0.4401824
83	0x3e5539d8	0.20822847
84	0x3ee9ab21	0.45638373
85	0xbebaa6c8	-0.3645537
86	0x3f613cc4	0.87983346
87	0x3f23e435	0.6402009
88	0x3c15026e	0.009094818
89	0x3ea952d4	0.33071005
90	0x3e607829	0.21920837
91	0xbea02739	-0.31279925
92	0xbebb7d99	-0.3661926
93	0x3e90bd57	0.28269455
94	0xbed7cfee	-0.42150825
95	0x3d620b9b	0.05518685
96	0x3da2566f	0.07926642
97	0x3d9724c2	0.07380058
98	0x3e7ec3b7	0.24879347
99	0x3f213fc9	0.62987953
100	0xbf13ea2e	-0.57779205
101	0xbef30318	-0.47463298
102	0x3e5cf449	0.21577562
103	0x3e414f4f	0.1887791
104	0xbe21bf48	-0.15795624
105	0x3e8900f6	0.26758546
106	0xbf3c3a71	-0.73526675
107	0xbef29f2c	-0.47387064
108	0x3eebc255	0.460467
109	0x3e7bce21	0.2459035
110	0x3f85e790	1.0461292
111	0x3f3bc02a	0.73340094
112	0xbdea0802	-0.114273086
113	0xbca6b5a7	-0.02035029
114	0xbf1e4a62	-0.6183225
115	0xbd6d07e8	-0.057868868
116	0x3dd88a88	0.10573298
117	0xbe3275ab	-0.174277
118	0x3e39b2bd	0.1813459
119	0xbd9f767e	-0.077862725
120	0xbdf83a46	-0.1212049
121	0x3f027998	0.5096679
122	0x3f3b217c	0.7309797
123	0x3f62fda3	0.8866827
124	0x3bdf4b80	0.00681442
125	0x3d1c7680	0.038198948
126	0xbda43c68	-0.08019334
127	0x3e180eec	0.14849442

fc1.bias f4 [32]
0	0xbe0421d8	-0.12903535
1	0xbe476191	-0.19470812
2	0x3db7f878	0.089829385
3	0xbde372c9	-0.11105878
4	0x3e2923fd	0.16517635
5	0xbd933f2b	-0.07189783
6	0xbcc1d454	-0.023660816
7	0xbed46e62	-0.41490465
8	0xbdae385a	-0.08506842
9	0xbe382788	-0.1798383
10	0xbecbb746	-0.39788264
11	0x3c57fd06	0.013182884
12	0xbd8dfcfb	-0.06933018
13	0x3dcbe593	0.09955897
14	0xbe02e3a5	-0.12782152
15	0x3ea35f4d	0.31908646
16	0x3e974aa0	0.29549122
17	0x3c86cb82	0.016454462
18	0x3ef4c95c	0.47809875
19	0xbe276292	-0.16346195
20	0xbdfe5c83	-0.12419989
21	0xbe5a7f33	-0.21337585
22	0xbed917b9	-0.4240091
23	0xbe8d62be	-0.27614397
24	0xbd37ab1a	-0.04484091
25	0xbe12d90a	-0.14340606
26	0xbe118940	-0.14212513
27	0x3a861a7e	0.0010231284
28	0x3e80ce56	0.25157422
29	0xbed1aab5	-0.40950552
30	0x3cd1b1af	0.025597421
31	0xbe7c746c	-0.24653786

fc2.weight f4 [2, 32]
0	0xbf046392	-0.5171443
1	0xbd6d6328	-0.05795589
2	0xbe366eef	-0.17815755
3	0xbeb6b7f6	-0.35687226
4	0x3a1e551a	0.0006039903
5	0xbe657b90	-0.22410417
6	0xbe3615d2	-0.17781761
7	0x3e31dd82	0.17369655
8	0xbb2a0207	-0.002594115
9	0x3e03ddb8	0.12877548
10	0xbdadb210	-0.08481228
11	0xbe0fd9a5	-0.14047869
12	0xbe9aa7fa	-0.3020628
13	0xbe5f41c3	-0.2180243
14	0xbd80b2fc	-0.062841386
15	0x3efa74ef	0.48917338
16	0x3ef10d2d	0.47080365
17	0x3ed5b740	0.4174137
18	0x3e4244fa	0.18971625
19	0x3ddba198	0.10724181
20	0xbdb535b4	-0.08848134
21	0xbeb9ed77	-0.36313984
22	0x3c685aef	0.0141818365
23	0x3dbb106f	0.09133994
24	0xbe96c17a	-0.29444486
25	0xbba756b3	-0.005106771
26	0x3e956059	0.2917507
27	0xbee2c445	-0.44290367
28	0xbcfa33c8	-0.03054227
29	0x3cbca1f4	0.023026444
30	0xbec27438	-0.37979293
31	0xb96a130e	-0.00022323077
32	0x3ea7fec1	0.3281155
33	0x3e052ad9	0.13004626
34	0x3ea653e1	0.3248587
35	0x3e48b93e	0.19601914
36	0x3e814d72	0.252544
37	0x3e6dd476	0.23225579
38	0x3e8fd8e6	0.28095168
39	0x3cf02253	0.029313242
40	0x3dd0fe41	0.10204745
41	0xbd485857	-0.048912372
42	0xbe5ad1c7	-0.21369086
43	0xbdc5476a	-0.09632762
44	0x3e19ad4f	0.15007518
45	0x3ec145d7	0.37748596
46	0x3e6884ad	0.22706862
47	0xbed2420a	-0.4106601
48	0xbe1c4f31	-0.15264584
49	0xbe1397da	-0.14413396
50	0xbe948e4b	-0.2901481
51	0xbe62d35d	-0.22150941
52	0x3d8b6140	0.06805658
53	0x3ec51ecc	0.3850006
54	0xbd8bf72e	-0.06834255
55	0xbd166c87	-0.036724593
56	0x3da77d37	0.0817818
57	0x3e5136ed	0.20431109
58	0xbdaa2f39	-0.08309788
59	0x3ec6ffbc	0.38866985
60	0xbe145fc3	-0.14489655
61	0x3dc920ec	0.098207325
62	0x3f0c0797	0.5469908
63	0xbe21548a	-0.15754905

fc2.bias f4 [2]
0	0x3d677486	0.05650761
1	0xbe9a194c	-0.30097425
