PG/Policy_Based/REINFORCE/model_save/Discrete_REINFORCE_CartPole-v0_Score_196.6.pt (torch, 2643 bytes, 4 tensors)

fc1.weight f4 [32, 4]
-0.48260203 0.034774963 1.0927705 0.41215315 -0.027665371 -0.12991865 0.006013194 0.2107229
0.16927457 0.26835102 0.8636679 0.59852546 -0.32481924 0.12746817 0.43578607 0.4119758
-0.38504001 -0.060719408 0.60656637 0.7257084 -0.106918015 0.6259657 0.60932183 0.76196
0.101515934 -0.13094509 0.53373826 0.43022087 -0.08521898 0.08685636 -0.09149974 -0.35266122
0.16175881 -0.03953324 0.31998694 0.21164443 -0.35797882 -0.28907898 0.15787804 -0.28609324
-0.29526728 0.08126772 -0.2630651 0.02010892 0.17949548 -0.21832341 0.06369139 0.2767781
-0.09683482 -0.120814815 0.923098 0.68895245 0.2130121 0.41643998 1.2151953 0.61367685
0.31698298 -0.22304553 0.27482247 0.31371048 -0.013830298 -0.27425978 -0.9195585 -0.5885511
0.27337936 -0.20348404 -0.23988444 -0.9726002 0.5758927 0.097463764 -0.806125 -0.9289822
-0.014649632 -0.37289494 -0.94895405 -0.5112025 0.4431854 0.48267123 -0.5606794 -0.89006513
-0.16861404 -0.25921595 0.41301072 0.08398427 0.5625035 -0.1830872 0.89790857 0.5124756
-0.013514123 0.3982387 0.28714442 -0.43084782 -0.3898829 0.25231168 -0.43865442 0.07759015
0.17919658 0.19699582 0.3422072 0.5745501 -0.52251285 -0.36127222 0.1949069 0.083079
-0.11951851 0.38860703 -0.6215107 -0.5270096 0.449966 0.23261245 1.2644898 0.78422374
-0.06041402 0.027872074 -0.8381633 -0.16615655 0.1057261 -0.17428385 0.18135275 -0.0778696
-0.06550495 0.5346822 0.92723954 0.88626736 0.00681442 0.038198948 -0.08019334 0.14849442
00000000: 9d17 f7be 3170 0e3d e7df 8b3f bd05 d33e
00000010: 7da2 e2bc 6509 05be 540a c53b bec7 573e
00000020: 5056 2d3e 4e65 893e 5719 5d3f f738 193f
00000030: b54e a6be 0487 023e 5a1f df3e 7eee d23e
00000040: f723 c5be eab4 78bd ef47 1b3f 07c8 393f
00000050: d5f7 dabd 4a3f 203f 84fc 1b3f d00f 433f
00000060: 96e7 cf3d 7816 06be 12a3 083f e945 dc3e
00000070: 4a87 aebd bfe1 b13d 3764 bbbd 0390 b4be
00000080: 1aa4 253e 9bed 21bd 54d5 a33e 51b9 583e
00000090: 0049 b7be 2902 94be c8aa 213e d07a 92be
000000a0: 462d 97be b16f a63d 78b0 86be 76bb a43c
000000b0: aacd 373e 2c90 5fbe a270 823d dcb5 8d3e
000000c0: 5651 c6bd c26d f7bd 2750 6c3f 305f 303f
000000d0: d81f 5a3e 9f37 d53e 858b 9b3f ed19 1d3f
000000e0: 984b a23e 0c66 64be 88b5 8c3e a99e a03e
000000f0: 7998 62bc c76b 8cbe 3068 6bbf 49ab 16bf
00000100: 61f8 8b3e 1f5e 50be 44a4 75be 54fc 78bf
00000110: b46d 133f 159b c73d 355e 4ebf c7d1 6dbf
00000120: 0305 70bc 16ec bebe a7ee 72bf 2bde 02bf
00000130: 32e9 e23e af20 f73e af88 0fbf 4fdb 63bf
00000140: 29a9 2cbe f4b7 84be 2476 d33e f2ff ab3d
00000150: 3b00 103f 367b 3bbe 56dd 653f 9a31 033f
00000160: 576a 5dbc f1e5 cb3e 9804 933e 1698 dcbe
00000170: bb9e c7be ff2e 813e 5097 e0be 96e7 9e3d
00000180: 4f7f 373e 46b9 493e c835 af3e b715 133f
00000190: 67c3 05bf acf8 b8be ad95 473e 5325 aa3d
000001a0: 1fc6 f4bd 80f7 c63e 531b 1fbf 1aea 06bf
000001b0: f261 e63e f531 6e3e cdda a13f e3c2 483f
000001c0: b174 77bd fa53 e43c df91 56bf f124 2abe
000001d0: ed86 d83d 7777 32be 89b4 393e 197a 9fbd
000001e0: 7627 86bd efe0 083f 925f 6d3f 6be2 623f
000001f0: 804b df3b 8076 1c3d 683c a4bd ec0e 183e

fc1.bias f4 [32]
-0.24660575 -0.34270588 0.13885666 -0.21903615 0.16168119 0.118513815 -0.061811514 -0.40300927
-0.15944362 -0.2271645 -0.4163108 -0.05898988 -0.08071095 0.149293 -0.23540165 0.25733942
0.19237389 0.032985248 0.42622662 -0.14263006 -0.22097532 -0.3419527 -0.43072405 -0.2994814
-0.112589575 -0.22788005 -0.1300111 0.026702758 0.12050932 -0.40951234 0.12406504 -0.24653786
00000000: 3886 7cbe 2577 afbe 7130 0e3e 034b 60be
00000010: c18f 253e 5fb7 f23d 122e 7dbd 3b57 cebe
00000020: 3045 23be d09d 68be b026 d5be 5f9f 71bd
00000030: c84b a5bd 44e0 183e 210d 71be fec1 833e
00000040: a9fd 443e 8a1b 073d 603a da3e 9d0d 12be
00000050: 5b47 62be 6d14 afbe dd87 dcbe a055 99be
00000060: 5d95 e6bd 6359 69be a121 05be bebf da3c
00000070: 97cd f63d 9aab d1be d015 fe3d 6c74 7cbe

fc2.weight f4 [2, 32]
-0.4169055 0.035217423 -0.19953246 -0.27020663 -0.021892484 -0.23720297 -0.096929446 0.17730331
0.044651363 0.16496989 -0.046201248 -0.078367956 -0.23122418 -0.2531981 0.014787339 0.42603612
0.40158397 0.43702394 0.11053681 0.17042023 -0.0103332205 -0.32826874 0.14205852 0.09576499
-0.2505718 0.11221029 0.3871301 -0.4807698 -0.07388331 0.023019535 -0.41295937 -0.00022323077
0.2278767 0.03687292 0.3462336 0.10935343 0.27504042 0.24535458 0.20006348 0.025706498
0.054801956 -0.085106775 -0.25230184 -0.15843838 0.079236485 0.41265965 0.14943984 -0.34752265
-0.08342614 -0.16374438 -0.2109685 -0.28468773 -0.010091538 0.3501295 -0.19621927 -0.041149702
0.037908595 0.08699403 -0.17847733 0.4265361 -0.10155551 0.0982142 0.58015746 -0.15754905
00000000: a374 d5be 2540 103d 3d52 4cbe 8658 8abe
00000010: de57 b3bc 56e5 72be f282 c6bd 008f 353e
00000020: 59e4 363d deed 283e 853d 3dbd 617f a0bd
00000030: 08c6 6cbe 2ea3 81be 9846 723c 6821 da3e
00000040: 6a9c cd3e 9ac1 df3e 1f61 e23d a482 2e3e
00000050: ab4c 29bc d712 a8be ca77 113e 6f20 c43d
00000060: f24a 80be 82ce e53d eb35 c63e 7627 f6be
00000070: 2250 97bd 7793 bc3c 696f d3be 0e13 6ab9
00000080: 8258 693e 0f08 173d 8845 b13e b1f4 df3d
00000090: 19d2 8c3e 3b3e 7b3e 71dd 4c3e 6f96 d23c
000000a0: 0478 603d 764c aebd b52d 81be ac3d 22be
000000b0: bd46 a23d 2048 d33e c206 193e 7dee b1be
000000c0: 53db aabd 9bac 27be 2008 58be 97c2 91be
000000d0: fa56 25bc 2c44 b33e b4ed 48be 978c 28bd
000000e0: 0b46 1b3d ed29 b23d c3c2 36be f162 da3e
000000f0: 56fc cfbd 8724 c93d 3385 143f 8a54 21be

fc2.bias f4 [2]
0.0008583595 -0.24532485
00000000: 8803 613a 7036 7bbe
