PG/Policy_Based/REINFORCE/model_save/Discrete_REINFORCE_CartPole-v0_Score_181.0.pt (torch, 2644 bytes, 4 tensors)

fc1.weight f4 [32, 4]
0.012388227 -0.6275342 -1.0530068 -0.22914176 -0.38136667 -0.34034392 -0.78208584 -0.7481573
0.13215064 -0.50058293 -0.83487785 -0.6953893 0.036726438 0.22641432 -0.3173469 -0.7115468
-0.050677534 -0.09609715 0.40770054 -0.2086815 -0.31219256 -0.20914744 0.6221547 -0.1132064
0.29890156 0.17253923 -0.7988797 -0.52028555 -0.44978073 -0.44607294 0.40078342 0.6093012
-0.29310593 0.46258786 0.49060217 0.06548819 0.15274559 -0.057264697 -0.14400777 0.13087684
0.20716427 -0.36495784 -0.50994235 -0.4645131 -0.12717757 -0.15944046 0.88734466 0.8609555
0.28959128 0.5956355 -0.4570461 -0.15399581 0.13477483 0.20701067 1.0465689 0.52463
0.29350898 -0.13768089 0.47631893 0.6296176 0.15137365 0.12783697 -0.1873749 0.13086942
0.09445727 -0.28289974 -1.0136155 -0.47002125 -0.070707865 -0.21720518 -0.07664104 -0.10439051
-0.31753865 -0.22374979 -0.075244784 -0.35434154 -0.0042189592 -0.29403782 -1.1239094 -0.20379464
0.48268226 0.9444365 1.2067374 0.58527917 -0.70092636 0.030406743 -1.0381492 -0.5513336
0.17409386 0.16421247 0.7397589 0.5557537 0.44938052 -0.29373842 1.0593625 0.87639946
0.025143774 0.06356712 1.0225198 0.6066591 -0.26429054 -0.0055721006 -0.94880307 -0.6424842
0.511967 0.23451714 0.5877592 0.5786951 0.12155579 -0.18920901 -0.6923342 -0.48375618
0.14434509 0.30480742 1.1199077 0.46812326 0.44144315 -0.25957745 0.5353234 0.5396745
0.22014952 0.08463269 -0.8868153 -0.44727492 0.13435268 0.6453842 0.3357445 0.47551438
00000000: fdf7 4a3c 15a6 20bf edc8 86bf 23a4 6abe
00000010: 7e42 c3be 8f41 aebe c736 48bf 3d87 3fbf
00000020: 7f52 073e 3426 00bf 8eba 55bf 0805 32bf
00000030: 766e 163d 28d9 673e 4b7b a2be ee27 36bf
00000040: 3f93 4fbd 95ce c4bd 20be d03e 9ab0 55be
00000050: b4d7 9fbe bf2a 56be 8845 1f3f c2d8 e7bd
00000060: a009 993e 20ae 303e 6183 4cbf 6f31 05bf
00000070: a949 e6be ac63 e4be 7c33 cd3e 2afb 1b3f
00000080: fb11 96be 51d8 ec3e 3530 fb3e ac1e 863d
00000090: 5769 1c3e 638e 6abd c676 13be 9404 063e
000000a0: df22 543e c1db babe 958b 02bf a9d4 edbe
000000b0: d63a 02be 5c44 23be 0529 633f 9467 5c3f
000000c0: 4f45 943e 917b 183f f201 eabe 14b1 1dbe
000000d0: 6a02 0a3e 9bfa 533e f8f5 853f 274e 063f
000000e0: cf46 963e 38fc 0cbe 13e0 f33e 9e2e 213f
000000f0: b201 1b3e b2e7 023e 35df 3fbe a202 063e
00000100: d072 c13d 3cd8 90be 27be 81bf a0a6 f0be
00000110: 49cf 90bd 096b 5ebe faf5 9cbd b1ca d5bd
00000120: 6d94 a2be aa1e 65be f019 9abd 416c b5be
00000130: 323f 8abb 208c 96be 43dc 8fbf 8baf 50be
00000140: 2122 f73e 97c6 713f 5f76 9a3f dbd4 153f
00000150: e96f 33bf 9017 f93c 13e2 84bf 3324 0dbf
00000160: a945 323e 5027 283e d760 3d3f e045 0e3f
00000170: 3415 e63e e264 96be 3199 873f b75b 603f
00000180: 51fa cd3c 7a2f 823d eee1 823f 034e 1b3f
00000190: 1751 87be 2b96 b6bb c2e4 72bf d879 24bf
000001a0: 4510 033f 4325 703e 6377 163f 5d25 143f
000001b0: 3ef2 f83d 02c0 41be d03c 31bf e4ae f7be
000001c0: 33cf 133e b80f 9c3e 2359 8f3f daad ef3e
000001d0: d604 e23e 56e7 84be f40a 093f 1c28 0a3f
000001e0: e06e 613e e753 ad3d 5406 63bf 3801 e5be
000001f0: c093 093e e637 253f b4e6 ab3e 9f76 f33e

fc1.bias f4 [32]
0.1580377 0.43988505 0.3422263 0.056815952 0.07708072 0.028722418 -0.2609742 -0.10279299
0.056645546 -0.4326052 0.110274486 0.019222543 -0.26725242 0.24415445 0.29819986 -0.17199942
0.37630326 -0.38389304 -0.554734 0.07271262 0.10395264 0.40198058 0.2755104 -0.19199188
0.096317485 0.30611104 0.23849055 0.12898539 0.28041887 -0.15084636 -0.1455945 0.12358743
00000000: a3d4 213e 9d38 e13e 4938 af3e d8b7 683d
00000010: 7fdc 9d3d 474b eb3c 699e 85be 2285 d2bd
00000020: 2905 683d 6e7e ddbe 97d7 e13d 9878 9d3c
00000030: 4fd5 88be a003 7a3e a7ad 983e 9e20 30be
00000040: d2aa c03e a18d c4be 0c03 0ebf 5bea 943d
00000050: 1fe5 d43d 66d0 cd3e b30f 8d3e 8599 44be
00000060: 1a42 c53d 96ba 9c3e de36 743e bf14 043e
00000070: 1093 8f3e 7877 1abe b916 15be 681b fd3d

fc2.weight f4 [2, 32]
0.54519826 0.24103673 0.39060447 0.0898929 0.057703648 -0.033130083 0.18717185 -0.18824302
-0.050311748 0.088483 0.30769816 -0.32724294 0.37178403 -0.44469452 -0.25062075 0.03490974
0.16632386 -0.19817406 -0.017100114 0.38915578 -0.5743298 0.1773746 -0.20033094 -0.56203514
-0.24465883 0.27660194 -0.40771654 0.1634618 -0.17302096 -0.34732792 0.2786457 -0.41883713
-0.5476522 -0.44143245 -0.45443228 -0.262784 0.060218118 0.20856363 -0.19503999 0.35898587
0.32024387 0.060968935 -0.19514106 0.39879164 -0.14230742 0.24516861 0.07537846 0.037194174
-0.17406134 0.23909546 0.01566874 -0.27401224 0.6304963 -0.14821424 0.26306427 0.3027347
0.5077938 -0.2974412 0.41826296 -0.3575924 0.18788421 0.4390532 -0.47003937 0.25969222
00000000: 1d92 0b3f 55d2 763e 4ffd c73e c519 b83d
00000010: a95a 6c3d 69b3 07bd faa9 3f3e c7c2 40be
00000020: b113 4ebd 9336 b53d 9d8a 9d3e 638c a7be
00000030: 7a5a be3e 00af e3be 5d51 80be 84fd 0e3d
00000040: cd50 2a3e 24ee 4abe 8a15 8cbc 6d3f c73e
00000050: 4707 13bf b0a1 353e 8e23 4dbe 89e1 0fbf
00000060: d887 7abe c59e 8d3e 39c0 d0be 8862 273e
00000070: 682c 31be f7d4 b1be a6aa 8e3e d271 d6be
00000080: ef32 0cbf 6f03 e2be 59ab e8be a08b 86be
00000090: 46a7 763d b491 553e 90b8 47be ffcc b73e
000000a0: 01f7 a33e 90ba 793d 0fd3 47be 6b2e cc3e
000000b0: 09b9 11be 7b0d 7b3e 0660 9a3d eb58 183d
000000c0: 233d 32be 71d5 743e bb5b 803c 554b 8cbe
000000d0: 3568 213f 79c5 17be 5cb0 863e 0b00 9b3e
000000e0: c6fe 013f 374a 98be 9026 d63e 5a16 b7be
000000f0: b864 403e 95cb e03e 00a9 f0be 61f6 843e

fc2.bias f4 [2]
-0.08961875 -0.17895272
00000000: 098a b7bd 623f 37be
