PG/Policy_Based/REINFORCE/model_save/Discrete_REINFORCE_CartPole-v0_Score_135.2.pt (torch, 2643 bytes, 4 tensors)

fc1.weight f4 [32, 4]
000000 e6 e2 54 be e3 0f e2 bd ae 3a 33 bf 48 5a 3b bf
       -0.2078968 -0.110381864 -0.70011413 -0.73184633
000010 10 4d b3 bd 80 19 1c bd f0 4b ab be d0 be a0 bd
       -0.08754933 -0.038110256 -0.33456373 -0.078488946
000020 e6 15 17 3e 03 e4 d2 bd 6a 21 a3 be e2 fc 8b be
       0.14754447 -0.10297396 -0.3186143 -0.27341372
000030 98 59 8d 3e 84 91 5d be 74 ed 67 bd e4 da 57 3d
       0.27607417 -0.21637541 -0.056622937 0.052698985
000040 c2 e9 f1 3b 3f 52 1d 3e a4 c4 16 bf 27 87 e4 be
       0.0073826024 0.15363406 -0.588938 -0.44634363
000050 e7 e8 09 be 78 7c 32 be c0 7e 96 3d e9 99 91 3e
       -0.13467751 -0.17430294 0.073483944 0.28437737
000060 e4 a1 cc 3e 3d bd 68 3f e5 ee 48 3f 41 4b ee 3e
       0.39967263 0.90913755 0.78489524 0.4654179
000070 8d 41 85 3e 65 88 cb 3e e1 84 e5 be 12 e6 3c 3e
       0.26026574 0.39752498 -0.4482794 0.1844714
000080 f6 81 5d 3d 23 f4 83 3e d6 fa ef bb 52 29 fd 3d
       0.05407902 0.257722 -0.007323603 0.12361397
000090 1a 6f 90 be de 99 55 be 0d 1a 71 be 30 48 9c 3d
       -0.28209764 -0.20859477 -0.23545094 0.07630956
0000a0 70 36 ac 3d e8 5e 6a be bd 5b b7 3e ac b7 e9 3e
       0.08408821 -0.22887766 0.35812178 0.45647943
0000b0 71 22 31 3e 37 56 33 3b ea 4b 72 be df 95 1a bf
       0.17298295 0.002736462 -0.23661771 -0.60384935
0000c0 10 85 a5 bc 17 23 05 3f 53 4e 0b 3e 79 12 3e 3e
       -0.02020505 0.5200667 0.13604097 0.18561734
0000d0 fa 0e 64 3d ab d1 8c 3e cb 22 de be 78 7c 4b bf
       0.055678345 0.27503714 -0.4338592 -0.794868
0000e0 f0 70 2f 3e 41 2d 5d bd aa 6d 06 3f 94 78 c2 3e
       0.17132926 -0.053998236 0.52511084 0.3798262
0000f0 e3 e9 44 be 27 bf e9 3e 69 f4 5b 3f ac 0f 18 3f
       -0.19229846 0.4565365 0.85919815 0.59398913
000100 9b e8 b2 3e 77 17 84 3c bd 9f 37 bf 90 c9 8c be
       0.3494309 0.01612447 -0.71728116 -0.2749753
000110 2b 10 23 be 75 e2 18 3e dd 33 97 3e 66 64 d4 3e
       -0.15924136 0.14930137 0.29531756 0.41482848
000120 3c fe 07 3d 41 98 4e 3c b5 25 05 3f 0d 23 fb bd
       0.03320144 0.012609542 0.5201066 -0.12262545
000130 09 e1 a0 3e f9 04 97 be 3e 48 a2 be 7b 31 18 be
       0.31421688 -0.2949598 -0.3169574 -0.14862625
000140 0e 17 8a be e3 12 a1 3e 40 da bc be e2 25 66 be
       -0.26970714 0.31459722 -0.36885262 -0.22475389
000150 d5 53 8c be 9c f1 af be d2 63 02 3e d3 8a 11 3f
       -0.2740771 -0.3436402 0.12733391 0.56852454
000160 93 0a a4 be 60 98 dc 3e 91 12 03 3f 96 ce f0 3e
       -0.32039317 0.43085003 0.51200205 0.47032613
000170 70 d6 d2 be 0a 91 ce 3e 2a 6b 06 bf f5 a8 2a bf
       -0.41179228 0.4034503 -0.5250727 -0.6666406
000180 a3 e5 d4 3e 0a a5 91 3e a8 0c 65 3e e1 7a 26 3f
       0.4158145 0.28446227 0.22368109 0.6503125
000190 e1 b7 6d 3e 4a e6 c3 be 51 17 97 be 8f 48 f3 bd
       0.23214675 -0.38261634 -0.29509977 -0.11879074
0001a0 9e 20 23 3e 34 73 4f be 84 17 58 bf dd 6f e2 be
       0.15930411 -0.2025879 -0.8441088 -0.4422597
0001b0 26 ec 86 be 9d 37 04 bf 76 aa f8 3d d9 e6 2b bf
       -0.26352042 -0.5164736 0.12141888 -0.6714912
0001c0 46 2f 83 3e 41 63 26 3e 12 b7 0c 3f 7d 72 e5 bd
       0.25622004 0.162488 0.54966843 -0.112034775
0001d0 5f 42 6a be 5c 6a 01 3e 8c 44 ce bd 44 af 1c 3f
       -0.22876881 0.12638229 -0.10071668 0.61204934
0001e0 bd 65 3b bd 67 0a ed 3e 4c 32 6d 3f 8a 9d d0 3e
       -0.045751322 0.46297 0.9265487 0.40745193
0001f0 cd 1e 16 be 04 e8 b7 3d 25 ce f9 3e df b9 c9 3e
       -0.14660187 0.089798 0.48790088 0.3939962

fc1.bias f4 [32]
000000 64 48 2c 3e 04 6d 9e be 15 7e 08 3f eb 6f 0a bf
       0.1682449 -0.30942547 0.53317386 -0.54077023
000010 04 e0 9c 3e 89 d6 23 bf 4a 9b 9f 3c 8e be 0b bf
       0.3063966 -0.6399923 0.019483227 -0.5458764
000020 7e 08 b6 be af e9 51 bc 89 c8 b1 be 11 dd 47 3d
       -0.35553354 -0.012812062 -0.3472331 0.04879481
000030 92 44 02 bb ea 90 36 bd 11 c0 8b be 40 a4 6c 3e
       -0.0019877297 -0.044571795 -0.27294973 0.23109531
000040 2c d8 d2 3e f0 2f 2d 3e ec af c6 be d7 66 0c bf
       0.4118055 0.16912818 -0.38806093 -0.5484442
000050 db 71 51 3d ee 4b 7d be 16 e9 07 3e 74 a3 97 3d
       0.05113397 -0.24735996 0.13272509 0.07404223
000060 c5 e5 c1 3e cd 35 8f 3e 83 0d a2 3e 83 80 3b 3e
       0.37870613 0.27970734 0.31650934 0.18310742
000070 e3 5d b1 3e ac e9 fa bd 62 8c bf 3d 10 6c 83 3e
       0.34641942 -0.122516006 0.09352948 0.25668383

fc2.weight f4 [2, 32]
000000 d2 94 e9 3e f6 0e 91 3d c1 6a da 3d 8c ca 6c bd
       0.45621353 0.07082932 0.10664893 -0.05781035
000010 ee bf 1c 3d 09 41 1d be 88 5c 9d be cd e3 81 3d
       0.038268976 -0.1535684 -0.30734658 0.06342278
000020 1a 51 f8 3d 56 78 cf bd 75 64 1d be e8 c3 93 3e
       0.12124844 -0.10130374 -0.15370353 0.28860402
000030 02 bd 29 be 23 82 f8 3d 7d e8 03 be 7a d9 be be
       -0.16576007 0.121341966 -0.12881656 -0.37275296
000040 b2 89 f1 3d 38 ee a7 be 89 44 04 3e 2d c0 3a bc
       0.117938414 -0.32798934 0.12916769 -0.011398357
000050 eb d2 47 bd 59 eb 0c be 2c ba 03 be bb 64 64 3e
       -0.04878513 -0.13761653 -0.12863988 0.2230405
000060 ec f4 91 be 52 40 57 3e 72 60 a6 3e 9b e3 dc 3e
       -0.28507173 0.2102063 0.32495457 0.431424
000070 6c 4e 8c 3c 69 04 38 be db 54 e8 be be 21 0d bd
       0.017127238 -0.17970432 -0.4537724 -0.034456007
000080 29 77 ad be 99 2e 94 bc d8 5c 49 be 18 ef 59 3d
       -0.33879974 -0.018088626 -0.19664323 0.053206533
000090 c2 0d a7 be 3e de 04 be 97 f3 b7 3e 7b d7 51 bd
       -0.32627684 -0.12975404 0.35928032 -0.05123089
0000a0 3d 9c dd 3c 9c 41 13 be f2 6e 11 3e e8 00 93 be
       0.02705204 -0.14380497 0.14202479 -0.2871163
0000b0 0f e8 50 3e 45 a2 9f be 13 3a 8b bc 07 fa dd 3e
       0.20401023 -0.3117849 -0.016995465 0.43354818
0000c0 71 3a 69 be b2 12 7f 3e 3c f3 73 3d 06 25 ae 3b
       -0.227762 0.24909475 0.05955814 0.005314472
0000d0 e7 af 10 be 9d 37 e3 3c cf 11 d3 3e 4d db 8d be
       -0.14129601 0.02773648 0.41224524 -0.27706376
0000e0 ab c1 2e 3e f7 ca e1 bc 3a 60 90 be 5f 0e aa be
       0.17066066 -0.027562601 -0.28198415 -0.3321409
0000f0 74 0b 11 3d 2a bf 77 3e 0d 80 9f 3e 4a c2 11 3d
       0.035411313 0.24194017 0.31152382 0.03558568

fc2.bias f4 [2]
000000 36 dd 0c bd 8d 58 28 be
       -0.03439065 -0.1644003
