PG/Policy_Based/REINFORCE/model_save/Discrete_REINFORCE_CartPole-v0_Score_199.6.pt (torch, 2643 bytes, 4 tensors)

fc1.weight f4 [32, 4]
0	0xbf0ec6c0	-0.5577202
1	0x3d99b5a6	0.0750535
2	0x3f9d2ae8	1.2278719
3	0x3edba06e	0.42895836
4	0xbce1ff53	-0.027587568
5	0xbe0498f5	-0.12948973
6	0x3bbeb104	0.0058194418
7	0x3e573818	0.21017492
8	0x3e238e58	0.15972269
9	0x3eb1a030	0.34692526
10	0x3f785f06	0.97019994
11	0x3f14afa0	0.5808048
12	0xbeb6dadc	-0.3571385
13	0x3e20aa53	0.15689974
14	0x3f02ffb3	0.51171416
15	0x3ed3e690	0.41386843
16	0xbeb93388	-0.36172128
17	0xbcc3f8bc	-0.023922317
18	0x3f2c36a8	0.672709
19	0x3f330836	0.69934404
20	0xbde85bd3	-0.11345639
21	0x3f344051	0.7041064
22	0x3f388074	0.72071004
23	0x3f3f802f	0.7480497
24	0x3d1acb30	0.03779143
25	0xbd9f54b0	-0.07779825
26	0x3f17aa47	0.592442
27	0x3ecf2254	0.40455878
28	0xbe3f4a3d	-0.18680663
29	0x3e72cda4	0.23711258
30	0x3e5fa86d	0.21841593
31	0xbf0eaf91	-0.55736643
32	0x3e320af4	0.17386991
33	0xbd2a6b10	-0.04160601
34	0x3ea204e3	0.31644353
35	0x3e52525b	0.20539229
36	0xbeb2c271	-0.34913972
37	0xbe8e2f29	-0.27770355
38	0x3e1b6f61	0.15179206
39	0xbe99f7f2	-0.3007198
40	0xbe972d3a	-0.29526693
41	0x3da66fe3	0.081268094
42	0xbe86b06f	-0.26306483
43	0x3ca4bc04	0.020109184
44	0x3ea76787	0.32696173
45	0xbea148e7	-0.31500933
46	0xbd8b625a	-0.068058684
47	0x3e89d280	0.2691841
48	0xbdff3e7e	-0.12463091
49	0xbd03f393	-0.032214712
50	0x3f835a9d	1.0262028
51	0x3f2a8dc2	0.66622555
52	0x3e493186	0.19647798
53	0x3efa9ec0	0.48949242
54	0x3fab0ee5	1.336392
55	0x3f1dd218	0.616487
56	0x3e729666	0.23690185
57	0xbe827bda	-0.25485116
58	0x3e87c8a9	0.2652028
59	0x3ea0675e	0.31328863
60	0x3b8a24bf	0.0042158063
61	0xbe991186	-0.29896182
62	0xbf7c4090	-0.98536015
63	0xbf1a63e9	-0.603087
64	0x3e8580a4	0.26074708
65	0xbe734c4b	-0.23759572
66	0xbe958bc7	-0.29208204
67	0xbf82c95b	-1.0217699
68	0x3f11e08d	0.5698326
69	0x3d8f4a4b	0.06996592
70	0xbf4e9e03	-0.80709857
71	0xbf7b3981	-0.9813462
72	0x3cd7e631	0.026354881
73	0xbed85346	-0.42251033
74	0xbf8a12a5	-1.078694
75	0xbf1098bc	-0.56483054
76	0x3ee0ec9d	0.43930522
77	0x3edee379	0.43532923
78	0xbf1d0abd	-0.6134451
79	0xbf6fbd22	-0.9364797
80	0xbe2ca51e	-0.16859862
81	0xbe84aa84	-0.25911343
82	0x3ed37982	0.4130364
83	0x3dabf7af	0.08396851
84	0x3f0233f2	0.5086051
85	0xbe0d6be0	-0.13810682
86	0x3f57df41	0.84325033
87	0x3efb6073	0.49097022
88	0xbdcb84b2	-0.09937419
89	0x3ebfee33	0.3748642
90	0x3e915ea1	0.2839251
91	0xbee2aab9	-0.44270876
92	0xbec79ec8	-0.38988328
93	0x3e812eee	0.25231117
94	0xbee09758	-0.43865466
95	0x3d9ee7cf	0.07759058
96	0x3e139afb	0.14414589
97	0x3e716010	0.23571801
98	0x3ed47567	0.4149582
99	0x3f15d3b0	0.58526134
100	0xbf04c937	-0.5186953
101	0xbeb7768a	-0.35832626
102	0x3e4203b0	0.18946719
103	0x3da39626	0.07987623
104	0xbe873208	-0.26405358
105	0x3eab5554	0.33463538
106	0xbf21f9ba	-0.6327168
107	0xbf183eb7	-0.59470695
108	0x3ee00ac1	0.43758205
109	0x3ea0afbe	0.3138408
110	0x3fb2d993	1.3972648
111	0x3f46e038	0.7768588
112	0xbdfbf6a4	-0.12302902
113	0xbd08bfab	-0.033385914
114	0xbf5fcb8f	-0.8741998
115	0xbe3268fa	-0.17422858
116	0x3dd886ed	0.1057261
117	0xbe327777	-0.17428385
118	0x3e39b489	0.18135275
119	0xbd9f7a19	-0.0778696
120	0xbd648f49	-0.05580071
121	0x3f1e2371	0.6177283
122	0x3f860bc5	1.0472342
123	0x3f5ea802	0.8697511
124	0x3bdf4b80	0.00681442
125	0x3d1c7680	0.038198948
126	0xbda43c68	-0.08019334
127	0x3e180eec	0.14849442

fc1.bias f4 [32]
0	0xbe585518	-0.2112621
1	0xbeaf90a0	-0.34290028
2	0x3dcdaca7	0.100426964
3	0xbe550c51	-0.2080548
4	0x3dbcc800	0.092178345
5	0x3d97f775	0.074202456
6	0xbdc53abb	-0.096303426
7	0xbe4f5c3d	-0.2025003
8	0xbe2353e8	-0.15949976
9	0xbe70c840	-0.2351389
10	0xbed526b9	-0.41631106
11	0xbd3e1ff7	-0.046417203
12	0xbdc15e02	-0.09441759
13	0x3dd1c2b0	0.10242212
14	0xbe77a0bf	-0.24182414
15	0x3eb0755b	0.34464535
16	0x3e631994	0.22177726
17	0x3da12a03	0.07869341
18	0x3ef14673	0.4712406
19	0xbe06b8cc	-0.13156432
20	0xbe62229d	-0.22083516
21	0xbebe74bc	-0.37198436
22	0xbee9ae7f	-0.45640942
23	0xbe9955ac	-0.29948175
24	0xbe0b75ce	-0.13619158
25	0xbe6a656c	-0.22890252
26	0xbe140680	-0.14455605
27	0xbcc4b179	-0.024010407
28	0x3e106a10	0.1410296
29	0xbed1ab9a	-0.40951234
30	0x3dc0e27d	0.09418199
31	0xbe7c746c	-0.24653786

fc2.weight f4 [2, 32]
0	0xbeed9be3	-0.46407995
1	0x3d15a920	0.036538243
2	0xbe6716c0	-0.22567272
3	0xbe903c1b	-0.28170857
4	0x3b883ce9	0.0041576517
5	0xbe9c8d09	-0.3057635
6	0xbd8fe69d	-0.07026408
7	0x3e30efcc	0.17278975
8	0x3d9d198d	0.07670889
9	0x3e288557	0.16457115
10	0xbd3d3cb9	-0.046200488
11	0xbcf261d4	-0.029587664
12	0xbe6d7070	-0.23187423
13	0xbe984ad1	-0.2974458
14	0x3da1a611	0.07893003
15	0x3f0d6071	0.5522528
16	0x3ef57565	0.47941127
17	0x3eee412e	0.46534103
18	0x3e6c1c7b	0.2305774
19	0x3e26c502	0.1628609
20	0xbc950523	-0.018190926
21	0xbe662cf8	-0.22478092
22	0x3e0afa9f	0.13572167
23	0x3dc42078	0.095765054
24	0xbe91d88c	-0.28485525
25	0x3dced55f	0.10099291
26	0x3ecc44f0	0.39896345
27	0xbf06a790	-0.5259943
28	0xbca086d3	-0.01959554
29	0x3cbc9377	0.023019535
30	0xbef2a57f	-0.47391888
31	0xb96a130e	-0.00022323077
32	0x3e8cd382	0.27505118
33	0x3d119f14	0.0355521
34	0x3ebea7c9	0.37237385
35	0x3df78312	0.120855466
36	0x3e7ef74d	0.24899025
37	0x3ea0b97c	0.31391513
38	0x3e318f46	0.1733981
39	0x3cf7900f	0.03022006
40	0x3cba5288	0.022744432
41	0xbdad7b69	-0.08470804
42	0xbe812dcc	-0.25230253
43	0xbe543123	-0.20721869
44	0x3da39b8b	0.07988652
45	0x3ee9efc6	0.45690745
46	0x3daeb043	0.08529713
47	0xbef28df6	-0.47373933
48	0xbe251fa0	-0.16125345
49	0xbe44abc6	-0.19206151
50	0xbea97a08	-0.33100915
51	0xbe8de3c7	-0.27712843
52	0xbb12657f	-0.0022338328
53	0x3e7c8f9e	0.2466416
54	0xbe427089	-0.18988241
55	0xbd288cab	-0.041149776
56	0x3d93d96e	0.07219206
57	0x3dc92310	0.09821141
58	0xbe42e0ca	-0.19031063
59	0x3ef18a9a	0.47176057
60	0xbe1f9561	-0.15584327
61	0x3dc92487	0.0982142
62	0x3f24203e	0.641117
63	0xbe21548a	-0.15754905

fc2.bias f4 [2]
0	0x3d67ff58	0.05664
1	0xbe9a2aa2	-0.3011065
