PG/Policy_Based/REINFORCE/model_save/Discrete_REINFORCE_CartPole-v0_Score_166.5.pt (torch, 2644 bytes, 4 tensors)

fc1.weight f4 [32, 4]
0.010470338 -0.43290433 -0.8275687 -0.33702865 -0.3986568 -0.23184612 -0.5434 -0.7323836
0.12044714 -0.39587447 -0.60426086 -0.6822469 -0.018122204 0.29164758 -0.14741741 -0.7248068
0.09866476 -0.020807924 0.43277994 -0.22895283 -0.15198214 -0.19148433 0.40336752 -0.108648576
0.2549189 0.13213193 -0.70414466 -0.46584707 -0.42469656 -0.5390705 0.22555521 0.6154244
-0.17339505 0.38539177 0.17808639 0.06860803 0.1528156 -0.057146136 -0.14397085 0.13090602
0.23557757 -0.2314541 -0.27311733 -0.4958022 -0.13135163 -0.24908718 0.74680656 0.84903926
0.0725901 0.46298912 -0.31474364 0.0006467185 0.14519191 0.07898122 0.83236337 0.54065424
0.29525143 -0.258319 0.30832198 0.624366 0.18418881 0.08107269 -0.25512055 0.18948963
0.08845254 -0.17131694 -0.7580319 -0.44886038 -0.07359899 -0.22684062 -0.06262648 -0.02734269
-0.3198285 -0.22512412 -0.07566201 -0.35662264 0.022976607 -0.12393938 -0.86756337 -0.24345604
0.5067656 0.89190936 0.9267011 0.5040354 -0.7014858 0.1387616 -0.80364734 -0.54047334
0.18080488 0.026104612 0.53546953 0.6005026 0.40430227 -0.40230158 0.9375828 0.8851043
0.0041245823 -0.06682233 0.8751411 0.607583 -0.27414253 0.12425821 -0.72631425 -0.6890602
0.48778078 0.09893406 0.39321148 0.59675044 0.11284895 -0.0569088 -0.4682149 -0.53573453
0.17153403 0.19908905 0.8762014 0.45533705 0.40102085 -0.37797225 0.39413673 0.5368543
0.16448109 0.07287185 -0.7360321 -0.41797563 0.14261997 0.5712132 0.09286507 0.4542091
00000000: c88b 2b3c a3a5 ddbe 8bdb 53bf 058f acbe
00000010: be1c ccbe 1269 6dbe 431c 0bbf 7e7d 3bbf
00000020: fdac f63d 0fb0 cabe d7b0 1abf bca7 2ebf
00000030: 0475 94bc d552 953e 97f4 16be f08c 39bf
00000040: c010 ca3d 6175 aabc 5595 dd3e 9c72 6abe
00000050: 35a1 1bbe 7814 44be 3086 ce3e 2583 debd
00000060: bb84 823e 984d 073e d342 34bf 8283 eebe
00000070: d471 d9be 8600 0abf f2f7 663e 748c 1d3f
00000080: 798e 31be 1252 c53e 475c 363e 5e82 8c3d
00000090: b17b 1c3e 1112 6abd 186d 13be 3a0c 063e
000000a0: 3f3b 713e 4e02 6dbe 09d6 8bbe c9d9 fdbe
000000b0: 0b81 06be b610 7fbe b72e 3f3f a35a 593f
000000c0: 1eaa 943d e90c ed3e 1426 a1be 8b88 293a
000000d0: 30ad 143e e8c0 a13d c415 553f 5168 0a3f
000000e0: 322b 973e 6342 84be 61dc 9d3e 73d6 1f3f
000000f0: fe9b 3c3e 7009 a63d 299f 82be 9209 423e
00000100: 9b26 b53d b56d 2fbe 610e 42bf 07d1 e5be
00000110: 11bb 96bd e848 68be 5042 80bd c7fd dfbc
00000120: 90c0 a3be f086 66be aff4 9abd 3e97 b6be
00000130: 7039 bc3c eed3 fdbd a218 5ebf 8a4c 79be
00000140: 64bb 013f 2c54 643f 493c 6d3f 7708 013f
00000150: 9394 33bf 8517 0e3e d5bb 4dbf 765c 0abf
00000160: ea24 393e 57d9 d53c 8814 093f 8aba 193f
00000170: b500 cf3e 79fa cdbe 6d05 703f 3296 623f
00000180: 8127 873b 25da 88bd 3f09 603f 8f8a 1b3f
00000190: 695c 8cbe 177b fe3d bbef 39bf 4066 30bf
000001a0: 67be f93e f19d ca3d 0453 c93e a3c4 183f
000001b0: 5a1d e73d 3419 69bd ddb9 efbe e625 09bf
000001c0: 9ea6 2f3e 00de 4b3e bc4e 603f f021 e93e
000001d0: 9b52 cd3e 9485 c1be 4acc c93e 496f 093f
000001e0: bb6d 283e d63d 953d 9a6c 3cbf e700 d6be
000001f0: f80a 123e 073b 123f 0b30 be3d 188e e83e

fc1.bias f4 [32]
0.026511684 0.45126623 0.34953332 0.09276653 0.16268939 -0.18123278 -0.2590507 -0.046163913
-0.03334672 -0.432571 0.11030051 0.031925216 -0.38969067 0.23892415 0.31345928 -0.12421904
0.39754966 -0.36672843 -0.5516674 0.0940886 -0.019710047 0.4211737 0.26471642 -0.09143035
0.100820504 0.2935123 0.24005131 0.12027851 0.28416795 -0.05440468 -0.14421496 0.069707446
00000000: 082f d93c 5e0c e73e 08f6 b23e 61fc bd3d
00000010: 0c98 263e 1695 39be 4ba2 84be 5f16 3dbd
00000020: 9296 08bd f279 ddbe 3ce5 e13d 04c4 023d
00000030: 8985 c7be 88a8 743e bc7d a03e 8d66 febd
00000040: a18b cb3e d4c3 bbbe 133a 0dbf 86b1 c03d
00000050: f776 a1bc 14a4 d73e e988 873e d63f bbbd
00000060: fb7a ce3d 3f47 963e 03d0 753e 9454 f63d
00000070: 767e 913e 71d7 5ebd 16ad 13be c7c2 8e3d

fc2.weight f4 [2, 32]
0.36466148 0.2249936 0.34875038 0.12304031 0.07647006 0.033719048 0.07779508 -0.2170351
0.031119589 0.08853131 0.26481852 -0.32598925 0.21424049 -0.4126689 -0.26996964 -0.00067829137
0.1454162 -0.18880561 -0.00720189 0.298682 -0.46865976 0.18312614 -0.1863732 -0.55536336
-0.23202802 0.28201017 -0.39263168 0.15525006 -0.13381042 -0.36743033 0.18978573 -0.33726758
-0.36711538 -0.42538932 -0.4125782 -0.29593137 0.041451715 0.14171445 -0.08566323 0.38777792
0.23881252 0.060920607 -0.15226142 0.39753795 0.01523615 0.21314305 0.09472738 0.0727822
-0.15315369 0.22972701 0.0057705184 -0.18353848 0.52482635 -0.15396577 0.24910653 0.2960628
0.49516293 -0.30284944 0.4031781 -0.34938055 0.14867367 0.45915562 -0.38117945 0.17812268
00000000: e9b4 ba3e b964 663e 698f b23e 8ffc fb3d
00000010: 569c 9c3d fc1c 0a3d 0753 9f3d 733e 5ebe
00000020: 82ee fe3c e74f b53d 4b96 873e 10e8 a6be
00000030: dc61 5b3e 5749 d3be 7639 8abe 5dcf 31ba
00000040: fce7 143e 4256 41be d5fd ebbb d9ec 983e
00000050: 2cf4 efbe 6b85 3b3e 9ed8 3ebe 4b2c 0ebf
00000060: c198 6dbe a363 903e 0507 c9be dff9 1e3e
00000070: 9905 09be d41f bcbe 3157 423e 56ae acbe
00000080: 8cf6 bbbe a1cc d9be 733d d3be 5184 97be
00000090: 46c9 293d 981d 113e 3470 afbd d48a c63e
000000a0: 458b 743e e387 793d 6bea 1bbe 188a cb3e
000000b0: 0ba1 793c 2c42 5a3e 6e00 c23d d60e 953d
000000c0: 52d4 1cbe 8f3d 6b3e 9e16 bd3b 83f1 3bbe
000000d0: 055b 063f 34a9 1dbe c815 7f3e 8b95 973e
000000e0: ff85 fd3e 150f 9bbe 5c6d ce3e 02e2 b2be
000000f0: e93d 183e 7216 eb3e f429 c3be cb65 363e

fc2.bias f4 [2]
-0.0836903 -0.18488121
00000000: d265 abbd 8051 3dbe
