PG/Policy_Based/REINFORCE/model_save/Discrete_REINFORCE_CartPole-v0_Score_89.6.pt (torch, 2643 bytes, 4 tensors)

fc1.weight f4 [32, 4]
00000000: e164 23bf 7332 9fbe cd7c 4d3f 6922 f83e
00000010: e878 81bd 38ae b5be f4dd acbd 403e c43e
00000020: 6785 e53d 6729 063e a7cc b63e 6623 063f
00000030: 54a3 c2be ed57 22be 9354 4d3e 668f fd3e
00000040: 98da b0be 849a 66be 8c3f 313e 596d 2d3f
00000050: 9bf6 dbbd 5b2e 163f b4bd b33d 8dcb de3e
00000060: 5e26 02bc ee53 c4be 84ac 683e 0541 e33e
00000070: aaf2 c5bd a9a3 903d a07d bebd 15c1 abbe
00000080: 6388 d33d 3ce9 7ebe 64ff 3c3e 2814 a73e
00000090: 469b eebe 99c4 b7be 7850 353e c422 72be
000000a0: 7720 cbbe de77 97bb c4f5 b4be 121c 3dbd
000000b0: aa3b 203e 3d46 bfbe c929 61bd cb95 b13e
000000c0: c76b 66be b89e f6be f861 093f 4d03 323f
000000d0: 7337 283e 5706 983e 697e 283f c73d 003f
000000e0: e417 1e3e bf51 efbe d2b8 063e c988 d73e
000000f0: f9e0 da3d 9426 febd a484 e3be c605 dcbe
00000100: 77bc 873e 8e90 35be f917 803e 25b3 2dbf
00000110: 7eca 1e3f 7317 8a3c 5da1 21bf 1c27 2cbf
00000120: 43ce adbe e06d 7abe 026d a7be 7dc0 a1be
00000130: d6a0 f43e b647 eb3e 6419 a7be d300 31bf
00000140: a525 55be 56db f7be 4f1f b13e a0ba 753e
00000150: f3ea e03e 49df eebe 5d52 203f d11b 1e3f
00000160: e1f0 bf3b be8c a13e c985 803e d29c 59be
00000170: 1e95 b5be a36c 923e e63a d6be 7589 7e3d
00000180: 4d68 163c 03c0 debd 36bb eb3a 3aa8 173f
00000190: 8afb 26bf 7d6a 0cbf 138b da3d 2f9f 283e
000001a0: 04b9 f7bd ed7c a83e 89a8 06bf 3f72 a9be
000001b0: 1b0c ce3e 99d4 c63d 17d0 3b3f 5cbb 2d3f
000001c0: 6892 aabc e3f6 963d 5d3c cdbe c2d2 b93d
000001d0: 5192 f03d c471 26be e2ae 2d3e b96e 87bd
000001e0: a41d 48be e965 c53e ec29 e03e 6c25 4e3f
000001f0: 804b df3b 8076 1c3d 683c a4bd ec0e 183e
-0.63825804 -0.31093177 0.80268556 0.48463753 -0.06321889 -0.3548448 -0.08440772 0.38328743
0.11207085 0.13101731 0.35703012 0.52397764 -0.38015234 -0.15853854 0.20051794 0.49523467
-0.34541774 -0.2251988 0.17309397 0.67744976 -0.10740396 0.5866448 0.087764174 0.43514672
-0.007943718 -0.38345283 0.2272206 0.44385543 -0.09665425 0.07062466 -0.09301305 -0.33545747
0.10328748 -0.2489366 0.18456799 0.32632565 -0.4660284 -0.3589218 0.17706478 -0.23646075
-0.39673206 -0.0046224436 -0.35343754 -0.046169348 0.1564776 -0.37358275 -0.05497149 0.34684595
-0.22502051 -0.48167968 0.53665113 0.69536287 0.16427402 0.29692337 0.65817887 0.50094265
0.15438801 -0.46742055 0.13156441 0.42096546 0.106874414 -0.12409702 -0.44437134 -0.42973155
0.26510975 -0.17730924 0.2501829 -0.6785148 0.6202773 0.016856885 -0.63136846 -0.67247176
-0.33946428 -0.24455976 -0.32700354 -0.3159217 0.47778958 0.4595315 -0.3263656 -0.6914188
-0.20815141 -0.48409528 0.345942 0.23996973 0.43929252 -0.46654728 0.62625676 0.61761194
0.0058575724 0.3155269 0.2510207 -0.21251228 -0.3546533 0.28598508 -0.4184181 0.062142808
0.009180141 -0.10876467 0.001798487 0.5924107 -0.6522757 -0.5484999 0.106710576 0.16466974
-0.12095836 0.3290781 -0.52600914 -0.33094975 0.4024361 0.097085185 0.73364395 0.6786401
-0.020821765 0.07371309 -0.40085116 0.09073402 0.11746658 -0.16254336 0.16961244 -0.066129155
-0.19542557 0.38554314 0.43781984 0.8052585 0.00681442 0.038198948 -0.08019334 0.14849442

fc1.bias f4 [32]
00000000: 053e 4fbd e8ca 25be 5eb8 0d3e a539 a2bc
00000010: f669 7d3e acef 91be 84bb 073d dc01 d3be
00000020: 474c b93c 385d 23be 8d96 a7be 2e4b 203e
00000030: 2800 81ba abbd 073e 4cce 4cbd 381f 873e
00000040: 22ee 723e cb8c d4bc 9233 e03e 7423 1abe
00000050: 0759 4c3b cd91 35be 8b60 e6be a0a2 8abe
00000060: e8c0 113d 7095 91bd 7a30 e0bd dfe2 4dbb
00000070: ad8a ba3e c4a8 cbbe 9bf2 773d 6c74 7cbe
-0.050596256 -0.16190684 0.13839862 -0.019802878 0.24747452 -0.28503168 0.033137813 -0.41212356
0.02261938 -0.15953529 -0.3273205 0.15653679 -0.0009841966 0.13255946 -0.050001428 0.26391006
0.23723653 -0.025946042 0.43789345 -0.15052587 0.0031180994 -0.177314 -0.4499553 -0.27077198
0.03558436 -0.07108581 -0.10946746 -0.0031415743 0.36433926 -0.39777195 0.0605341 -0.24653786

fc2.weight f4 [2, 32]
00000000: 0b2c fabe d988 85bd ae97 01be 4362 b5be
00000010: 01ee f8bc c5b1 23be ac49 58be e612 2f3e
00000020: fc56 69bc aae8 c03c 3053 43be 4aa6 49be
00000030: 6a97 9cbe 40c3 f6bd 61e2 a7bd f605 af3e
00000040: 5ee3 b13e cbf6 ab3e a3e6 873d ed46 b63d
00000050: 3cb4 e0bd 2ab8 a8be f5b8 dabb 7ddd b23d
00000060: d2f7 94be 9e81 85bd 093b 763e 4549 a9be
00000070: b0f4 8abd 8a60 0e3d ec9a 81be 0e13 6ab9
00000080: a963 993e 7a96 0c3e 3ce8 8b3e d30d 463e
00000090: 7d2b 913e ab0a 2c3e d2f2 a03e 9c3b 033d
000000a0: 11d9 e83d 38aa 663d 3eaf dcbd 4b5c 23bd
000000b0: 2f8c 1d3e c955 8f3e 5e1c 7c3e 11d3 86be
000000c0: a4dc efbc cf2d 80bd ecca 2abe 0626 50be
000000d0: c6df b63d 7fe9 b33e 8680 42bd 9506 06bd
000000e0: 8f56 a03d 825e 873e fd47 02bd bc84 8d3e
000000f0: c757 dcbd 2719 b13d e435 d73e 8a54 21be
-0.48861727 -0.06520242 -0.12655517 -0.3542653 -0.030386927 -0.15985782 -0.21121854 0.17097053
-0.01424193 0.023548443 -0.19074702 -0.1969234 -0.3058427 -0.1204896 -0.08197475 0.34184235
0.3474378 0.33586726 0.06635787 0.08900247 -0.10971877 -0.32953006 -0.0066748806 0.08733652
-0.29095322 -0.06518863 0.24045958 -0.33063713 -0.06784952 0.034760036 -0.2531351 -0.00022323077
0.29958847 0.13729277 0.27325618 0.19341211 0.2835349 0.16800945 0.31435257 0.03203927
0.11369527 0.056314677 -0.10775612 -0.03988294 0.15385507 0.27995136 0.24620196 -0.26332906
-0.029280014 -0.06258737 -0.16678971 -0.20327005 0.089294 0.3513908 -0.04748585 -0.03272112
0.0782901 0.2643929 -0.031806935 0.2764033 -0.1075893 0.086473756 0.42033303 -0.15754905

fc2.bias f4 [2]
00000000: 09ea e63b 66c6 80be
0.007046942 -0.25151366
