PG/Policy_Based/REINFORCE/model_save/Discrete_REINFORCE_CartPole-v0_Score_191.4.pt (torch, 2644 bytes, 4 tensors)

fc1.weight f4 [32, 4]
000000 91 0e f0 3c 5c c8 1a bf cd 3f 8a bf be 94 80 be
       0.02930382 -0.60461974 -1.080072 -0.2511348
000010 d9 d4 bc be bf 79 a9 be c9 57 4e bf 81 95 44 bf
       -0.3688114 -0.33100697 -0.806027 -0.76790625
000020 af 5e 14 3e f2 3b fb be 9f 03 5c bf b9 35 37 bf
       0.14489244 -0.49069172 -0.85943025 -0.7156635
000030 fe 0a 40 3d c5 82 6e 3e 5e ca a7 be 14 ca 39 bf
       0.046885483 0.23292072 -0.3277158 -0.7257397
000040 79 f3 67 bd cb a7 cb bd 17 68 d2 3e 7d 40 51 be
       -0.056628678 -0.09944113 0.4109504 -0.20434757
000050 4b f1 94 be a0 a2 70 be c7 c1 27 3f 7c a2 b6 bd
       -0.29090342 -0.23499537 0.65530056 -0.0891771
000060 85 4e a1 3e 6e 48 48 3e 07 27 4c bf 98 bf 0c bf
       0.31505218 0.1955888 -0.7974705 -0.5497985
000070 b1 d8 eb be b8 8f e5 be f7 80 d9 3e cd 39 1d 3f
       -0.4606376 -0.4483621 0.42481205 0.6141632
000080 59 4a 9f be 0f 88 e7 3e 59 26 05 3f c9 bd b5 3d
       -0.3111141 0.45220992 0.5201164 0.08874089
000090 35 69 1c 3e 46 8f 6a bd d8 76 13 be 86 04 06 3e
       0.15274508 -0.057265542 -0.14400804 0.13087663
0000a0 8c df 60 3e 9e d9 b3 be 1a 2e 07 bf b0 ec f9 be
       0.21960276 -0.35126966 -0.5280472 -0.4881339
0000b0 3e c4 0f be d3 63 27 be 58 bb 69 3f 9f 76 5d 3f
       -0.14039704 -0.16346674 0.9130149 0.86509126
0000c0 d2 c6 9c 3e 93 44 1e 3f a7 41 e2 be e6 80 41 be
       0.30620438 0.61823386 -0.44190714 -0.18896827
0000d0 a4 49 fa 3d d0 f9 4c 3e 22 fa 88 3f e6 92 0a 3f
       0.12221077 0.20017171 1.0701334 0.541304
0000e0 b7 81 90 3e 59 2c 0b be 69 fb ff 3e ea 8e 22 3f
       0.28223965 -0.13591136 0.49996498 0.6349932
0000f0 48 78 18 3e 42 93 05 3e d4 f6 3b be 7a d6 01 3e
       0.14889634 0.13044456 -0.18355876 0.12679473
000100 90 64 dc 3d d8 8b 8b be 52 25 85 bf 23 a0 fb be
       0.10761368 -0.2725513 -1.0402014 -0.49145612
000110 34 20 90 bd 0a 9d 5d be 18 47 9d bd 09 59 d9 bd
       -0.07037392 -0.21641937 -0.07679576 -0.10612685
000120 4b 92 a2 be 21 1c 65 be 6a 18 9a bd 1d 6a b5 be
       -0.31752238 -0.22374012 -0.07524188 -0.3543252
000130 c1 30 18 3c 2a c8 90 be 5a 9c 92 bf 36 fe 61 be
       0.009288968 -0.28277713 -1.1453965 -0.2206963
000140 18 7f ee 3e 72 ad 6f 3f 96 8b 9e 3f c1 d2 1a 3f
       0.4658134 0.9362403 1.2386348 0.60477835
000150 e0 d8 2f bf cb b7 1a 3d 03 e9 87 bf 5a 87 11 bf
       -0.686903 0.037772935 -1.0617985 -0.56847155
000160 eb 85 26 3e 7c 80 23 3e 8a 0b 43 3f dc e9 11 3f
       0.16262023 0.15966982 0.7618948 0.56997466
000170 c5 0d e5 3e db 4b 98 be 10 2f 8a 3f 56 01 62 3f
       0.44737068 -0.29745373 1.0795612 0.8828329
000180 e7 dd b8 3c 11 7a 8c 3d be 43 86 3f 5f ef 1b 3f
       0.022566749 0.0685922 1.0489423 0.60912126
000190 e9 c9 7f be 9a 8c 32 3a aa bd 78 bf 1d 69 28 bf
       -0.24979366 0.00068111124 -0.97164404 -0.6578539
0001a0 97 36 00 3f 87 17 6a 3e 3b 0d 1c 3f 61 08 18 3f
       0.500833 0.22860537 0.6095769 0.59387785
0001b0 6b 7f 0b 3e e1 68 3d be cf bb 36 bf 55 39 fe be
       0.13622825 -0.1849704 -0.71380323 -0.49653116
0001c0 1f 3b 06 3e 05 de 96 3e 11 9d 92 3f f3 95 fa 3e
       0.1310849 0.29466262 1.1454183 0.48942527
0001d0 8a e3 de 3e de 38 86 be cd 05 0e 3f c3 34 0b 3f
       0.43532974 -0.2621526 0.554776 0.54377383
0001e0 81 ab 6d 3e e1 78 ca 3d 8a ac 62 bf 03 3a ef be
       0.23209955 0.09886337 -0.88544524 -0.46723947
0001f0 2f 4b f5 3d 28 a7 22 3f 9a bb bb 3e 80 e1 fd 3e
       0.11977231 0.6353631 0.36666566 0.49586105

fc1.bias f4 [32]
000000 2f 4d 36 3e c9 d0 e4 3e 08 f1 b2 3e 21 5a 8b 3d
       0.1780288 0.4469054 0.34949517 0.068043
000010 7f 9b 96 3d 9b fa 03 3d 34 65 70 be 07 46 c9 bd
       0.07353877 0.032221418 -0.23476106 -0.0982781
000020 25 c9 3e 3d 76 7e dd be 56 4a fe 3d 08 35 a1 3c
       0.046578545 -0.43260545 0.12416522 0.019678608
000030 bc a9 76 be 86 7d 73 3e 0f 4e 97 3e 96 49 33 be
       -0.24088186 0.23778352 0.2955174 -0.1750854
000040 82 76 c4 3e 08 f7 c4 be 7a 04 0e bf c1 50 b2 3d
       0.38371664 -0.3846972 -0.5547558 0.08706809
000050 e8 99 c2 3d 51 d2 d1 3e 32 27 8a 3e d2 f2 3e be
       0.095020115 0.4098077 0.2698303 -0.18647316
000060 ae fe cb 3d e9 57 a1 3e 03 88 6e 3e 9f 9e 12 3e
       0.09960686 0.31512383 0.23294072 0.14318322
000070 67 67 8b 3e ad 1f 1a be c7 53 06 be 0d 0f ed 3d
       0.27227327 -0.15051146 -0.13117896 0.11575136

fc2.weight f4 [2, 32]
000000 c2 31 0e 3f 59 6b 81 3e 02 c8 ce 3e 6f 6f d3 3d
       0.55544674 0.25277212 0.4038697 0.10323989
000010 f7 05 7d 3d 7f 51 03 bd 49 d1 50 3e 41 bc 47 be
       0.061773267 -0.032060143 0.20392336 -0.19505407
000020 8c 04 36 bd 65 36 b5 3d 3b 6d a8 3e 3a 71 ab be
       -0.04443793 0.088482656 0.32895836 -0.33484823
000030 04 47 c9 3e e2 d9 e4 be c2 7f 80 be a1 d0 1a 3d
       0.39311993 -0.4469748 -0.2509747 0.03779662
000040 05 ae 35 3e 12 e5 4a be 8a a9 8c bc 7c 02 ce 3e
       0.17742164 -0.19813946 -0.017170686 0.4023627
000050 7e 74 12 bf 3a 11 41 3e 21 2f 4e be 82 25 11 bf
       -0.57209 0.18854228 -0.20135166 -0.5669786
000060 98 41 81 be 1f 21 95 3e da 69 d0 be ab 49 3c 3e
       -0.25245357 0.29126832 -0.40705758 0.18387477
000070 43 f7 30 be 21 15 b3 be b8 11 98 3e 6c af d4 be
       -0.17281823 -0.34977058 0.29701018 -0.41540086
000080 94 d2 0e bf 9e 05 e8 be 0c 76 ef be 0c 61 8d be
       -0.55790067 -0.45316786 -0.4676975 -0.27613103
000090 f8 fb 65 3d 3a 79 54 3e df df 58 be bd 49 bb 3e
       0.0561485 0.2074937 -0.2117915 0.36579695
0000a0 1d f5 a0 3e ed ba 79 3d 4c 98 5d be 42 13 d0 3e
       0.31437007 0.060969282 -0.21640128 0.40639693
0000b0 1d 92 27 be 3f 63 7d 3e 9c 19 9b 3d ce 85 0c 3d
       -0.16364332 0.2474489 0.07573244 0.034307294
0000c0 5b 9a 3d be 5f cc 74 3e bb ef 80 3c 64 0e 93 be
       -0.18515913 0.23906086 0.015739312 -0.28721917
0000d0 6c d5 20 3f 03 35 23 be 26 36 87 3e fa 87 9d 3e
       0.62825656 -0.15938191 0.264085 0.30767804
0000e0 9c fd 03 3f 91 cc 9f be 31 d0 d5 3e eb 89 c1 be
       0.5155885 -0.3121076 0.417604 -0.37800536
0000f0 93 2f 40 3e bf 0b e2 3e 12 10 fa be fb 33 83 3e
       0.18768148 0.44149587 -0.48840386 0.25625595

fc2.bias f4 [2]
000000 d3 da aa bd fd 96 3d be
       -0.08342519 -0.18514629
