PG/Policy_Based/REINFORCE/model_save/Discrete_REINFORCE_CartPole-v0_Score_145.4.pt (torch, 2644 bytes, 4 tensors)

fc1.weight f4 [32, 4]
-0.042256154 -0.41376102 -0.67763746 -0.24124521 -0.39571312 -0.16175887 -0.40686432 -0.6966651
0.13588573 -0.3268592 -0.47912267 -0.6503535 -0.026296087 0.3421268 -0.05548632 -0.7260859
0.09125551 0.03487059 0.52549595 -0.22147626 -0.14226714 -0.17083326 0.3940738 -0.106256664
0.29808843 0.21706216 -0.5696961 -0.46091184 -0.37960237 -0.5399467 0.12557949 0.5786538
-0.2876922 0.28459683 0.06919474 0.11833664 0.15334247 -0.05625328 -0.14369273 0.13112606
0.21641716 -0.14700598 -0.12343168 -0.5165204 -0.12330733 -0.22163062 0.6897939 0.8136712
0.014758703 0.3985437 -0.35204032 0.06206433 0.10750151 0.0061307615 0.7229165 0.5315528
0.29184088 -0.31394243 0.20670775 0.6023566 0.1891722 0.06837454 -0.28944793 0.17454217
0.09838166 -0.100236796 -0.61915475 -0.4142121 -0.10019881 -0.23183478 -0.055017795 -0.045898236
-0.35061052 -0.25452092 -0.08466588 -0.37279847 0.034142323 -0.033009205 -0.71890146 -0.23460665
0.4366314 0.78035545 0.81954515 0.54007 -0.7038131 0.20747201 -0.65780103 -0.4994095
0.16340378 -0.039046623 0.4209863 0.5833398 0.45728278 -0.3844524 0.8180555 0.8267619
0.010145663 -0.08462928 0.7811377 0.569118 -0.263867 0.2121943 -0.59065646 -0.6895673
0.49470907 0.023202129 0.27975103 0.5934853 0.10631028 0.026604908 -0.35409236 -0.5586657
0.14886561 0.13824013 0.75782585 0.41922954 0.49311984 -0.34866422 0.2525121 0.47037652
0.16449831 0.14781219 -0.6116827 -0.40802184 0.09422161 0.50743985 -0.022425966 0.43339947
00000000: ca14 2dbd 7cd8 d3be a679 2dbf fc08 77be
00000010: e99a cabe 1ea4 25be 8550 d0be a558 32bf
00000020: a125 0b3e 175a a7be 914f f5be 917d 26bf
00000030: e46a d7bc 3e2b af3e a045 63bd c4e0 39bf
00000040: 2be4 ba3d 77d4 0e3d e786 063f acca 62be
00000050: 7aae 11be eaee 2ebe 0bc4 c93e 189d d9bd
00000060: 0c9f 983e 8b45 5e3e 9bd7 11bf a3fc ebbe
00000070: 3e5b c2be f239 0abf e997 003e a822 143f
00000080: 644c 93be adb6 913e f9b5 8d3d 7b5a f23d
00000090: cf05 1d3e d769 66bd 3024 13be e945 063e
000000a0: 769c 5d3e bc88 16be c0c9 fcbd ae3a 04bf
000000b0: 8e88 fcbd 23f3 62be 5596 303f c14c 503f
000000c0: 7dce 713c eb0d cc3e a13e b4be 2b37 7e3d
000000d0: c029 dc3d 8ee4 c83b 0e11 393f d813 083f
000000e0: 2b6c 953e 10bd a0be 32ab 533e 0b34 1a3f
000000f0: 5bb6 413e f307 8c3d 8532 94be 2fbb 323e
00000100: 537c c93d f348 cdbd ed80 1ebf 9c13 d4be
00000110: 0935 cdbd 1966 6dbe 575a 61bd caff 3bbd
00000120: 3983 b3be 9150 82be 4e65 adbd 71df bebe
00000130: d2d8 0b3d a934 07bd ed09 38bf ba3c 70be
00000140: 278e df3e 60c5 473f b6cd 513f 0742 0a3f
00000150: 182d 34bf 8b73 543e a665 28bf 9ab2 ffbe
00000160: 5253 273e 5aef 1fbd 848b d73e c255 153f
00000170: f820 ea3e f2d6 c4be 166c 513f aba6 533f
00000180: ff39 263c 1e52 adbd a4f8 473f b8b1 113f
00000190: 9319 87be 7649 593e 4335 17bf 7c87 30bf
000001a0: 824a fd3e 6412 be3c 873b 8f3e a7ee 173f
000001b0: 34b9 d93d 89f2 d93c 984b b5be b704 0fbf
000001c0: 3a70 183e d28e 0d3e e000 423f 41a5 d63e
000001d0: 347a fc3e 1e84 b2be 4449 813e 31d5 f03e
000001e0: 3f72 283e 145c 173e 3d97 1cbf 3de8 d0be
000001f0: 42f7 c03d 94e7 013f a9b6 b7bc 89e6 dd3e

fc1.bias f4 [32]
-0.048178487 0.44115388 0.33790955 0.080918975 0.18310055 -0.18972176 -0.22960424 -0.07236322
-0.11902466 -0.43231317 0.026786426 0.050150774 -0.43369192 0.24316478 0.32768717 -0.12433247
0.39033818 -0.3184834 -0.5156248 0.063755006 -0.11078493 0.41312414 0.27332595 -0.10177171
0.12612051 0.2630713 0.2372913 0.06096381 0.30170274 -0.080304146 -0.14328411 0.066722095
00000000: ce56 45bd ecde e13e 7b02 ad3e d9b8 a53d
00000010: b67e 3b3e 6c46 42be 601d 6bbe 2b33 94bd
00000020: 33c3 f3bd 2758 ddbe 356f db3c e66a 4d3d
00000030: de0c debe 3000 793e 9dc6 a73e 06a2 febd
00000040: 68da c73e 4210 a3be fdff 03bf fc91 823d
00000050: 36e3 e2bd 0285 d33e 61f1 8b3e b06d d0bd
00000060: bc25 013e 48b1 863e 7efc 723e 30b5 793d
00000070: c878 9a3e 8076 a4bd 12b9 12be 98a5 883d

fc2.weight f4 [2, 32]
0.2728672 0.19245975 0.30427414 0.13953069 0.07735185 0.061848562 0.09173132 -0.19270363
0.1006133 0.088895194 0.21450098 -0.29775643 0.15424398 -0.39881292 -0.28233466 -0.0068620946
0.11664733 -0.13135664 0.015165178 0.21405832 -0.35968757 0.16353233 -0.18166572 -0.49242368
-0.21697362 0.26154992 -0.3841266 0.13973218 -0.11953124 -0.33402395 0.19198278 -0.27906543
-0.2753211 -0.39285547 -0.36810195 -0.31242177 0.040569916 0.11358494 -0.099599466 0.36344653
0.16931878 0.060556717 -0.10194383 0.36930513 0.0752327 0.19928706 0.10709232 0.07896601
-0.12438479 0.17227805 -0.01659655 -0.09891476 0.41585422 -0.13437197 0.24439906 0.2331231
0.48010847 -0.2823892 0.39467302 -0.33386272 0.13439448 0.42574924 -0.3833764 0.11992059
00000000: 40b5 8b3e 2b14 453e d2c9 9b3e 22e1 0e3e
00000010: a66a 9e3d eb54 7d3d a1dd bb3d 1a54 45be
00000020: 590e ce3d af0e b63d 25a6 5b3e 8873 98be
00000030: 22f2 1d3e 3531 ccbe 2b8e 90be 6cdb e0bb
00000040: cce4 ee3d 5b82 06be 5e77 783c 1b32 5b3e
00000050: f828 b8be 0575 273e 9406 3abe f51e fcbe
00000060: 552e 5ebe dfe9 853e 3eac c4be f415 0f3e
00000070: cbcc f4bd 3005 abbe 2297 443e aae1 8ebe
00000080: e3f6 8cbe 5a24 c9be dc77 bcbe bff5 9fbe
00000090: a42c 263d 399f e83d cefa cbbd aa15 ba3e
000000a0: e761 2d3e 520a 783d edc7 d0bd 9015 bd3e
000000b0: 9a13 9a3d e811 4c3e 3853 db3d eeb8 a13d
000000c0: 74bd febd a869 303e 7df5 87bc d293 cabd
000000d0: d8ea d43e ce98 09be bf43 7a3e d2b7 6e3e
000000e0: c7d0 f53e 5195 90be 9512 ca3e 0ef0 aabe
000000f0: b59e 093e cefb d93e e949 c4be ed98 f53d

fc2.bias f4 [2]
-0.09553492 -0.17303653
00000000: d0a7 c3bd 7d30 31be
