PG/Policy_Based/REINFORCE/model_save/Discrete_REINFORCE_CartPole-v0_Score_138.7.pt (torch, 2643 bytes, 4 tensors)

fc1.weight f4 [32, 4]
000000 91 f3 17 bf 30 9b 98 be 9b 92 75 3f c3 7c 11 3f
       -0.5935603 -0.298059 0.9592683 0.56830996
000010 92 bc de bd 62 10 ae be cc 43 78 3b 04 99 c5 3e
       -0.10875811 -0.33996874 0.0037882207 0.38593304
000020 67 f8 16 3e f7 6c 54 3e b1 e9 11 3f 75 96 1a 3f
       0.14743195 0.20744692 0.5699721 0.6038583
000030 6b c5 c2 be 84 8e 01 be 38 6a b3 3e db fd 0f 3f
       -0.38041243 -0.12652022 0.35041976 0.5624673
000040 d0 74 80 be cc 53 e7 bd 3f 00 b3 3e 6e da 41 3f
       -0.2508912 -0.1129528 0.34961125 0.7572392
000050 eb 34 a4 bd 6f 75 25 3f 4b c3 89 3e 94 bd 08 3f
       -0.08017906 0.64632314 0.2690681 0.53414273
000060 fe b5 ee 3c a0 0f ab be f5 90 bb 3e 58 33 02 3f
       0.029139515 -0.33410358 0.3663403 0.50859594
000070 23 72 de bd 53 3c 7c 3d 6d d9 d3 bd c8 ef a9 be
       -0.108616136 0.061580967 -0.10344205 -0.3319075
000080 b6 4f ed 3d 12 2f 47 be aa 8a 95 3e eb bc ac 3e
       0.11587469 -0.1945155 0.29207355 0.33737883
000090 c9 50 e9 be 82 a2 b9 be 20 45 3d 3e 37 81 5a be
       -0.45569447 -0.36256796 0.184834 -0.21338354
0000a0 21 09 c6 be c4 e4 1a 39 2e 01 af be 1c e1 14 bd
       -0.3867884 0.00014771806 -0.34180588 -0.036347494
0000b0 1b c2 2a 3e 39 fb ae be 0b 46 e4 3c db 53 bd 3e
       0.16675608 -0.34176043 0.02786543 0.3697804
0000c0 5c 56 4d be b1 87 d2 be 88 56 36 3f be cf 45 3f
       -0.20052475 -0.4111915 0.71225786 0.77270114
0000d0 0e 53 51 3e 3f 8b c9 3e 5f a5 63 3f c3 a3 0c 3f
       0.20441839 0.3936405 0.8892421 0.5493738
0000e0 f1 5a 27 3e 31 7d e1 be f7 c2 90 3e 09 c8 ed 3e
       0.16343285 -0.44040826 0.28273746 0.46441677
0000f0 0a 00 8a 3d e4 10 43 be 77 77 26 bf 50 81 0d bf
       0.06738289 -0.19049412 -0.6502604 -0.5527544
000100 49 76 5c 3e 3d 8c 7c be 2d 31 5b 3d d9 d3 55 bf
       0.21529497 -0.24662872 0.053513695 -0.8352638
000110 4b 8e 15 3f e5 7d 2e bd 5c d2 52 bf d8 11 40 bf
       0.58420247 -0.04260053 -0.8235223 -0.7502723
000120 58 ff db be 5c 59 b4 be 1d a6 15 bf 56 c6 f1 be
       -0.4296825 -0.35224426 -0.58456594 -0.4722163
000130 28 91 e6 3e 4d df d1 3e 39 2e 01 bf ef 4b 3f bf
       0.4503262 0.40990677 -0.50461155 -0.7472524
000140 77 44 52 be 22 63 e8 be 34 a2 dd 3e 07 07 85 3e
       -0.2053393 -0.45388132 0.43287814 0.25981924
000150 35 5d e2 3e 6b 69 df be b8 90 57 3f 43 1d 2c 3f
       0.44211736 -0.43635115 0.842052 0.6723215
000160 af 78 0b ba 96 8d a2 3e 68 06 74 3e 08 c6 8a be
       -0.00053204125 0.31748646 0.23830569 -0.2710421
000170 ae 9b b3 be 2d 0c 99 3e 38 62 d2 be 59 38 44 3d
       -0.35079712 0.29892102 -0.4109056 0.0479053
000180 72 3d 11 3d ea fc 26 bc 19 fa 47 3e c5 05 29 3f
       0.03545899 -0.010192135 0.19528998 0.6602443
000190 47 a5 2e bf da e8 06 bf 06 36 4e 3e 49 e7 3f 3e
       -0.68220943 -0.52699053 0.20137796 0.18740572
0001a0 71 2d 13 be 91 90 8c 3e d3 28 2c bf d5 ae cd be
       -0.14372803 0.27454045 -0.6724979 -0.4017245
0001b0 87 d5 de 3e db 72 2b 3e bb b0 75 3f 11 a4 46 3f
       0.43522283 0.16743033 0.95972794 0.77594095
0001c0 cd 1e 9c bd 7f be 2d 3c e2 2a 15 bf a6 35 25 bd
       -0.07623062 0.0106045 -0.5826856 -0.040334366
0001d0 c1 97 d8 3d 0f 6f 32 be 21 ac 39 3e 45 69 9f bd
       0.1057582 -0.17425178 0.18132068 -0.077837504
0001e0 ce 76 20 be fb d0 e4 3e be 23 25 3f ce 25 69 3f
       -0.1567032 0.4469069 0.64507663 0.9107331
0001f0 80 4b df 3b 80 76 1c 3d 68 3c a4 bd ec 0e 18 3e
       0.00681442 0.038198948 -0.08019334 0.14849442

fc1.bias f4 [32]
000000 bf a8 f8 bc 68 d1 12 be 07 fe 29 3e 83 63 24 3b
       -0.030353902 -0.14337695 0.1660081 0.0025083728
000010 69 3c 87 3e d7 1b 08 be a7 e8 87 3d 2e f6 d5 be
       0.26413277 -0.1329187 0.06636172 -0.41789383
000020 35 61 f1 3b cb e2 24 be 5f a0 ad be 16 1b d8 3d
       0.0073663243 -0.1610214 -0.33911416 0.10552041
000030 90 83 08 3d 49 f7 41 3e 0b 1b 03 bd 5b f9 6f 3e
       0.033328593 0.18941988 -0.032008212 0.23434965
000040 48 69 4a 3e dd b8 34 bd eb 83 c5 3e 54 52 3c be
       0.19766724 -0.044121612 0.38577208 -0.1839078
000050 a1 4c ce bc 6d 6e 0e be 2e 9c e4 be 7c c7 86 be
       -0.025183024 -0.13909312 -0.44650406 -0.2632407
000060 2d f7 64 3d b0 89 b7 bd a9 3d 1d be 55 f8 52 3d
       0.055899788 -0.08961809 -0.15355553 0.05150636
000070 3a 1a 87 3e 66 a7 d1 be 5c de cf 3d 6c 74 7c be
       0.26387197 -0.40948027 0.101498336 -0.24653786

fc2.weight f4 [2, 32]
000000 15 3a 10 bf 0a 0e 43 bd 34 0b 50 be 98 4b cd be
       -0.56338626 -0.04762081 -0.20316774 -0.40096736
000010 5f b1 86 bd 1a 8c 3a be fb 8c 77 be 46 eb 2e 3e
       -0.065767996 -0.18217507 -0.24174874 0.17081937
000020 60 d5 0c bd 2e f7 d2 3c 9b cc 36 be f3 e1 4d be
       -0.034383178 0.02575263 -0.17851488 -0.20105724
000030 1c e2 b4 be 97 03 63 be d3 e4 d4 bd 2a 8e c2 3e
       -0.35328758 -0.22169338 -0.10395207 0.37999088
000040 58 15 c4 3e 0a b2 b7 3e f4 0a ad 3d 99 13 b2 3d
       0.38297534 0.3587802 0.08449355 0.08695144
000050 a8 af fd bd 12 ab bf be 42 1c 80 3c 29 34 b3 3d
       -0.123870194 -0.37435204 0.015638474 0.08750183
000060 10 13 ab be 21 59 6b bd de f2 7f 3e 11 54 e0 be
       -0.3341298 -0.057458047 0.2499499 -0.43814138
000070 60 41 ba bd d4 d6 bc 3c 64 53 c2 be 0e 13 6a b9
       -0.090945005 0.023051657 -0.37954247 -0.00022323077
000080 c5 ab bf 3e 25 2b f5 3d 02 22 b3 3e 83 e0 75 3e
       0.37435737 0.1197112 0.34986883 0.24011426
000090 f5 48 a3 3e 00 e5 42 3e 7a 94 b0 3e 14 da 03 3d
       0.318916 0.19032669 0.3448828 0.032190397
0000a0 71 0c 09 3e f0 a2 5d 3d 69 bc f5 bd 99 6d 12 bd
       0.13383652 0.054110467 -0.11998827 -0.03574905
0000b0 93 21 4e 3e c2 26 c3 3e cb 4e 89 3e 45 5b 9a be
       0.20129995 0.38115507 0.26817927 -0.30147758
0000c0 15 bf 84 bd dd 1a af bd 16 5d 3d be 5d 0c 4e be
       -0.064817585 -0.08550046 -0.1849254 -0.20121904
0000d0 34 db d3 3d 67 dc ca 3e e1 f2 8e bd fc b3 06 bd
       0.10344544 0.3962128 -0.06979919 -0.03288649
0000e0 8a c3 f8 3d 3f 69 83 3e 24 27 29 bd 88 8f c4 3e
       0.12146671 0.25666234 -0.041297093 0.38390756
0000f0 18 0b ad bd b3 13 c9 3d 2e f7 0b 3f 8a 54 21 be
       -0.084493816 0.098182105 0.5467404 -0.15754905

fc2.bias f4 [2]
000000 e3 dd 96 bc b9 79 67 be
       -0.01841635 -0.22605027
