PG/Policy_Based/REINFORCE/model_save/Discrete_REINFORCE_CartPole-v0_Score_187.5.pt (torch, 2643 bytes, 4 tensors)

fc1.weight f4 [32, 4]
-0.48172674 0.021947881 1.0825306 0.41804653 -0.027666481 -0.1299209 0.0060134553 0.21072526
0.14319004 0.24218124 0.85377884 0.62215704 -0.3249273 0.13097231 0.4342586 0.40858826
-0.3927698 -0.054939535 0.6042664 0.7295088 -0.13389762 0.6037137 0.6006958 0.78116494
0.10301565 -0.13221163 0.53499776 0.43432483 -0.085223526 0.08658564 -0.09148121 -0.35214454
0.16199127 -0.03850101 0.3209329 0.2123365 -0.36399463 -0.29682094 0.16202006 -0.27613857
-0.2952676 0.08126745 -0.26306537 0.020108735 0.18097469 -0.2130591 0.06487607 0.273901
-0.10386364 -0.12247274 0.92044276 0.69416577 0.18642224 0.39197448 1.2062808 0.6339852
0.3079593 -0.22768511 0.27614245 0.31308505 0.013844208 -0.25060531 -0.91048735 -0.60693175
0.2939283 -0.18616627 -0.23159483 -0.98600054 0.5995377 0.11843811 -0.79543173 -0.9478255
0.019533897 -0.35031202 -0.9404905 -0.52326435 0.46570376 0.50708544 -0.54616886 -0.91210216
-0.16863808 -0.25923198 0.41303584 0.084006354 0.551602 -0.1915073 0.9030746 0.5137
0.0054892697 0.41974553 0.29783586 -0.460246 -0.38988256 0.25231206 -0.43865418 0.07758985
0.16923954 0.19082342 0.33742815 0.5805244 -0.52185905 -0.36028126 0.19522683 0.08239325
-0.08465187 0.41312885 -0.6134703 -0.5471246 0.4260421 0.21177283 1.2556382 0.8036821
-0.05357244 0.034275547 -0.8360646 -0.17252403 0.1057261 -0.17428385 0.18135275 -0.0778696
-0.09588556 0.50825924 0.9181785 0.9101527 0.00681442 0.038198948 -0.08019334 0.14849442
00000000: e3a4 f6be 0bcc b33c 5d90 8a3f 320a d63e
00000010: d1a4 e2bc fc09 05be 850c c53b 5dc8 573e
00000020: 69a0 123e 5cfe 773e 4091 5a3f af45 1f3f
00000030: df5c a6be 9b1d 063e 2557 de3e 7b32 d13e
00000040: 2019 c9be 4708 61bd 34b1 1a3f 17c1 3a3f
00000050: 751c 09be fb8c 1a3f 33c7 193f 6dfa 473f
00000060: def9 d23d 7c62 07be 9df5 083f d35f de3e
00000070: ac89 aebd d053 b13d 805a bbbd 4a4c b4be
00000080: 0ae1 253e 3cb3 1dbd 5151 a43e bd6e 593e
00000090: 815d babe eaf8 97be 96e8 253e 0962 8dbe
000000a0: 512d 97be 8c6f a63d 81b0 86be 13bb a43c
000000b0: 6e51 393e 2a2c 5abe bfdd 843d c03c 8c3e
000000c0: 76b6 d4bd fdd2 fabd 23a2 6b3f d9b4 313f
000000d0: 79e5 3e3e e1b0 c83e 6967 9a3f db4c 223f
000000e0: d7ac 9d3e 4926 69be 8b62 8d3e af4c a03e
000000f0: d1d2 623c 574f 80be b315 69bf e15f 1bbf
00000100: c57d 963e 5fa2 3ebe 3227 6dbe 886a 7cbf
00000110: 4d7b 193f ae8f f23d 6aa1 4bbf b1a4 72bf
00000120: 8d05 a03c 195c b3be fcc3 70bf a7f4 05bf
00000130: b970 ee3e 5ad0 013f b9d1 0bbf 877f 69bf
00000140: 76af 2cbe 0eba 84be 6f79 d33e 860b ac3d
00000150: ca35 0d3f 7d1a 44be e62f 673f d881 033f
00000160: 55df b33b e3e8 d63e f17d 983e 5da5 ebbe
00000170: b09e c7be 0c2f 813e 4897 e0be 6de7 9e3d
00000180: 214d 2d3e 3767 433e 62c3 ac3e 3f9d 143f
00000190: 8e98 05bf c976 b8be 8be9 473e cbbd a83d
000001a0: f65d adbd a085 d33e 640c 1dbf 5c10 0cbf
000001b0: 3122 da3e fada 583e c1b8 a03f 1cbe 4d3f
000001c0: c66e 5bbd 8464 0c3d 5408 56bf 24aa 30be
000001d0: ed86 d83d 7777 32be 89b4 393e 197a 9fbd
000001e0: a65f c4bd 471d 023f bf0d 6b3f c4ff 683f
000001f0: 804b df3b 8076 1c3d 683c a4bd ec0e 183e

fc1.bias f4 [32]
-0.24383612 -0.3427035 0.13936487 -0.21961062 0.1862123 0.11955019 -0.052815598 -0.4034228
-0.15898174 -0.22173722 -0.41631055 -0.06585771 -0.07353309 0.15095541 -0.23570487 0.2535905
0.19554366 0.046348907 0.42496443 -0.12551236 -0.22096936 -0.3406965 -0.40440902 -0.29948106
-0.1098179 -0.22842067 -0.11355156 0.031984147 0.120686844 -0.40951234 0.122332826 -0.24653786
00000000: 2db0 79be d576 afbe aab5 0e3e 9be1 60be
00000010: 70ae 3e3e bbd6 f43d 2b55 58bd 6f8d cebe
00000020: 1ccc 22be 150f 63be a826 d5be 68e0 86bd
00000030: 8498 96bd 0e94 1a3e 9e5c 71be 9dd6 813e
00000040: 993c 483e 5ad8 3d3d f094 d93e 5086 00be
00000050: cb45 62be c66f aebe b30e cfbe 9555 99be
00000060: 35e8 e0bd 1ce7 69be b88d e8bd cf01 033d
00000070: aa2a f73d 9aab d1be a289 fa3d 6c74 7cbe

fc2.weight f4 [2, 32]
-0.41390443 0.03522711 -0.19727804 -0.268384 -0.037852813 -0.22847307 -0.098935075 0.17721835
0.046067905 0.16524127 -0.046201773 -0.078456916 -0.23482193 -0.24422754 0.018953465 0.42099485
0.41674247 0.46708295 0.09958967 0.19838817 -0.009440203 -0.31886825 0.15344572 0.09576493
-0.2470261 0.110521615 0.41423357 -0.47594914 -0.07281537 0.023019535 -0.41001835 -0.00022323077
0.22487563 0.036863234 0.3439792 0.107530825 0.29100075 0.23662467 0.2020691 0.025791466
0.053385414 -0.085378155 -0.25230134 -0.15834942 0.08283425 0.4036891 0.14527375 -0.34248137
-0.098584644 -0.19380337 -0.20002136 -0.3126557 -0.010984555 0.340729 -0.20760646 -0.04114964
0.03436294 0.0886827 -0.20558076 0.42171544 -0.10262345 0.0982142 0.57721645 -0.15754905
00000000: 48eb d3be 4d4a 103d 4103 4abe a169 89be
00000010: 8d0b 1bbd d8f4 69be 799e cabd ba78 353e
00000020: b3b1 3c3d 0235 293e 123e 3dbd 05ae a0bd
00000030: 2975 70be c916 7abe 4c44 9b3c a38c d73e
00000040: 455f d53e 7f25 ef3e abf5 cb3d 4526 4b3e
00000050: 15ab 1abc b342 a3be e020 1d3e 6720 c43d
00000060: 69f4 7cbe 2859 e23d 6c16 d43e 9baf f3be
00000070: 3a20 95bd 7793 bc3c eded d1be 0e13 6ab9
00000080: cc45 663e e7fd 163d 0b1e b03e 1f39 dc3d
00000090: 0dfe 943e bd4d 723e 34eb 4e3e a048 d33c
000000a0: aaaa 5a3d beda aebd a42d 81be 5a26 22be
000000b0: 01a5 a93d 56b0 ce3e a4c2 143e b859 afbe
000000c0: bfe6 c9bd 6474 46be 66d2 4cbe 6814 a0be
000000d0: 90f8 33bc 0874 ae3e ca96 54be 868c 28bd
000000e0: 27c0 0c3d 479f b53d c383 52be 16eb d73e
000000f0: 3e2c d2bd 8724 c93d 75c4 133f 8a54 21be

fc2.bias f4 [2]
-0.0035096507 -0.24095684
00000000: 2b02 66bb 64bd 76be
