PG/Policy_Based/REINFORCE/model_save/Discrete_REINFORCE_CartPole-v0_Score_130.0.pt (torch, 2644 bytes, 4 tensors)

fc1.weight f4 [32, 4]
00000000: eb66 c9bc 8d98 c4be d018 24bf 0745 7fbe
00000010: 89ff bfbe d218 15be eb64 c4be 1851 2fbf
00000020: 4a01 223e f09e 9ebe 9cf3 e9be 05ae 23bf
00000030: 3a69 e3bc 67cd b23e 7033 0fbd ca88 39bf
00000040: 8a99 c63d e4c2 2f3d 4a79 093f 1d15 62be
00000050: e858 02be c2b6 2bbe a9a7 c83e bf40 cdbd
00000060: f644 9a3e 0ea8 713e 8d97 09bf f1d8 ebbe
00000070: a81a c5be b62d 0dbf 3bb4 c73d 5236 113f
00000080: a7fe a7be 9ca9 863e f2f0 553d 9263 003e
00000090: af53 1d3e f559 64bd 13fb 12be 6e66 063e
000000a0: a950 583e 0053 0abe daa8 b4bd db3a 04bf
000000b0: d65f 1bbe 4eb8 6ebe d8ac 2c3f b994 4c3f
000000c0: 58f8 933c 309b d23e f7e3 abbe e0ea 4e3d
000000d0: 38fe a93d 5300 6abc b0ed 333f 3c70 063f
000000e0: 9d3e 8e3e 1c01 a6be ef3b 413e b4cb 173f
000000f0: 95d3 413e 63fc 8b3d 365a 97be a441 2d3e
00000100: 0036 fb3d 1462 a7bd 1b35 18bf 871e cebe
00000110: 7fba c3bd 2c49 65be 8a22 3dbd db17 2dbd
00000120: 39b0 bfbe 66ab 8bbe 5eec b3bd dea0 c3be
00000130: 5794 4e3d e370 18bc 9b23 31bf b7f9 6dbe
00000140: dbc5 d33e d018 403f 3e93 4b3f d35b 0a3f
00000150: a559 2dbf ef30 683e 0b93 21bf d84d f9be
00000160: 10f7 103e 3afd 73bd 8ebf cc3e a214 143f
00000170: 2ea5 df3e 339a c7be f0de 4d3f f276 4e3f
00000180: 9f61 95bb b237 c2bd 4575 433f 2a13 0e3f
00000190: c006 7abe 450e 6d3e 92a1 11bf da94 2fbf
000001a0: aa58 f13e 6203 203a c015 853e 4a77 163f
000001b0: 2d3d d63d a7fc 2e3d 49b2 a7be 5f2d 0fbf
000001c0: 1ba7 ee3d 38d7 f63d f66d 3c3f 86d6 ce3e
000001d0: 89ec f73e 2187 b3be 74cd 6c3e 3501 e63e
000001e0: 33f1 2b3e ec42 283e b2e1 15bf c9eb ccbe
000001f0: ed30 843d a439 003f b5f0 0abd ff7f d23e
-0.024585208 -0.38397637 -0.6410036 -0.24928676 -0.37499645 -0.1456025 -0.38358244 -0.68483114
0.15820804 -0.30980635 -0.45693672 -0.6393741 -0.027760137 0.34922335 -0.034961164 -0.7247435
0.09697254 0.04291047 0.537007 -0.22078367 -0.12729228 -0.16768935 0.39190415 -0.10022115
0.30130738 0.23599264 -0.53746873 -0.4606395 -0.384969 -0.55147874 0.09751173 0.5672351
-0.32811472 0.26301277 0.052231736 0.12537983 0.15363954 -0.055749852 -0.1435359 0.13125011
0.2112452 -0.13508224 -0.088212684 -0.51652306 -0.15173277 -0.23312494 0.6745124 0.7991443
0.018062755 0.41134024 -0.3357236 0.050516963 0.083004415 -0.014282304 0.7028456 0.52515006
0.27782145 -0.3242272 0.18870519 0.592952 0.18928368 0.06835248 -0.29561013 0.16919571
0.12266159 -0.08173004 -0.5945603 -0.40257666 -0.09557056 -0.22391194 -0.046175517 -0.04225908
-0.37439135 -0.27279204 -0.08785318 -0.3820867 0.050434437 -0.009304258 -0.69194955 -0.2323979
0.4136189 0.7503786 0.7952155 0.5404636 -0.6771491 0.22674917 -0.63114995 -0.48692203
0.14156747 -0.059567668 0.39989895 0.57843983 0.4368071 -0.38984832 0.804183 0.80650246
-0.0045587565 -0.09483279 0.76350814 0.5549799 -0.24416637 0.23149975 -0.5688716 -0.68586504
0.47137958 0.00061040197 0.25993156 0.5877577 0.10460887 0.042721417 -0.32753208 -0.55928606
0.116529666 0.120527685 0.7360529 0.40398043 0.4842265 -0.35064033 0.23125249 0.44922796
0.16791229 0.16431779 -0.5854751 -0.4002364 0.06454644 0.5008795 -0.033920962 0.41113278

fc1.bias f4 [32]
00000000: f8d3 a3bd 582f df3e f945 aa3e 1248 9e3d
00000010: 6ae0 473e ec02 49be 5f55 63be 9497 a8bd
00000020: 7b5e 02be 1745 ddbe 2e50 d63a 99c1 4d3d
00000030: aad6 d6be 2f84 7c3e c9f6 aa3e dcd1 03be
00000040: 5f05 c63e a79f a5be fe98 fbbe fec5 5e3d
00000050: 31ea 0cbe 4751 d13e 958f 8d3e 86be eebd
00000060: a929 083e 615d 813e d9cd 743e 93da 4b3d
00000070: faba 9e3e b55b c6bd f1a5 13be b32b 8a3d
-0.07999414 0.43590808 0.3325651 0.0772859 0.19519201 -0.19630021 -0.22200535 -0.08232036
-0.12731354 -0.43216774 0.00163508 0.050233457 -0.4196065 0.24659799 0.33391407 -0.12873024
0.38675973 -0.32348368 -0.4914016 0.05438804 -0.13761212 0.40882322 0.27648607 -0.11657433
0.13297142 0.25266555 0.2390665 0.049768995 0.31002027 -0.096854605 -0.1441877 0.06746616

fc2.weight f4 [2, 32]
00000000: 55f7 793e d86d 393e 9fc1 953e c5b5 0f3e
00000010: 81f9 983d 67e1 8f3d 7c74 ba3d 0fe3 48be
00000020: e0d2 d43d 417a b63d c034 563e bf79 95be
00000030: 07ea 1a3e 847d cbbe c95b 92be ddce 3bbc
00000040: ca94 de3d 5eea ffbd faf6 e03c 80db 4c3e
00000050: fb53 a9be 7d16 1e3e 843e 3abe eead f2be
00000060: a8a6 5abe ee96 813e 2386 c2be c40e 0c3e
00000070: 238e f2bd 465d a3be d530 413e 0308 88be
00000080: 9a7a 7cbe 3051 c3be a96f b6be 1160 a0be
00000090: ef0e 313d 4768 d73d a991 cabd 25dd bb3e
000000a0: a3ff 293e 2d33 773d 25e5 c5bd c71b ba3e
000000b0: d023 a03d 86aa 4a3e b189 e23d 1325 ab3d
000000c0: 726d eebd 7cdc 293e c8b0 ecbc 9ae6 adbd
000000d0: db15 c63e 463a 00be af7b 7a3e c3d5 5b3e
000000e0: f10c f43e 6042 8cbe 7aec c73e 766c a9be
000000f0: 617f 083e e453 d23e c396 c2be 5732 da3d
0.24410756 0.18108308 0.29249284 0.14034183 0.07469464 0.07025414 0.09104249 -0.19617866
0.10391784 0.08910037 0.2091856 -0.29194447 0.15128337 -0.39744198 -0.28585652 -0.011462894
0.10868223 -0.12495874 0.027461518 0.20005608 -0.33071885 0.15438266 -0.1818791 -0.47398323
-0.21352637 0.25310463 -0.37992963 0.13677508 -0.11843517 -0.319071 0.18866284 -0.26568612
-0.24656144 -0.3814788 -0.35632065 -0.31323293 0.043227132 0.10517936 -0.09891064 0.36692157
0.16601424 0.06035154 -0.096628465 0.36349317 0.07819331 0.19791612 0.11061419 0.08356681
-0.11641969 0.16588014 -0.02889289 -0.084912494 0.3868855 -0.1252223 0.24461244 0.21468262
0.47666124 -0.2739439 0.39047605 -0.33090562 0.13329841 0.41079628 -0.38005647 0.10654133

fc2.bias f4 [2]
00000000: af08 cebd 0d00 2cbe
-0.1006025 -0.16796894
